models/lstm_250.pt (torch, 813544 bytes, 9 tensors)

lstm.weight_ih_l0 f4 [512, 8]
000000 5d 58 8b 3e bc 00 87 3d dc d9 4a bd 40 eb e2 bd
       0.27215853 0.06591937 -0.049524173 -0.110800266
000010 d2 51 96 3a 9f 0b 81 bd 33 3b bd bd 98 9f 6c ba
       0.0011468476 -0.06301045 -0.09239807 -0.0009026467
000020 bc f0 fb 3b 62 d4 5e bd f8 ad 9c bd de b8 48 3d
       0.00768861 -0.054401763 -0.076503694 0.049004428
000030 bc cd 8e 3d ab d1 32 3d ce aa 4e be 7f 28 85 3d
       0.069728345 0.043656986 -0.20182344 0.06501865
000040 3b c2 30 3e 1c c9 b4 bd 02 80 ce 3a ca 12 75 bd
       0.17261593 -0.08827421 0.0015754702 -0.05983237
000050 07 19 ae 3b 84 6f 0c bd 4b 7c 8e 3d 9b ad b0 b9
       0.005313042 -0.034286037 0.06957301 -0.00033698682
000060 e2 20 50 bd 8a c8 89 3b 89 af ac bc c7 6f 61 3d
       -0.05081261 0.0042048143 -0.021079795 0.05503824
000070 a6 22 c6 3d e3 3a aa bd d5 66 32 bd 2b fa e8 bd
       0.096745774 -0.08312013 -0.0435551 -0.11375841
000080 04 73 12 bd a2 58 81 3c 2e aa 72 bd fe 8f 20 bd
       -0.03575422 0.015789334 -0.059244327 -0.03919982
000090 81 40 ce 3d 3e ba 65 3e d1 25 6e 3b e6 e4 ea bd
       0.10070897 0.22434327 0.0036338458 -0.1146944
0000a0 65 65 33 3e 60 35 66 bd 6d 41 8b 3c 12 41 8e bd
       0.17519148 -0.056203246 0.01699897 -0.06946005
0000b0 d2 21 51 bd a6 4f 4c 3d 79 a2 08 bd bf e1 40 bd
       -0.051057644 0.049880646 -0.03335807 -0.04709029
0000c0 89 33 24 bd 90 44 9c bd c4 6e 3b bd 8e 50 93 3d
       -0.04008821 -0.07630265 -0.04575993 0.07193099
0000d0 98 04 05 3e 2e 75 66 bd 89 40 22 be 60 b6 2c be
       0.12990034 -0.056264095 -0.1584493 -0.16866446
0000e0 9e 48 25 3e 69 19 dc bc a3 56 56 3d a6 59 68 3d
       0.16140983 -0.026867585 0.052328717 0.05672612
0000f0 0f 4f 87 bc c4 a2 30 bd f4 41 fc 3c a5 5f d2 bc
       -0.01651719 -0.043123975 0.030793168 -0.025680372
000100 05 a2 78 3e db b8 95 3d 70 b7 a7 3d c8 3c 1a bd
       0.24280556 0.07310649 0.08189285 -0.03765562
000110 ae 90 4c 3e 09 08 96 bd 73 bd 8b 3d 23 3e 42 bc
       0.19977066 -0.07325751 0.06823244 -0.011855635
000120 1f 60 a1 3d 84 74 05 3d d2 b3 0d 3d 30 6d c0 3d
       0.07879662 0.03258182 0.03459532 0.09395826
000130 41 63 ab 3d e5 2c 6f 3d 99 1d 4c 3d a5 5e ca bb
       0.083685406 0.058392424 0.049832914 -0.0061758333
000140 b1 46 86 bb 22 bc 1f 3e af 24 98 3d d9 19 ca 3d
       -0.0040977825 0.1559911 0.07428872 0.09868211
000150 9d 77 95 bd bf 48 b0 3e 42 4f 7d 3c b3 75 e6 bd
       -0.07298205 0.344305 0.015460791 -0.11252918
000160 52 90 93 3d ef fb 1a be 28 a0 ee 3c 75 d3 4c 3d
       0.07205261 -0.15135168 0.029129103 0.05000635
000170 fd d6 09 3e c8 72 12 3e 7c 81 02 3d cb 07 31 3e
       0.13460918 0.14301598 0.031861767 0.17288129
000180 ab 0a 17 3e ea a0 b8 bc 83 e6 c2 bd 54 e5 ae bd
       0.14750163 -0.022537667 -0.09516623 -0.085398346
000190 49 4d 83 bd f6 ad 28 be 33 cd 02 3c 2f 3f 89 bd
       -0.06411225 -0.16472611 0.007983494 -0.067015044
0001a0 f1 87 7d 3d 79 0d c7 3d 66 3e b6 bd 84 c3 02 3d
       0.061897222 0.097193666 -0.0889862 0.03192474
0001b0 d6 a8 9e 3e 56 cb 63 3e 2e c7 4a 3e 8b 34 bd 3d
       0.30988187 0.22245535 0.19802544 0.092385374
0001c0 12 68 90 3d ad 4a db 3d 26 38 f8 bc 86 34 ab bd
       0.070511 0.10707603 -0.030300211 -0.083596274
0001d0 e3 00 b0 3c 35 fd a5 3d d0 49 87 bd 25 95 09 3e
       0.021484798 0.08104936 -0.066058755 0.134358
0001e0 b9 40 5c 3e dc 30 a6 3d 84 b6 4a bd 8c 1c ea bc
       0.21509065 0.08114788 -0.049490467 -0.028578065
0001f0 c3 b9 1c be 01 f6 7a 3d cc 09 33 be e9 16 38 3c
       -0.15305237 0.061269764 -0.17484206 0.011235931
000200 2c 45 75 be 9e b1 33 3e 20 c2 4b 3e d8 b3 2e 3e
       -0.23952168 0.17548224 0.19898272 0.17060792
000210 21 b1 bb bd 38 3b 2b be b8 77 8e 3e 77 32 e6 3d
       -0.09164644 -0.16721809 0.27825713 0.11240094
000220 07 c4 af 3b 6f ae e7 bb 7d 13 e5 bd 53 17 88 bd
       0.0053639445 -0.0070703547 -0.11185358 -0.06645074
000230 50 29 ff bc ad 40 2c 3e fc 4c fd 3c 81 96 11 be
       -0.031147629 0.16821547 0.030920498 -0.14217569
000240 80 24 cd bd a1 d8 b0 b8 dc 31 8a be f0 19 6f be
       -0.100167274 -8.432684e-05 -0.26991165 -0.23349738
000250 b6 62 1a bd e7 48 cd 3b 18 a7 9e bd 5d 19 b0 bd
       -0.037691794 0.006264794 -0.07746714 -0.08598588
000260 15 13 ff 3b e8 57 96 3e 45 ef a4 3d 00 b7 f0 3c
       0.007784257 0.29363942 0.080534495 0.029384136
000270 12 22 da 3d c6 06 19 bd 24 59 1d bf 3f ed f1 3d
       0.1065103 -0.037359975 -0.6146414 0.11812829
000280 64 a0 d0 3e 49 23 b1 bc ed 8e 36 3b e8 d0 fe bc
       0.40747368 -0.02162327 0.0027856186 -0.031105474
000290 06 64 3a bd 70 9d 86 bc 56 61 1f bd c9 bb 46 3e
       -0.045505546 -0.016432494 -0.038911186 0.19407572
0002a0 30 65 31 3e ad 22 1e 3d 82 6b cb bd e1 8e 41 bc
       0.17323756 0.03860729 -0.09932615 -0.01181385
0002b0 60 fc ac bd 8b 32 8a bd e8 c6 36 bb ef 76 fe bc
       -0.08446574 -0.067479216 -0.0027889553 -0.031062571
0002c0 9f 80 d8 bd b7 9d 80 bc 66 aa 93 3c 28 38 c2 3d
       -0.105714075 -0.015700204 0.018025588 0.09483367
0002d0 a4 0c 5a 3c 2d 25 0b 38 98 ff 07 3e 6f 80 ca 3d
       0.013308678 3.3174805e-05 0.13281095 0.09887778
0002e0 31 82 7b 3e 4c fc 1e 3d 03 d0 73 bb 12 c7 2b 3d
       0.24561383 0.038814828 -0.0037202842 0.041937895
0002f0 c1 00 70 bd d2 97 a2 bc e7 3c d8 3c 52 7b 73 3d
       -0.05859447 -0.019847784 0.026396228 0.05944378
000300 9c 4d 3f 3e a7 38 fa bd d4 eb 88 3d df 70 2e 3d
       0.1868195 -0.12217837 0.06685606 0.04258811
000310 36 af 58 be cf 24 7b be 90 7f b3 3d cf c1 ea 3d
       -0.21160588 -0.2452576 0.08764565 0.11462747
000320 41 fd 5b bc 72 0b 38 bd bc cf 7f bd d1 dd 0c 3d
       -0.01342708 -0.04493279 -0.06245397 0.034391228
000330 0b 9e 9a bd 13 f3 6c 3d 4b 8a 47 3d 94 c7 9e 3b
       -0.075496756 0.057849 0.04871587 0.004845569
000340 7d cf 6e 3d cb 4a 99 3c 9f ab 43 3d 7c c1 28 bc
       0.058303345 0.018712422 0.047771093 -0.0103000365
000350 56 64 c8 bd 99 76 3f 3e b7 e7 69 3e c3 61 9d 3d
       -0.097847626 0.18697585 0.22842298 0.07684662
000360 94 e4 ac 3d 27 08 52 bc 99 7e 7a bd ec 82 32 bd
       0.08442035 -0.0128193265 -0.06115589 -0.043581888
000370 cd 90 14 3e 82 d1 76 3c 23 56 ed be e6 cf b1 be
       0.14508362 0.015064599 -0.4635478 -0.34728926
000380 5c 39 08 bd c7 12 a5 3d aa 55 9c 3a 3d e8 b9 bc
       -0.033257827 0.08060222 0.0011927385 -0.022693748
000390 99 d3 a5 3d e6 7a 03 3e 45 af 39 3e 54 48 8f 3d
       0.08097 0.12839851 0.18133266 0.06996217
0003a0 d9 e0 a5 3b 0e b1 f2 3d e0 d3 2c bd d4 5a 18 3d
       0.0050622043 0.11850177 -0.042194247 0.037195995
0003b0 c3 ca 88 be 92 85 49 be 0b d4 29 bd f4 22 9f 3c
       -0.26717195 -0.1967986 -0.041461986 0.019425847
0003c0 63 77 75 3d 9a 24 90 bd 45 51 4c 3d 44 cf a4 3d
       0.05992831 -0.07038231 0.049882192 0.08047345
0003d0 18 63 b1 bd 1d f1 4d 3c 9c 71 ef bd 25 bf f1 bd
       -0.08661479 0.012569693 -0.11691591 -0.11804036
0003e0 45 14 b6 bd ab cf cd 3b b9 09 97 bc d1 1e 6d bc
       -0.08890585 0.0062808595 -0.018437253 -0.014472679
0003f0 a7 68 08 3d 48 f3 66 bd 16 e3 54 3e 5a 5c 67 be
       0.03330293 -0.056384355 0.20789751 -0.22593823

lstm.weight_hh_l0 f4 [512, 128]
000000 66 2a 3a ba 33 ca 6e 3d eb 62 bf 3d 98 ca 4d 3c
       -0.0007101655 0.0582983 0.09345039 0.012560509
000010 19 57 1a 3e 29 ed b6 bd 58 72 7b 3d 5d 98 69 bd
       0.15072288 -0.089319535 0.061388344 -0.05703007
000020 87 dd 1a be 0c 94 7d 3d 0f 8f b2 3d b2 68 14 be
       -0.15123568 0.061908767 0.087186925 -0.14493063
000030 19 56 a2 3d 7f d6 1f be a6 79 77 3c 28 de 9e 3d
       0.07926578 -0.15609168 0.015104687 0.07757217
000040 cf 62 f3 3d 9b 34 b9 bd 5e 06 e8 3d be 66 fd 3d
       0.118840806 -0.09043237 0.113293394 0.12373112
000050 51 af f0 bc 85 55 85 3c 39 7a 88 bc a3 8c 1e 3d
       -0.029380472 0.01627613 -0.016659843 0.03870834
000060 09 37 53 be d0 bc 78 bb 32 1a 66 bd aa 0c c6 3c
       -0.20626463 -0.0037954338 -0.056177326 0.02417596
000070 c3 09 04 3d 9d 75 f9 3d 54 6c 9a bd 88 69 0f be
       0.032235872 0.12180636 -0.07540193 -0.140051
000080 ad 0a 39 bd 7f 56 ae 3d 83 15 bd 3c 59 9c 35 3d
       -0.045176197 0.085125916 0.023081547 0.044338558
000090 18 2b 80 bd 4b ee e4 bd 4a 79 b3 bd 42 08 bd bd
       -0.062582195 -0.11178263 -0.087633684 -0.09230091
0000a0 ef ce 22 3d 66 af 50 3c bf cf 84 3d 50 f1 5b be
       0.03974813 0.012737131 0.06484937 -0.21478772
0000b0 08 c9 3a 3e 64 31 12 3e d6 8f 89 be 96 ee 36 3e
       0.1824075 0.14276654 -0.2686755 0.17864451
0000c0 ca 38 49 3d a0 0c 07 3e 25 d9 52 bd 7d 00 41 3d
       0.049126424 0.1318841 -0.051476616 0.047119606
0000d0 04 16 0e 3d c1 81 80 bd 25 c3 3d be 2c b8 23 3d
       0.034688964 -0.062747486 -0.18531473 0.03997056
0000e0 6b 5f 84 3e ae 3e c2 3d b6 97 2b bc b8 98 91 bd
       0.25854048 0.094846115 -0.010473182 -0.07109207
0000f0 f2 22 b3 3d 6e 11 b4 bc ae 61 46 3c 74 d0 0b be
       0.087469 -0.021980967 0.01210825 -0.13653737
000100 c3 b2 27 be 78 c8 10 3e 98 56 07 3e 67 00 0c 3e
       -0.16376786 0.14138973 0.13216627 0.13672028
000110 00 99 08 3e f0 9a 20 3c 16 88 1f bd 31 18 e8 3c
       0.13339615 0.009802565 -0.03894814 0.028331848
000120 08 46 8a 3d b2 c1 5a bd f7 e3 0f be 7a 29 38 3d
       0.06751639 -0.05340738 -0.14051805 0.04496143
000130 09 ae 2f be 86 bb 13 3d 01 43 94 3e 22 c7 22 be
       -0.17156233 0.03606751 0.2895737 -0.15896276
000140 2d 42 b9 bd c0 27 f3 3d 42 12 8d bd 3e 94 19 be
       -0.09045825 0.11872816 -0.06888248 -0.14997956
000150 d0 ca a1 3d 71 12 26 be 3a f7 97 bb 92 b4 fc 3c
       0.079000115 -0.16217972 -0.004637626 0.030847821
000160 eb dd 2a bd a8 3f 5a 3d a8 7e 0f be 1f 60 9a bd
       -0.041715544 0.053283364 -0.1401316 -0.07537865
000170 3c 77 83 3c 0d 55 fb 3d 0c 94 95 bc c8 cd 4b 3c
       0.016048066 0.122720815 -0.01825907 0.012439199
000180 be c4 4e be b4 8c 47 3d 8f 34 51 3e 5f 79 0e bd
       -0.20192239 0.04871817 0.20430206 -0.034783717
000190 3c af 4f 3d be 8d a9 3b 72 42 c8 bd 0f 2b 7d bb
       0.050704226 0.0051743677 -0.097782984 -0.0038630401
0001a0 76 8b 0c be 96 c0 83 bc 68 90 07 be 1b b8 3b be
       -0.13725075 -0.016083043 -0.1323868 -0.1833195
0001b0 fc 2b 6d 3d bf cd b6 bd b9 8b 76 bd 43 7d c6 bd
       0.057903275 -0.08925962 -0.060191844 -0.096918605
0001c0 27 a5 7d be ba 1f de bc b8 b8 bf bd b0 bb 8e bc
       -0.24770032 -0.027114738 -0.09361404 -0.01742348
0001d0 09 bf 90 3c a2 bc 31 3e fe 3d 00 3d bc 8c 02 be
       0.017669218 0.17357114 0.03130912 -0.12748998
0001e0 2e 5a 9e 3d d8 3c 83 bd a4 72 d1 3c cb 65 25 3c
       0.07732044 -0.064080894 0.02556736 0.01009507
0001f0 d9 5e 68 3b 79 ff 9a bd bd 1a 65 3c 51 cb d4 3c
       0.0035456924 -0.07568259 0.013983426 0.025975855
000200 6c f8 93 bb cf f2 52 bd 11 96 87 3c 85 da 00 3d
       -0.004515698 -0.05150109 0.01655105 0.031458396
000210 18 e9 b4 bd 4b 50 ed bb 83 8a e3 bc e5 80 e7 bc
       -0.088335216 -0.0072422377 -0.027776008 -0.028259704
000220 4e d0 7e bd e9 8e a2 bd cb 17 20 3e 1f c8 3e 3c
       -0.062210374 -0.07937414 0.15634076 0.011644392
000230 2e 32 9e bd 0e 51 20 3a c3 ed 82 bd ef 07 16 be
       -0.07724415 0.0006115594 -0.06393006 -0.14651464
000240 2f 1a 00 be 43 59 ec bd b2 b0 37 be 15 48 fe bc
       -0.12509988 -0.11540463 -0.17938498 -0.03104023
000250 a2 c3 cb 3d 0c f5 8c 3d 86 2f 07 3d 47 01 09 bd
       0.099494234 0.068826765 0.033004306 -0.033448484
000260 f2 a0 1e 3d c2 ff dc bd 7a d0 21 3d af 1e 09 bd
       0.03872771 -0.107909694 0.03950546 -0.033476528
000270 43 ff d4 bd b8 8e 41 3d 1e c9 46 3d e7 63 af bd
       -0.1040025 0.047255248 0.048531644 -0.08563977
000280 a5 6b 9d 3c c1 9a 1e 3e a2 cb 32 3c db d8 9b 3d
       0.019216368 0.15488721 0.010912808 0.07609721
000290 1a ba ce 3d f1 1b 71 3d 09 16 9e bb 95 c8 98 bc
       0.1009409 0.058864538 -0.004824404 -0.018650332
0002a0 f5 aa 2c 3d 13 a4 09 3e e3 2d cf bd ff 70 97 3d
       0.042155225 0.13441496 -0.10116174 0.07394599
0002b0 3b e7 a1 bc 86 e4 57 bd 07 45 0e 3e af bf 8a 3d
       -0.01976358 -0.05270817 0.1389352 0.06774842
0002c0 7d 03 bb bd 74 38 d5 bc fe 2a ee 3c 92 e9 c9 bc
       -0.09131525 -0.026027896 0.029073235 -0.024647508
0002d0 d1 75 88 bd 50 32 b7 3c 50 da d0 bd 75 2c e2 3d
       -0.06663097 0.022362858 -0.1019789 0.11043636
0002e0 49 1a a8 3d ee 89 99 3c 68 3a e7 3d c3 9a 16 bd
       0.082081385 0.018742528 0.11290437 -0.036768686
0002f0 d0 82 c6 bd 74 f2 82 bc 7a 51 b0 bd bb 5e 37 be
       -0.09692919 -0.015984751 -0.086092904 -0.1790723
000300 7b a8 c6 bc 12 f9 e8 bc 2e a9 1c bc c7 5c 6a 3d
       -0.02425026 -0.028439078 -0.00956182 0.057217386
000310 40 1f 60 bd 32 d0 5c 3e 64 eb c3 bd 54 f1 df bd
       -0.054717302 0.21563795 -0.095663816 -0.109347016
000320 96 f4 ad 3d 6e 30 92 bb 99 68 d4 3d 93 41 f0 bd
       0.08493917 -0.0044613397 0.10371513 -0.11731257
000330 c6 10 09 3e b3 0f 55 bc c6 93 1c be 97 ad e2 3d
       0.13385305 -0.013004231 -0.15290746 0.11068266
000340 d4 03 bf bd 74 3e b0 3d 19 aa f6 3d b7 34 c5 bd
       -0.09326902 0.08605662 0.12044162 -0.09629195
000350 8d 68 38 bc b1 89 0a 3e 2d 87 93 bc 68 03 02 bc
       -0.011255396 0.13529088 -0.018008793 -0.007935382
000360 a7 43 b6 3b c4 f8 a3 bd e2 b6 f6 3b 4a 59 07 be
       0.005562264 -0.08006433 0.0075291255 -0.13217655
000370 fa 85 05 3e c3 4a 72 3d 9b c0 9e 3b f6 af 80 3d
       0.13039389 0.05915333 0.0048447377 0.06283562
000380 52 dc e2 3c 2b 33 93 3d a9 a3 90 3c 5f 50 11 3e
       0.027692948 0.07187494 0.017656164 0.14190815
000390 13 a7 af bd 45 a9 74 bd bd 61 4b 3d 72 f4 a0 3c
       -0.08576789 -0.05973174 0.049653757 0.01964781
0003a0 79 95 5b bd ba 9a 84 bd ab 7a 13 3e 0b fd 91 bc
       -0.053609345 -0.06474824 0.14402263 -0.017820856
0003b0 c8 e0 26 be 08 6e bc bd ec 36 bf bd 65 f8 b5 3d
       -0.16296685 -0.09200674 -0.093366474 0.08885268
0003c0 33 44 75 3d 2e dc 6b bd 8e d7 1a 3d b3 1c 8e 3d
       0.059879493 -0.057583027 0.037803225 0.06939068
0003d0 41 09 55 bd 2a e8 5a bd 30 5a c1 3d 7b 8b c4 3c
       -0.05201078 -0.053444065 0.0944103 0.02399229
0003e0 b4 f5 19 be 66 4a 2c 3c 9e 67 cf 3d d4 f2 31 3d
       -0.15035135 0.010515785 0.10127185 0.04344447
0003f0 a1 6d c4 bd 80 f7 1d 3e db 9b bc bd 08 e5 2c bd
       -0.095912226 0.15426445 -0.092094146 -0.04221061

lstm.bias_ih_l0 f4 [512]
000000 10 ab 77 3d 2a 9c 64 bd 82 28 20 bc f6 f3 c8 bd
       0.060465872 -0.055812992 -0.009775283 -0.09812157
000010 93 6b 19 bd a3 a1 a8 bd b1 2f a7 bd 90 26 18 be
       -0.037456106 -0.08233955 -0.08163393 -0.1485846
000020 b2 05 9c 3d 04 fa 2f bd c3 2a 24 bd 04 bd 52 bd
       0.07618274 -0.042963043 -0.040079843 -0.05144979
000030 a5 43 03 be 37 11 6f bd 8b 14 3a bd 8d ad 1b be
       -0.12818773 -0.058366027 -0.045429748 -0.15202923
000040 26 1a 92 3b ed e3 ad 3c b9 5f a4 bd 75 7e f5 bd
       0.0044586835 0.021226848 -0.0802607 -0.119870104
000050 08 06 8a bc 80 5d 55 3c f0 18 51 bd 9f 4d 5f 3d
       -0.016848579 0.01302278 -0.051049173 0.054517385
000060 06 96 e0 bd 15 63 d0 bd cc 8b d5 bd 20 3d 68 be
       -0.10966115 -0.101751484 -0.10427055 -0.22679567
000070 a7 30 48 bb e1 47 f7 bd 4c 40 8d bd 3e 52 2e 3b
       -0.0030546577 -0.12074257 -0.06897029 0.0026599313
000080 34 2c 79 bd 60 44 5c bd 5d 14 af bc aa d4 5e 3e
       -0.06083317 -0.053776145 -0.021372015 0.21760812
000090 5f 67 ec bd 28 9d fa bd a4 61 61 3d 56 96 96 bd
       -0.11543154 -0.122370064 0.055024758 -0.07352893
0000a0 3f 2a 74 bb e7 e0 a3 3d 0e e7 fd bd 8d 43 9c bd
       -0.0037256626 0.08001881 -0.12397586 -0.07630072
0000b0 d8 34 aa bc 05 59 bf bd 09 97 1c bd f1 1d 9b 3c
       -0.020777151 -0.09343151 -0.038229976 0.018935176
0000c0 72 e0 17 be e8 b4 6e 3d ed 14 c7 bd 7a 70 35 be
       -0.14831713 0.058277994 -0.09720788 -0.17718688
0000d0 dc 87 94 bd f7 5d 02 bd f9 12 b0 bd 7b fe ed bd
       -0.072524756 -0.031827893 -0.08597369 -0.11620804
0000e0 5b bf 76 3d e5 d0 87 bd 2c d4 90 bd b3 df 15 3d
       0.060241085 -0.0663164 -0.070717186 0.03659029
0000f0 61 de 04 bd 26 58 0a be ff e8 7a 3d eb 05 7c bc
       -0.03243864 -0.13510188 0.06125736 -0.01538227
000100 dc 5b 00 be be 3e 20 3d 2c 05 11 3c 06 0f 14 be
       -0.12535042 0.039122336 0.008851331 -0.14458856
000110 41 13 d6 3d 04 12 65 bd 2a 78 5e be 95 f6 6b 3c
       0.10452891 -0.055925384 -0.21725526 0.014402051
000120 a8 18 16 be ff 14 54 3c 1f c2 1b 3d 46 dd 75 3e
       -0.14657843 0.012944459 0.038026925 0.2401019
000130 2f 72 3e be 93 33 38 bd f0 d5 a9 bd 61 77 05 be
       -0.18598245 -0.04497106 -0.082927585 -0.1303382
000140 fa d5 8d 3c e8 2a ff bd 8d 79 92 3d f8 0a 8e bc
       0.017313946 -0.124593556 0.0715209 -0.017339215
000150 0b 8f a2 bd 10 01 e2 3d a2 a1 cf bd 44 bd cb bb
       -0.079374395 0.11035359 -0.10138251 -0.0062176306
000160 4b 4e d9 bd bf 98 35 bd 19 3b 0c be 6d 9a d8 bd
       -0.10610636 -0.044335123 -0.13694419 -0.105763294
000170 c9 62 d1 bb 6f e0 9e bd 47 c8 98 bd 62 26 31 bd
       -0.00638995 -0.07757651 -0.07460075 -0.043249495
000180 eb 52 21 be 5f 04 0f bd 54 3f a6 3d 7d ce 9b bd
       -0.15754287 -0.034916278 0.08117548 -0.07607744
000190 c5 4e eb bd 34 3b 9a bd 91 0b cf bd f4 7b b1 3d
       -0.114896335 -0.07530823 -0.10109628 0.0866622
0001a0 63 8f d8 3d 99 d9 87 bd df 5f 7d be dd 82 a2 bd
       0.10574224 -0.066333 -0.24743603 -0.079351164
0001b0 e5 ee b3 3d cd 0d ee bd 8f 53 14 be 75 13 81 bd
       0.087858 -0.11623726 -0.14485 -0.06302539
0001c0 3a 5a 75 3d 8a 6d e9 3c 94 6c 71 3d ad b6 f9 bd
       0.0599005 0.028494615 0.05894144 -0.12193046
0001d0 86 0c ab bd da 68 ae bd 6c da bb bd 5a 56 19 be
       -0.08351998 -0.085160926 -0.0917252 -0.14974347
0001e0 56 14 90 bd 2e 2b b7 3c 7a 3c 59 bd db 0d 13 bd
       -0.07035129 0.022359457 -0.05303619 -0.035901885
0001f0 98 ba e6 bd 08 84 c3 bd b6 4b a3 3b 1c 18 4c be
       -0.11266059 -0.09546667 0.0049833907 -0.19931072
000200 06 27 46 3e 0d 13 3f 3d 64 5e 6e bd 16 e6 64 3d
       0.19350824 0.046649028 -0.058195487 0.05588349
000210 8f c8 ae 3c dd 2d 3e 3d 9d 43 b2 3b 36 4a 70 bd
       0.021335868 0.046430457 0.005440189 -0.058664523
000220 b9 e6 10 3e 28 e0 d3 3c e1 69 2f 3d da 92 0e 3e
       0.14150514 0.025863722 0.042825583 0.13923207
000230 ee 33 db bc be 77 3b 3e 41 c9 09 3d f1 90 f7 3c
       -0.02675816 0.18307397 0.033639196 0.03022048
000240 56 32 88 bb 75 d6 15 3d ac 4a d0 3d 50 e1 ba 3d
       -0.004156391 0.036581475 0.101704925 0.09125006
000250 04 d8 33 3e c6 41 98 3d a5 b8 57 3d 19 60 cb 3c
       0.17562872 0.0743442 0.052666325 0.024826096
000260 43 0e ff 3d 0a 70 93 bd 3d f2 f0 3b e4 b4 c8 3d
       0.12453892 -0.07199104 0.007353096 0.09800127
000270 04 e1 fc 3a 70 a3 21 3b 56 15 c7 3c 13 e3 95 bd
       0.0019293134 0.0024664067 0.024302166 -0.073187016
000280 2a ec c3 3c 56 4a 00 3e 6e 5e dd 3d ce 5c 8e 3d
       0.023916323 0.12528357 0.10809027 0.06951295
000290 0d c1 75 bd 1b d0 bf 3d 01 27 ca 3d 3a 73 41 bd
       -0.05999856 0.09365865 0.09870721 -0.04722903
0002a0 c2 c5 0f 3c 3d 39 e8 3d 47 a4 c2 bb 1a 6a 51 3d
       0.0087751765 0.11339042 -0.0059399935 0.051126577
0002b0 2f 5e 9a bd 05 f4 4d bc 2b a8 00 3e 1d 47 bd 3d
       -0.07537495 -0.012570386 0.12564151 0.092420794
0002c0 4b f0 2b 3c 31 51 27 3d aa de cc 3c e6 1d 38 3d
       0.010494302 0.040848915 0.025008518 0.04495039
0002d0 11 ce 89 3d 0a d0 37 bd b3 a7 0b 3e 9c 4f 3f bd
       0.06728757 -0.044876136 0.13638191 -0.04670678
0002e0 24 c0 be 3c 8f a0 1a 3e fd f8 73 3d cb dc 8a bd
       0.02328498 0.1510031 0.059563626 -0.06780394
0002f0 0e d4 4c bd 7c 9c 91 3d b2 e5 cd 3d 1f 2e 84 3c
       -0.05000692 0.07109925 0.100535765 0.016135274
000300 5a 05 0a 3e ff d2 67 3d e2 69 a1 3d ba 03 04 bc
       0.13478604 0.056597706 0.07881524 -0.008057529
000310 33 85 24 3e 5c b9 cd 3c 16 b3 89 3d f3 d8 60 bd
       0.16066436 0.0251128 0.06723611 -0.0548944
000320 fe cf 39 bd 55 d6 2a bd 74 b6 23 3d 80 48 0a 3e
       -0.045364372 -0.04170831 0.039968923 0.13504219
000330 4a a0 17 be 06 e8 6e 3d b6 5c 64 bd 93 fe a7 3d
       -0.14807239 0.058326744 -0.05575248 0.08202853
000340 28 06 04 3e 71 71 e0 3c 64 2a 71 bc 3a 21 81 bd
       0.12892973 0.027397843 -0.014719579 -0.063051656
000350 e1 83 45 3d 9a 58 1f 3e e8 5f 61 bd f6 89 19 bd
       0.048221473 0.15561143 -0.055023104 -0.037485085
000360 d1 e5 08 3d ff eb 67 3d e3 f1 c1 bc 1a da df 3d
       0.033422295 0.056621548 -0.02367491 0.109302714
000370 62 c2 e2 3d be af 7d 3d 26 0f 82 bd 86 0e 8b bd
       0.11072232 0.06193518 -0.063505456 -0.067898795
000380 aa eb ab 3c 00 5d b5 3d 08 49 cf 3d 16 13 89 bc
       0.020986397 0.08855629 0.101213515 -0.016732734
000390 29 74 54 bc 29 d1 fa bd 2a 29 98 bc 3b 4a 13 3d
       -0.012967148 -0.122469254 -0.018574316 0.035959464
0003a0 6a 8c 2d 3e 70 8c 56 3d 6c 87 65 bd 22 ce a8 bd
       0.16948095 0.052380025 -0.05603735 -0.08242442
0003b0 e9 db a7 bd 23 ee 31 3b 8c 95 8c bd 7b 72 d4 3c
       -0.081962414 0.0027149997 -0.06864461 0.025933495
0003c0 e7 e6 59 3e b8 a8 a8 3d e2 c2 3e bd 2e bd 8e 3c
       0.21279489 0.082353055 -0.046572573 0.017424192
0003d0 b1 74 db bc 12 a3 85 3d 16 0b b6 bb eb 8d 11 3d
       -0.026789041 0.06525244 -0.0055555208 0.035535734
0003e0 df c5 03 3e 12 b7 82 3b 03 a4 b7 3c f2 07 de 3a
       0.1286845 0.003989109 0.022417074 0.0016939624
0003f0 78 29 dd bd 66 a9 d7 bd b4 09 b4 3d 76 d2 33 3d
       -0.10798925 -0.10530357 0.08790913 0.043901883

lstm.bias_hh_l0 f4 [512]
000000 e3 64 9a ba d4 42 19 bd 4e f4 3a bd fc 44 dd bd
       -0.0011779334 -0.037417248 -0.045643143 -0.10804173
000010 4e 82 d0 bd a3 17 cb bd f0 9f be bc 2b c8 c6 bd
       -0.10181104 -0.09916618 -0.023269624 -0.09706148
000020 29 9e 9f bd bc 03 ce bd df 83 87 bd e6 85 d7 bd
       -0.077938385 -0.10059306 -0.06616949 -0.10523586
000030 d7 2b cb bc 8c 8e ac bd ad 0b 36 bd f2 84 83 bd
       -0.024801178 -0.08425626 -0.04444473 -0.06421842
000040 22 c4 8e 3c f6 5b f3 bd 6d b3 3e bd db 5b 04 3d
       0.017427508 -0.118827745 -0.046557833 0.032314163
000050 fa 63 6b bd 43 ad 07 be 6e 99 8b bd 80 6e bf bc
       -0.057468392 -0.13249688 -0.06816374 -0.02336812
000060 4f f8 30 be 0f a5 8b bd 5c ac 8c bd 66 72 b5 bd
       -0.17282222 -0.06818592 -0.068688124 -0.088597104
000070 d8 da a8 3d 1e 9d 0d be 51 72 93 bd 9b f0 f7 bd
       0.08244866 -0.13829467 -0.071995385 -0.12106439
000080 2e a9 60 bd f9 1d 3b 3d 2b b9 85 bc a0 d1 61 3d
       -0.054848842 0.04568288 -0.016323647 0.055131555
000090 c4 fa 60 bd 91 c4 90 bd b6 97 1a 3d 57 88 f2 3c
       -0.05492665 -0.07068742 0.03774234 0.029606028
0000a0 bc ea 12 be ce ff 34 3d 97 e5 4e bd ac 0c 8c bc
       -0.14347357 0.044189267 -0.050511923 -0.017095886
0000b0 ea 37 6a bc b0 c7 cb 3c ec f2 8c 3c d6 aa 84 bd
       -0.0142955575 0.024875492 0.017205678 -0.06477897
0000c0 00 17 e5 bd 48 a3 8a bd 4b aa fb bb ce 15 1a be
       -0.111860275 -0.06769425 -0.0076802126 -0.1504738
0000d0 a4 e7 45 3d 98 b5 1f bd 30 8d a7 bd 33 cb 0b be
       0.048316613 -0.03899154 -0.08181226 -0.13651733
0000e0 c4 86 c4 3a 22 ce 9b bc 77 30 22 3d 27 b8 a0 bd
       0.0014993777 -0.01901919 0.039597 -0.07847624
0000f0 93 8e 16 bd de b0 d1 3c 10 8e 72 3d d9 f0 24 be
       -0.036757063 0.025597032 0.059217513 -0.16107501
000100 29 06 b4 bd d5 a0 8f bc 03 95 d8 bd 9c 7e 20 be
       -0.087902375 -0.017532745 -0.10575297 -0.15673298
000110 3d ae 8b 3e 45 51 85 bd 2c eb 3f be b3 7c 86 3c
       0.2728137 -0.065096416 -0.18742055 0.016416883
000120 f1 45 c0 bb 56 5c 8d 3d 1f 42 1c 3c f1 88 2f 3e
       -0.0058677127 0.06902377 0.009537249 0.17142083
000130 bb 34 aa bd 86 5e ce 3b a1 f3 f3 bc 0d 66 16 bd
       -0.08310839 0.006297889 -0.029779257 -0.036718417
000140 af e1 6a bd ac 4b e0 bc ad 53 93 3d e0 2c 12 3d
       -0.057344135 -0.027379833 0.07193694 0.035687327
000150 f9 b5 d7 bd 1b 64 45 3d 2f 3f 0a be 7d 6b bb 3c
       -0.105327554 0.04819117 -0.13500665 0.022878403
000160 bf bc ed bd 09 84 84 bd b4 9a c6 bd 2e 0d 89 bd
       -0.11608266 -0.06470496 -0.09697476 -0.06691967
000170 25 26 be bd 6f df 91 bd 3b d0 e4 bd 9f 1d 79 bc
       -0.09284619 -0.07122695 -0.11172529 -0.015204816
000180 fe 39 de bd 34 77 0f 3d 56 70 60 bc 3b 39 82 bd
       -0.10850905 0.03502579 -0.013698658 -0.06358572
000190 b2 12 27 bc 61 d7 09 bd ba a9 2f 3c bf 49 c6 3d
       -0.010197328 -0.033652667 0.010721618 0.09682035
0001a0 18 2c d2 3d a3 f4 04 bd 2a a9 01 be f8 15 e8 3c
       0.102623165 -0.032459866 -0.12662187 0.028330788
0001b0 40 dc a2 3b fa 84 bf 3c b8 ca 3a bd 47 e4 80 bd
       0.0049701035 0.023378838 -0.045603484 -0.062935404
0001c0 63 b6 d5 3d 51 27 83 bd 66 42 15 bd c0 6d 7e bd
       0.10435178 -0.064039834 -0.036440276 -0.062116385
0001d0 9b 0b b8 3c 89 bb c6 3c e2 e8 81 bc 0c f9 99 bd
       0.022466471 0.024259346 -0.015858117 -0.07518205
0001e0 47 92 f0 bb 76 78 2f 3d b1 19 a8 3b aa ed 12 bd
       -0.0073416564 0.04283949 0.005130016 -0.035871185
0001f0 c4 57 a7 bd a5 b6 01 be e0 99 b1 bc a2 5b cb bd
       -0.08171037 -0.1266733 -0.021679819 -0.09929587
000200 ff 60 38 3e d5 79 4c 3d 71 6b 3c 3d 9d fb a9 bd
       0.18005751 0.049920876 0.0460009 -0.082999445
000210 16 d6 c5 bd 84 79 65 bd ff 8d 77 3c 69 77 e8 3c
       -0.09659974 -0.05602409 0.015109538 0.028377252
000220 16 0e 25 3e 32 de d6 3c 8d 9d 02 3e 51 f5 6a 3c
       0.16118655 0.026228998 0.12755413 0.014340715
000230 dd 67 b7 bd 18 dd 30 3e 4d 8a c4 3c 4b 53 f9 3c
       -0.08955357 0.1727184 0.023991728 0.030435225
000240 2f 3c b1 3d 61 3d 7e bd 6f 32 e3 3d 28 c6 29 3e
       0.08654057 -0.062070254 0.11093604 0.16579497
000250 cc 0c 42 3e a1 49 05 3d 7e ae d4 bc ee ab cc 3c
       0.18950194 0.03254092 -0.02596211 0.024984326
000260 31 4f 5a 3c 50 3e 4d 3c 9c 33 ed 3d 32 27 02 3e
       0.013324545 0.0125270635 0.11582109 0.12710264
000270 4e 2b f4 bb da da 9f 3d b1 fd d8 bd 61 7e 69 3c
       -0.0074514514 0.078054145 -0.10595263 0.0142513225
000280 c6 67 20 3e 48 5d 41 3d 50 68 10 3d 2a 13 84 3b
       0.15664586 0.0472081 0.03525573 0.004030605
000290 6f 77 48 3c 35 65 28 3e 5d 24 a0 3d 0a 47 21 bd
       0.012235506 0.16444857 0.07819436 -0.03937439
0002a0 32 b5 85 bd c3 a5 4e 3e 57 c7 0d bd 0d 16 05 bd
       -0.06528701 0.2018042 -0.034613933 -0.032491732
0002b0 0b 14 b9 3c 50 81 f1 bc e7 ee 06 3e 22 99 00 3d
       0.022592565 -0.029480606 0.13177072 0.03139604
0002c0 0b da af bd 1d 34 da 3d e4 33 d8 3d b4 dd 67 3c
       -0.0858651 0.10654471 0.10556772 0.014151979
0002d0 50 4e 6d 3d 71 85 52 bc f6 29 a8 3d 64 18 9f bd
       0.057936013 -0.012849198 0.082111284 -0.07768324
0002e0 b9 08 ae 3d 10 cb e4 3d db 1d 82 3d 6f dd fb 3c
       0.084977575 0.111715436 0.06353351 0.030745236
0002f0 a3 ae ad bc 49 7f a8 3d 46 ac cf 3d ce c6 76 3d
       -0.021201437 0.08227403 0.101402804 0.06024819
000300 37 e4 0b 3e 6f 39 02 3e 11 39 c5 3d 4e c7 e1 3c
       0.13661276 0.12717222 0.09630025 0.027560856
000310 dc f6 01 3c a4 91 ad 3d 05 1b c9 3d 9b 22 b5 bd
       0.007932391 0.08475044 0.09819607 -0.08844491
000320 5f 92 aa bc 26 6c 9d 3a 2a 7b 92 3d 3b 6b be bc
       -0.020821748 0.001201038 0.07152398 -0.02324449
000330 1f 89 f2 bd 56 6b 02 3c 5c 6e 92 bc 0d f1 08 3c
       -0.1184256 0.007960161 -0.01787489 0.008358252
000340 2d 97 f9 3d 33 98 d1 bd d5 73 d5 bc c7 61 89 3d
       0.121870376 -0.10234108 -0.02605621 0.06708103
000350 60 40 26 bd 9e b6 74 3d b2 ac 4c bd b1 ac 5c 3d
       -0.040588737 0.05974447 -0.049969383 0.05387563
000360 25 c4 d7 3d e6 27 62 3d 06 86 6b 3c 3a 9e 0f 3d
       0.105354585 0.05521383 0.014375215 0.035063006
000370 87 5f 25 3b 69 d1 c1 bd 27 ff ba 3c 0a be 0e 3d
       0.002523394 -0.0946377 0.022826744 0.034849204
000380 b9 79 21 bd c7 5f 48 3d 17 a8 26 3d 11 fa 86 3d
       -0.039422724 0.048919465 0.040687647 0.06590665
000390 cc 49 c6 bb 82 31 cb bd 9b 3a f1 3c 7f 55 09 3e
       -0.0060512777 -0.09921552 0.02944689 0.1341152
0003a0 29 9c 5a 3d c3 66 74 3d 61 a4 94 3c 56 71 48 bc
       0.053371582 0.059668314 0.018144788 -0.012234053
0003b0 da e6 89 bd a1 1b 6e bd 97 56 aa bd 66 d4 70 3d
       -0.067334846 -0.058131818 -0.08317297 0.05879631
0003c0 9c 25 69 3e 3f 9b bc 3c 6d 84 c9 bc de 9e 20 bd
       0.22768253 0.023023246 -0.024599278 -0.039214008
0003d0 e3 42 dc 3a 15 97 94 3d f1 e1 bc 3d a8 16 90 3c
       0.0016804602 0.07255379 0.092227824 0.017588928
0003e0 d3 57 03 3e 01 df d4 bb 97 87 04 3d 7c ff 23 3e
       0.12826471 -0.0064963107 0.03235587 0.16015428
0003f0 c4 88 4f 3c c2 57 94 bc eb cb 1c 3d f3 03 92 3d
       0.012666885 -0.018108252 0.03828041 0.071296595

lstm.weight_ih_l1 f4 [512, 128]
000000 35 f2 51 3e e9 cd f4 3c 97 41 0d bd 6c 2a db bd
       0.20502551 0.029883342 -0.03448638 -0.10701451
000010 09 fb 0c bd ef 8d ba bd 72 66 20 bd ff 09 3f be
       -0.034419093 -0.09109103 -0.0391602 -0.18656157
000020 47 fa b5 bc 88 fa c3 bb 67 ba ac bc 08 4a 03 be
       -0.022214068 -0.0059807934 -0.021084977 -0.1282121
000030 ca fc a8 3d 57 77 b0 bd c9 c4 18 3d f7 31 88 bd
       0.08251341 -0.08616512 0.037297044 -0.06650155
000040 fa a2 62 be b1 77 04 bd 78 bd a3 bd fe 78 a0 bd
       -0.22132483 -0.03234071 -0.07995123 -0.078355774
000050 51 9b 3f 3e c9 ee 72 3b 58 7b d5 bc 75 9e 40 3c
       0.18711592 0.0037068597 -0.026059791 0.011756529
000060 ec 84 8c bc 80 46 29 bd a3 30 84 bb fd 95 90 bd
       -0.017153226 -0.041327 -0.0040341183 -0.07059858
000070 cf 46 1b 3c 2c 8a dc 3d c3 46 a3 bc 89 d6 7d bd
       0.009477331 0.10768542 -0.019931203 -0.061972175
000080 e7 78 4f bb f0 63 43 3d f6 f2 0b 3e fd 56 47 3c
       -0.0031657757 0.04770273 0.13666901 0.012166736
000090 f5 d5 c1 bd ab 34 72 bd b7 65 fa bc 2d e8 c9 3c
       -0.09464637 -0.05913226 -0.03056608 0.024646843
0000a0 5b 3c 0a bd 02 c6 cc 3c 40 aa 9a 3d 7a f1 a9 bd
       -0.033748966 0.024996761 0.07552004 -0.08298011
0000b0 e5 e6 aa 3d 87 63 1e bd 7f 9e d8 3c c4 36 8c 3d
       0.08344821 -0.038669135 0.026442764 0.06846383
0000c0 a4 ae 41 3d 6d fa e6 3d 8c da 18 bd d2 1b 9f bd
       0.04728569 0.11278234 -0.037317798 -0.07768978
0000d0 e4 b0 49 3d 5e 5f 39 bd 33 30 db bd 43 bf f0 bd
       0.04924096 -0.045256965 -0.10702553 -0.1175523
0000e0 19 66 1d 3d 54 75 21 bb ad 0c 25 3d 13 12 7b bd
       0.038427446 -0.0024636583 0.04029529 -0.061296534
0000f0 61 93 da 3c 4d 80 db 3d a7 e4 b0 bd 8a 53 88 3c
       0.026681604 0.10717831 -0.08637362 0.016641397
000100 c8 92 d0 3c 7f 5d 27 bd c3 74 0e bc 26 d8 d0 3d
       0.025460616 -0.04086065 -0.00869483 0.10197477
000110 c2 bb b0 3d 1f 2e 93 3c 53 67 0b be ae 41 fa bd
       0.08629562 0.017966328 -0.13613634 -0.12219559
000120 be 95 0b bd c3 b5 80 bd d6 2e b2 3c 32 11 fd ba
       -0.034078352 -0.06284668 0.021750849 -0.0019307493
000130 bd 7e 4d bc ea 52 c1 3d 78 30 6a bb 7d 42 77 bc
       -0.012542424 0.09439643 -0.0035734456 -0.015091536
000140 94 58 06 bc 59 f2 fd 3d 36 09 aa bd 9e dd 93 bd
       -0.00819983 0.1239974 -0.08302538 -0.072200045
000150 37 d2 db bc ca 82 3f 3c b2 95 4e bc 12 71 dd 3c
       -0.026833637 0.011688897 -0.012608932 0.027031455
000160 25 93 88 3d fa d5 8b 3d 9d bd 19 3e 4c 51 50 3d
       0.066686906 0.06827922 0.15013738 0.05085878
000170 0a de af bd 3e c9 3a 3d d3 4c 71 bd 70 e4 3e bc
       -0.085872725 0.045602076 -0.058911156 -0.011651143
000180 57 c3 8b bd 4d ae 2f be 0f b5 69 3d 59 6c 00 3d
       -0.068243675 -0.17156334 0.057057437 0.03135333
000190 c1 51 4f 3d 67 a6 16 bc e3 b8 7a 3d 46 46 62 bd
       0.050615076 -0.009194947 0.061211478 -0.0552428
0001a0 85 62 02 bc 8b 13 b1 bd 42 53 e9 bd 4e 13 e0 bd
       -0.007958059 -0.08646306 -0.11392833 -0.10941182
0001b0 aa 93 cb bd db 91 99 3d 30 04 03 be 15 92 a7 3d
       -0.09940274 0.07498523 -0.12794566 0.0818216
0001c0 33 b0 ba 3d 99 bc 97 bd 86 8e 92 3b 9a 4f 92 bd
       0.091156386 -0.07409019 0.0044725565 -0.07144089
0001d0 b2 e5 57 3d 09 2a bc bc 79 d6 6e 3d f7 93 f6 3c
       0.05270929 -0.022969263 0.058310006 0.030099852
0001e0 ce 52 e5 3c c6 f5 22 3c ab ed 8f 3d e8 ee ef bc
       0.027993586 0.009946292 0.070277534 -0.029288724
0001f0 3c ef 73 3d f9 79 23 3e 2d ff e1 3d 2c 99 d3 bd
       0.059554324 0.15964498 0.11034999 -0.103319496
000200 15 3a 3b bd 58 85 c3 bd 08 fd 67 3d 57 a3 62 3d
       -0.04570969 -0.09546918 0.056637794 0.055331554
000210 8b a9 81 bd 59 b4 d2 bc 9a db 16 bb 5a 4a 9f bd
       -0.06331166 -0.025720762 -0.0023019076 -0.07777853
000220 15 fe 8e bd 59 d8 35 3b d3 7a 11 bc cb 6a c5 3d
       -0.06982056 0.0027747361 -0.008879381 0.0963951
000230 a5 a9 b8 3d e7 f1 4d bd 18 e6 77 bd dd 06 f3 bd
       0.09016732 -0.050279524 -0.06052217 -0.118665434
000240 14 8a 38 be 6b b7 e5 bc 65 d6 28 3c 30 d9 e9 bd
       -0.18021423 -0.028041562 0.010305022 -0.11418378
000250 6c 44 cd 3d ae fb 9f bb e2 96 ef 3c d7 1f 8a 3c
       0.10022816 -0.0048822975 0.029246751 0.016860886
000260 73 c3 09 3d f5 cf 19 bc 4d 18 22 be 66 01 a4 bc
       0.03363366 -0.00938796 -0.15829583 -0.020020198
000270 ec 72 bd 3c 28 30 cf 3c 65 80 7c bd 66 f3 52 bd
       0.023126088 0.025291517 -0.061645884 -0.051501654
000280 f9 37 bf bb 91 af df bc 8b 10 9a bb 59 65 e6 bc
       -0.00583553 -0.027305396 -0.004701679 -0.028124498
000290 5d 30 25 3d 83 46 70 bd f0 6f 03 3b 67 19 6d 3d
       0.040329326 -0.058660995 0.0020055734 0.057885554
0002a0 66 4c 0a 3d 62 e6 df 3d 99 d9 73 3d c4 28 51 3d
       0.033764265 0.10932614 0.05953369 0.051064268
0002b0 ab 3f 0c 3d f7 bb ea bd 5c 7e 08 be cf be a6 bd
       0.034240406 -0.11461633 -0.13329452 -0.081418626
0002c0 ce 8a c3 bd 6e f4 0b 3c cc 9a 35 3d 45 05 e0 3b
       -0.09547959 0.008542163 0.04433708 0.0068365657
0002d0 e3 77 c0 bd 6b 06 09 3d 6a b9 00 3d f0 ee ae 3d
       -0.093978666 0.033453386 0.031426825 0.085416675
0002e0 b4 e6 0d bd cb fa 88 bd 60 6a a6 3d 39 13 73 3d
       -0.034643844 -0.0668846 0.08125758 0.059344504
0002f0 f4 be cb bd 24 75 ef 3b e0 5c f5 3c 4a 07 27 3d
       -0.09948531 0.0073076654 0.029951513 0.040778436
000300 5c 7b 24 3d 47 2c bb 3d 19 82 f5 bc 01 b1 3b 3d
       0.040156707 0.091393046 -0.029969262 0.0458231
000310 e2 ac 23 3d 95 c0 b1 3d c3 08 76 3d bf 54 29 3d
       0.039959796 0.0867931 0.06006695 0.041340586
000320 61 98 d6 bd d9 3a fb 3d b5 d6 c5 bc 4e 80 d8 3b
       -0.10478283 0.12267084 -0.024150232 0.006607092
000330 2c 30 a6 bc 26 ac 6e 3d 60 00 5d 3d 84 3f ac 3d
       -0.020286642 0.058269642 0.053955436 0.08410552
000340 d6 88 ef bd ff b6 20 3c 35 3b 2a ba 9e 3c 87 bd
       -0.11696021 0.009809255 -0.0006493808 -0.06603359
000350 aa 0e 75 3c 67 99 a3 ba d7 5d 8e bd 07 30 f6 bd
       0.0149571095 -0.001248163 -0.06951492 -0.12020879
000360 4a 9c d6 3c c6 83 1e 3d eb 74 2f bd 16 5d df 3d
       0.026197571 0.038699888 -0.04283611 0.109064266
000370 79 e1 81 bd bb 5d c3 bd 49 f3 ff 3d ad 61 92 3d
       -0.063418336 -0.09539362 0.12497575 0.071475364
000380 9e 5c c3 ba 78 87 0d bd 7a b0 19 3d a4 82 5f 3d
       -0.0014904921 -0.03455302 0.037521817 0.054567948
000390 46 c4 d0 bb 93 47 89 3d ef ce a7 3d cb d0 01 be
       -0.006371054 0.06703105 0.08193766 -0.12677304
0003a0 01 ef 95 3d 30 99 f6 3c 31 c4 b7 bd 2a aa 36 3d
       0.07320977 0.030102342 -0.089729674 0.044595875
0003b0 1b ed 8e bd 65 40 47 bd 59 10 a1 bd 73 78 c2 bc
       -0.06978818 -0.048645396 -0.07864446 -0.023739075
0003c0 1f 1c 16 3d 2b 44 ff bb 88 58 3c bd 08 75 bc bc
       0.036647912 -0.0077901087 -0.045982867 -0.023005024
0003d0 8a 11 5e 3c 3a 0c 51 bd 74 84 08 3d 1d ae 6a 3d
       0.013553986 -0.05103705 0.033329442 0.057294954
0003e0 41 fd 15 3d 96 30 59 bd 7d 4f 7b bc 71 82 d7 3c
       0.036618475 -0.05302485 -0.015338776 0.026307316
0003f0 f1 a6 c5 bd 01 d9 eb 3d 6e c4 b2 3b 69 7a 26 3d
       -0.09650982 0.115159996 0.005455545 0.040644083

lstm.weight_hh_l1 f4 [512, 128]
000000 37 2d 30 3d f4 67 3d 3d ee 91 79 bd 26 72 2b 3d
       0.04301187 0.046241716 -0.060930185 0.041856907
000010 35 48 c7 bc f0 11 31 3e bc 46 d1 3d 26 59 bb 3c
       -0.024326423 0.17291999 0.1021857 0.022869658
000020 69 ac 82 bd 03 77 b5 3d de 16 35 3d f5 81 06 3d
       -0.06380541 0.0886059 0.04421126 0.03283878
000030 2c 1d b0 bd af 24 f1 bc 48 4f 4e 3b e4 e6 49 3d
       -0.08599314 -0.029436437 0.003148036 0.04929246
000040 a4 d3 5e bd af 59 56 3d 63 0c d5 3c 67 38 48 be
       -0.054401055 0.052331623 0.026006883 -0.19552766
000050 31 4a 6f bd 78 04 3f bd 5f c0 c8 3d 9e 5e 43 bd
       -0.058420364 -0.04663512 0.09802317 -0.047697656
000060 85 d0 56 bd 86 c6 a0 bd 36 91 33 bd d4 02 40 bc
       -0.052444953 -0.07850365 -0.043839656 -0.011719424
000070 91 35 93 bd fc 3d 7a bb 31 79 2e bd 75 b0 90 bc
       -0.07187951 -0.0038183918 -0.042596046 -0.017662266
000080 fa bc a0 bd 33 e6 53 be b8 3b eb 3c b2 ee 4c bd
       -0.078485444 -0.20693283 0.028715 -0.050032325
000090 49 eb 8c bd cb 27 63 3d 25 12 6e bd d8 7f 92 bd
       -0.068808146 0.05545787 -0.058122773 -0.071532905
0000a0 e9 1e 81 3d 96 d2 8e 3d 07 6b e3 3c c4 47 3a bd
       0.06304724 0.0697376 0.027760996 -0.045478597
0000b0 20 f7 9b 3d d5 10 d9 bc a0 bc 8d 3d ae 91 9b bd
       0.07615495 -0.026497284 0.06920743 -0.075961456
0000c0 8d 25 a0 bd 57 21 ab 3d 2b ed 8a 3d d8 be 12 3e
       -0.07819662 0.083559684 0.067835175 0.14330614
0000d0 32 6c 2a 3e 52 da 75 3d 90 5e 0d bd cb d0 ce bd
       0.16642836 0.06002266 -0.03451401 -0.10098418
0000e0 00 1c 96 3b 73 93 8a bd d5 e0 8e bd 86 1b 63 3d
       0.0045809746 -0.06766405 -0.06976477 0.05544617
0000f0 f9 09 b9 3c 04 52 15 be d7 c7 62 bd 5e b5 b0 3d
       0.022587763 -0.14582068 -0.055366363 0.08628343
000100 cc fd aa bc ca 3c c2 3c 27 7c 15 be f1 12 14 bc
       -0.020872973 0.023710627 -0.14598142 -0.009037719
000110 6d c0 bc bd 8e 1c c1 3c 6b ea 0a 3d c9 b9 6d bd
       -0.0921639 0.023573186 0.033914965 -0.058038507
000120 01 c7 9e bd 0b 51 0d 3d 01 83 f5 3c eb d2 01 be
       -0.07752801 0.034501117 0.029969694 -0.12678115
000130 61 ae c7 bc f6 ab f9 3c 38 17 ef bc d8 44 ec 3c
       -0.024375143 0.030477505 -0.029185876 0.028841421
000140 7a 1c a5 bd 7f a4 82 bc 8e 72 d9 bd ed 59 87 3d
       -0.08062072 -0.015947578 -0.10617553 0.06608949
000150 59 60 82 3d 41 56 66 3d 54 2f e7 bd f7 63 58 bd
       0.06366033 0.056234602 -0.11288324 -0.05282971
000160 ab 9b 94 3d d6 65 63 3d 95 9f de 3d 8b ea 5c bd
       0.07256254 0.05551704 0.108702816 -0.053934615
000170 94 a1 15 3b 38 e5 21 bd ae e0 18 3e e7 8d af bd
       0.0022831904 -0.03952524 0.14929458 -0.085719876
000180 9b 40 2f 3d 9f bb 2c be a8 4a 86 bd dd 38 e3 bd
       0.042786222 -0.16868447 -0.06557208 -0.1109483
000190 51 1e 53 3d ee af fd 3d ef c1 d8 39 ee 6f 59 bc
       0.051542584 0.123870715 0.00041343222 -0.013271315
0001a0 7f 38 52 bd 5c c8 04 bc 68 1c 04 3d 51 20 95 bd
       -0.05132341 -0.00810441 0.032253653 -0.072815545
0001b0 47 bd 22 3d 94 f8 66 3d 2b 08 08 3e 41 5e 84 bb
       0.03973129 0.056389406 0.13284366 -0.0040395563
0001c0 36 7c 07 bd 56 3e ca bc 25 04 94 bb 90 18 9d bc
       -0.03307744 -0.024687927 -0.0045170956 -0.019176751
0001d0 28 f6 df bd 1a 1d 1a 3d 06 72 b0 3c ee 04 9c bd
       -0.109356225 0.03762541 0.021538746 -0.07618128
0001e0 11 f1 81 3c f5 6f cd 3d 1b a6 55 bd 85 c5 04 3c
       0.01586202 0.1003112 -0.052160364 0.008103733
0001f0 35 34 96 bc d6 2b 5d bc d7 c1 15 bd 23 50 27 3e
       -0.018335441 -0.013499221 -0.036561813 0.16339163
000200 7c 1a ac bc 44 22 90 bc 8b 2f 43 be e8 e9 82 3d
       -0.021008722 -0.017594464 -0.19061105 0.0639227
000210 9e 3a 95 3d f0 f6 84 3d d0 cb ad 3c 90 ea f1 3c
       0.07286571 0.06492412 0.02121535 0.029530793
000220 34 26 00 bd 59 48 70 bc 7c 76 87 3d 2a 76 32 3d
       -0.031286433 -0.0146656865 0.06614396 0.04356972
000230 4e 6a 63 bc ce ac 05 3e 3f 28 11 3d a7 17 98 bd
       -0.0138803255 0.13054201 0.035438772 -0.07426386
000240 54 7d 79 bd 92 45 d1 3d 96 18 b6 bb b7 ee 8d bd
       -0.060910538 0.102183476 -0.00555713 -0.06930297
000250 6a e8 71 37 c9 34 ca 3d 25 ee b1 bd 26 a2 c9 bd
       1.44188325e-05 0.09873349 -0.086880006 -0.098453805
000260 f2 d7 a6 3d 18 7d 22 bd 7a 74 45 bd 31 c4 a2 3d
       0.08146657 -0.03967008 -0.048206784 0.07947577
000270 f0 27 07 3e f4 ea 86 bd b9 12 de bd 33 e8 a7 3d
       0.13198829 -0.065877825 -0.10843415 0.08198585
000280 0b c8 88 bc 1f 09 b7 bd 45 b7 90 be 4c 4d 01 bd
       -0.01669695 -0.089372866 -0.28264824 -0.031567857
000290 27 c3 8a bd fd fd e2 bc ce 77 9a bc 60 71 1d 3e
       -0.067755036 -0.027709002 -0.018855955 0.1537528
0002a0 3a 60 1c 3e 8c 42 8f bd 72 3b cc 3d 18 bb be bd
       0.15271083 -0.06995115 0.09972276 -0.09313029
0002b0 ae 12 eb 3d 64 0a 2f be ff ea 8e 3d d2 ed 80 bd
       0.11478172 -0.17093807 0.06978416 -0.062953606
0002c0 b5 aa 59 3c cf 04 28 3d 50 b2 07 be d7 c5 13 3e
       0.013285329 0.04102021 -0.13251615 0.14430939
0002d0 c9 b4 2a 3e d5 7f 94 3c d1 71 9c bd 5e 7d 7e bd
       0.16670527 0.018127361 -0.07638896 -0.06213128
0002e0 33 36 59 bd 49 1c 58 bc 63 ad 77 3c 27 0a 37 bd
       -0.053030204 -0.013190337 0.015117022 -0.044687416
0002f0 ee 5d 19 3e bd ff 73 3c 61 d7 c8 bd 51 78 06 be
       0.14977238 0.014892516 -0.09806705 -0.13131835
000300 5b 97 64 3b cb e8 90 3c 89 42 25 be 49 97 86 bd
       0.0034880254 0.01768913 -0.16138662 -0.06571824
000310 39 e3 71 3d 8f 4c a8 bb 9e 41 d3 3d 63 e2 37 be
       0.059054587 -0.0051360796 0.1031525 -0.17957453
000320 82 24 48 bd 9d f5 c7 bd d7 a4 19 bb 82 22 aa bc
       -0.04886294 -0.09763644 -0.00234442 -0.020768408
000330 c4 a9 b4 bc 8c 79 f3 3d cf ea c5 3d 0c 24 45 3d
       -0.022053607 0.118884176 0.09663927 0.04813008
000340 71 aa 2b bd ea 3f 69 bd b3 70 0f be 3d 2c f7 3d
       -0.041910592 -0.05694572 -0.14007835 0.12068985
000350 d9 89 c5 bc 93 46 1a bd ef 07 ed bd fc 8f 0f be
       -0.024113582 -0.03766496 -0.11573779 -0.1401977
000360 5c 35 b6 3d 17 76 d1 3b 74 90 0a 3e db 9e ae bd
       0.08896896 0.0063922512 0.13531667 -0.08526393
000370 3b a7 09 be 28 8b c0 3d 37 1d f4 bc 5d be d4 bc
       -0.134427 0.09401542 -0.029799087 -0.025969679
000380 51 9a 05 3e 37 f0 8f bd 15 8c ec 3d 2d 0c 30 3e
       0.13047148 -0.07028239 0.11550156 0.17192145
000390 6b e2 e3 bb 46 05 07 3e 0b dd c9 bb e4 7a b8 bd
       -0.0069544814 0.13185605 -0.0061603836 -0.090078145
0003a0 62 29 00 bc 82 37 1d 3d 6c a1 d4 3a 4c 8c 51 bd
       -0.007822366 0.038383015 0.0016222424 -0.05115919
0003b0 71 85 44 bd ea 5e 28 3d 9d 20 16 3e 90 89 14 3d
       -0.047978822 0.041106142 0.14660878 0.036264002
0003c0 14 3a 3d bd df 5b 03 3a e5 9e 7e bd ba 43 ec 3d
       -0.046197966 0.0005010943 -0.062163252 0.11536355
0003d0 d5 df a4 bd 2a 82 47 3d 8e 10 90 bd 29 d2 20 be
       -0.08050505 0.04870812 -0.070344076 -0.1570517
0003e0 5d cd 01 be 44 c7 ed 3d 98 13 4e bc 51 e1 bc bd
       -0.12675996 0.116102725 -0.012577914 -0.09222663
0003f0 65 07 f7 bc 43 57 60 3d 7c e2 a0 3d 68 1e ba 3d
       -0.030154893 0.05477072 0.078556985 0.09087831

lstm.bias_ih_l1 f4 [512]
000000 44 b6 7d 3d de 1e 88 bd 58 60 84 bc 71 3f 85 bc
       0.0619414 -0.066465124 -0.016159222 -0.016265603
000010 34 cc 3d bd 4f 50 a6 bc e8 d3 15 3c cb 7c 90 3d
       -0.04633732 -0.020301966 0.009144761 0.07055052
000020 b8 ff 99 3b b9 7c 94 3d a4 c4 06 bd c8 9f 46 3d
       0.0046996735 0.072503515 -0.032902375 0.048492223
000030 ca 89 45 bd 17 41 07 3d 6f e4 db bd a9 93 54 3c
       -0.04822711 0.03302106 -0.107369296 0.012974658
000040 32 c5 9c bd d6 5b 26 be 8e 96 8c 3b 7a 45 97 3c
       -0.076547995 -0.1624597 0.0042904085 0.018465746
000050 ff 96 dc bd 44 aa fa bd 4c dc 0c 3d 73 62 b1 3b
       -0.10770988 -0.12239507 0.03438978 0.0054133474
000060 7c af 4a bd 3e 0f ad bb d1 ac 22 bd c8 bc 6c 3d
       -0.04948376 -0.005281358 -0.03971559 0.057797223
000070 b9 67 b8 bd 6a a1 ec 3d a4 71 68 bd 66 d4 c6 bd
       -0.090041585 0.11554225 -0.056749 -0.097084805
000080 08 1c 6e 3d e4 98 4f bd b8 3d 49 bb 2a c3 1d bd
       0.0581322 -0.050682917 -0.0030706953 -0.0385162
000090 62 39 df bd 8c ce 6e bd 5d b0 c1 3c c6 0b 67 3d
       -0.10899617 -0.058302447 0.023643667 0.056407712
0000a0 60 ec cd 3a 18 0f a1 bd ad 23 49 bd 17 ed 25 be
       0.0015710704 -0.07864207 -0.04910629 -0.16203724
0000b0 77 e6 55 3d c4 a9 34 bc b5 76 30 bd 39 79 14 bd
       0.05222174 -0.011026803 -0.043081958 -0.03624842
0000c0 91 83 53 3d 23 f2 6f 3b 10 f6 84 bd 7e 39 17 3a
       0.051639143 0.003661283 -0.06492245 0.000576876
0000d0 98 c4 10 3b b8 7c fb bc 4c ff b1 bd 99 c5 00 bb
       0.0022089835 -0.030699119 -0.08691272 -0.0019649027
0000e0 d3 88 47 3c cf 63 82 bd d7 ee e5 3c 86 87 87 3d
       0.0121786175 -0.06366693 0.02806799 0.06617646
0000f0 8f 5e 03 bd 6d 6f 0e 3c 07 3a 38 3d 87 94 d0 3d
       -0.0320726 0.008693558 0.044977214 0.10184579
000100 c0 ca e5 bc 31 e4 44 bb a1 f8 ab bd 36 99 b4 bd
       -0.02805078 -0.003004324 -0.083970316 -0.08818285
000110 80 cb 06 be a9 8e 99 bd 24 27 cb bc 57 85 40 bd
       -0.13163567 -0.074979134 -0.024798937 -0.047002163
000120 37 21 54 bd ee 28 01 3d d7 c5 08 bd b9 37 25 3c
       -0.05178949 0.031533174 -0.0333918 0.010084086
000130 80 2d 2c be f0 3b dc bc bf f5 b0 3d 73 29 20 be
       -0.16814232 -0.02688405 0.08640622 -0.15640812
000140 33 04 b7 bd c9 82 0d bc a9 81 9d bd db e2 72 bd
       -0.08936348 -0.008637139 -0.07690746 -0.059298377
000150 4b ca e0 bc 40 5e 28 3d 54 c6 04 be 49 84 4e bd
       -0.02744021 0.04110551 -0.12966281 -0.050419126
000160 74 91 2d 3b e1 53 84 3d 0f b7 17 be d2 6f ec 3d
       0.0026484402 0.06461311 -0.14815925 0.115447655
000170 39 6b 52 3d b4 10 a1 bc c1 92 94 3d eb 7e be bd
       0.051371787 -0.019661285 0.072545536 -0.093015514
000180 65 bf 99 bc 70 f4 f7 bb 8f e3 27 3b df b7 ed 3b
       -0.018768022 -0.007566981 0.0025617813 0.007254585
000190 b7 15 8b bd ce 27 11 3d ed c2 f1 bd 63 ca f5 bc
       -0.06791251 0.03543835 -0.11804757 -0.030003732
0001a0 fe 1d 69 bd 82 76 5e bd fc 3d 9a bb 73 00 36 bd
       -0.05691337 -0.054312237 -0.004707096 -0.044434022
0001b0 31 dc 0a be 49 12 cd bc 1a fc ed bd 95 f8 eb 3c
       -0.13560559 -0.025033133 -0.1162035 0.028805057
0001c0 cb 07 f0 bc ea ab b6 bd 31 db 16 bc cd de 45 3d
       -0.029300591 -0.08919509 -0.009207533 0.048308183
0001d0 d1 9c 90 bc 8a 3f 68 3d dc 00 18 bd ae ea b6 3c
       -0.0176529 0.05670122 -0.037110195 0.0223287
0001e0 28 70 ba bc 3d 15 6c bc 05 74 87 bd ba 64 c9 bd
       -0.022758558 -0.0144093605 -0.06613926 -0.09833665
0001f0 fc 3c 87 3d bd 79 67 3c 5c 1c 8d 3d b0 9b f2 bd
       0.06603429 0.014128146 0.06890175 -0.11846101
000200 61 db 75 3d ed a0 a3 bc 67 b0 57 bc e7 3e a6 3d
       0.06002367 -0.019974196 -0.013164616 0.081174664
000210 c6 7b a6 3d 2a 75 31 3d b9 29 19 3c 33 0e e2 3d
       0.08129077 0.043324627 0.009348326 0.110378645
000220 1f c5 6c 3d 52 ae 15 3c 60 a7 13 bd 49 89 ef 3c
       0.057805177 0.0091357995 -0.036048293 0.029240267
000230 f8 d0 85 bd c0 d7 52 bd 55 d6 4e 3b ef de 5d 3d
       -0.06533998 -0.051475286 0.0031560857 0.054167684
000240 61 77 6e bd 79 b1 8b bc 8f 87 13 bd aa 94 91 bd
       -0.058219317 -0.017052399 -0.03601795 -0.071084335
000250 80 d6 37 3d 07 85 4d bd bf 2d 7d 3d 91 b8 0b 3d
       0.044882298 -0.050175693 0.061811205 0.034111563
000260 0c 66 99 3d db 2b 9a 3c 24 14 1c bd 48 19 24 3c
       0.07490167 0.01881974 -0.038105145 0.010015793
000270 ea 2c 80 3d f2 31 c2 3d 5b a5 a0 bd ba e6 43 bd
       0.06258567 0.094821826 -0.07844039 -0.04782746
000280 b9 b4 5f bd bd 68 87 3d b8 0e be bd 7d 30 b1 bd
       -0.05461571 0.06611774 -0.09280151 -0.086518265
000290 b5 96 9e bc b5 73 d4 3c 02 9e 99 3d de 53 f8 3d
       -0.019358972 0.02593408 0.07500841 0.121253714
0002a0 55 1b 0e bd c0 ba c4 bd 55 c8 9d 3b ce 59 df bd
       -0.034694035 -0.09605932 0.004815141 -0.10905801
0002b0 31 86 a8 3d 23 13 03 3d 91 61 91 bd be a8 3d bc
       0.0822872 0.032000672 -0.070986874 -0.011575876
0002c0 51 ac 17 3d d9 cc 6c 3d e7 27 f2 bc 9f b5 aa 3d
       0.037029568 0.057812545 -0.029560043 0.08335423
0002d0 ea 9c 8d 3d d3 6c f9 3c 61 79 70 bb 3c 45 ce 3b
       0.069146946 0.0304474 -0.0036693441 0.0062948745
0002e0 73 b5 14 bd a9 ea 0f bd 7a 16 5c 3d f5 37 d3 3d
       -0.036305856 -0.0351359 0.053732373 0.10313407
0002f0 93 2e aa bd 29 59 92 bc 63 10 10 bd 6e 1b 56 3d
       -0.083096646 -0.01786478 -0.035171878 0.052272253
000300 71 ff 59 3b bb b6 87 bd 48 95 8f bc 1f e9 bf bd
       0.0033263827 -0.0662665 -0.017527238 -0.09370636
000310 be 83 44 3d 05 65 2c bd 6d 85 2c bb 17 64 68 bd
       0.0479772 -0.042088527 -0.0026324645 -0.056736078
000320 2c 37 c5 3c 5a d4 e0 bc 5b ad 27 3d 53 60 28 3c
       0.02407416 -0.027445007 0.04093681 0.010276872
000330 64 e4 ed bd 99 d9 90 bc 0b c1 ba 3c 65 68 62 3d
       -0.11615828 -0.017681884 0.022797128 0.05527534
000340 22 27 f6 ba ad 00 1c 3d 94 40 d6 bd c0 41 79 3d
       -0.0018779973 0.038086582 -0.10461536 0.06085372
000350 62 8c 21 bd 43 14 9e bd 72 34 8b bd b7 61 2c 3c
       -0.03944052 -0.07718708 -0.067971125 0.010521344
000360 99 7c bf 3c ef df ba bd dc 11 ce 3c db 32 b9 3c
       0.023374842 -0.09124743 0.025155 0.022607258
000370 8b 76 31 bd e5 7b 19 be 7c d2 a3 3d d0 b0 e9 3c
       -0.043325942 -0.14988668 0.07999131 0.028526694
000380 fa ed ae bd c7 8b 93 3d 2a ce 63 bc 08 3f 0a bc
       -0.08541484 0.07204395 -0.013904134 -0.008437879
000390 17 1a b3 bc 22 1d 27 3d ed 34 9a bc b5 b5 9a 3d
       -0.021863027 0.040799268 -0.018824065 0.07554189
0003a0 16 c4 a5 bc 69 60 7e bd e2 c8 20 3b 80 6c 5a 3d
       -0.020235103 -0.062103663 0.0024533798 0.05332613
0003b0 02 a2 92 3c ee bb 0a be a4 c6 1c 3e 7c a5 45 3d
       0.017899517 -0.13548252 0.1531015 0.04825352
0003c0 5f 6d b9 bd b8 fb c0 bb 0b 49 a5 3d 92 04 1c bd
       -0.09054064 -0.005889382 0.080705725 -0.038090296
0003d0 ae bb 1b 3d ca 94 fa 3c cd f9 4a 3d 4f e7 8d bd
       0.038020782 0.030588526 0.049554635 -0.06928884
0003e0 1c 3a 09 3c 90 92 41 bd 70 06 de bc 77 af b9 bb
       0.008375671 -0.047258914 -0.027102679 -0.005666669
0003f0 dd b2 cf b9 46 7a 16 3b f3 80 a9 3d e3 c5 21 bd
       -0.0003961538 0.0022961064 0.08276548 -0.03949536
