models/lstm_300.pt (torch, 813544 bytes, 9 tensors)

lstm.weight_ih_l0 f4 [512, 8]
000000 38 ec 9a 3e a6 b1 97 3d d2 04 66 bd e1 1b f0 bd
       0.30258346 0.074069306 -0.05615694 -0.117240675
000010 89 a4 06 3c ca 01 93 bd d4 80 c6 bd 5a 01 fc bb
       0.008217939 -0.071780756 -0.09692541 -0.007690591
000020 eb 29 1d 3c 85 8a a4 bd 3f e5 9f bd 1c 43 44 3d
       0.009592514 -0.08034233 -0.07807397 0.047915563
000030 ca 04 98 3d 3d f0 48 3d 1a 27 68 be 99 70 6d 3d
       0.074227884 0.049057234 -0.22671166 0.05796871
000040 b1 c1 41 3e 18 a9 9a bd 3a 83 aa bb 3e 2c 87 bd
       0.18921544 -0.07551783 -0.0052036317 -0.066002354
000050 ca 9b 2d 3d 6d 22 45 bd 1e 41 ae 3d bf c3 01 bc
       0.0423849 -0.048128534 0.08508514 -0.007920205
000060 e6 44 95 bd b3 7c 09 3c c7 95 1b bd a6 b0 1f 3d
       -0.07288532 0.008391547 -0.037984636 0.038986824
000070 f6 24 e1 3d 04 c0 be bd 91 49 5b bd 0f e0 eb bd
       0.10993378 -0.09313968 -0.053536955 -0.11517345
000080 ef 93 c4 bc 35 59 8c 3c 58 a4 a4 bd c2 53 73 bd
       -0.023996321 0.017132381 -0.080391586 -0.05940605
000090 7d 14 ca 3d 12 65 5f 3e 1b 12 b7 ba e0 6d de bd
       0.09867189 0.21815899 -0.0013967188 -0.10860801
0000a0 2c 60 4c 3e 2e 7e 84 bd f4 44 94 3c 57 6d 8b bd
       0.19958562 -0.06469379 0.018099286 -0.06807964
0000b0 ff 49 88 bd f6 af 4a 3d ed 4b c6 bc 24 f0 4a bd
       -0.06654739 0.049484216 -0.024206126 -0.049545422
0000c0 c5 6b 15 bd 4a 35 bb bd 27 09 51 bd ab a6 88 3d
       -0.03647973 -0.091410235 -0.05103412 0.066724144
0000d0 15 75 31 3e b5 01 14 bd 6c f3 20 be b2 cd 20 be
       0.1732982 -0.03613444 -0.15717858 -0.15703467
0000e0 8f 47 38 3e b9 eb 11 bd 7b 45 6f 3d a6 96 82 3d
       0.17996047 -0.035625193 0.05841587 0.0637639
0000f0 4b 3f 97 bb ea cf 84 bd 78 be 04 3c f3 79 ca bc
       -0.0046156994 -0.06484969 0.008102052 -0.024716353
000100 29 d6 8d 3e d3 b0 c4 3d 67 43 ae 3d f4 1d 0c bd
       0.27702454 0.09604039 0.0850895 -0.034208253
000110 b8 85 5a 3e e8 88 a1 bd f5 ea 7e 3d 51 61 8d bc
       0.21340072 -0.07887441 0.06223579 -0.017258318
000120 63 b6 bc 3d cb 1c a1 3c 3f 57 31 3d 1b df d2 3d
       0.09214475 0.01966705 0.043296095 0.1029646
000130 f5 b0 b3 3d e8 76 97 3d bb 51 1d 3d 0b 13 09 bc
       0.08773986 0.073957264 0.038408022 -0.008366357
000140 33 26 bd 3b 85 cc 30 3e 72 f4 bd 3d ee a7 ed 3d
       0.005772376 0.17265518 0.0927514 0.11604296
000150 32 06 a1 bd 42 31 c7 3e 88 aa 90 3c dc 9d 08 be
       -0.0786251 0.38904768 0.01765944 -0.13341469
000160 52 44 a8 3d e4 b4 24 be df 37 8b 3c cf 90 1b 3d
       0.08216156 -0.1608463 0.016994415 0.037979897
000170 f9 92 0b 3e 83 94 1c 3e 01 e0 33 3c 85 50 2c 3e
       0.13630284 0.15291028 0.0109787 0.16827591
000180 c0 0f 1a 3e 62 77 a3 bc 05 98 d5 bd 55 89 bf bd
       0.1504507 -0.019954387 -0.10429386 -0.09352366
000190 18 81 84 bd 9a 01 34 be e1 00 73 3c 99 de 95 bd
       -0.06469935 -0.17578736 0.0148317525 -0.07317848
0001a0 e4 9f 96 3d 68 1b e4 3d 9b 7e bd bd 55 ca e6 3c
       0.073547155 0.1113804 -0.09252664 0.028172651
0001b0 f8 44 99 3e 6c c4 78 3e a9 ea 75 3e cc 99 aa 3d
       0.2993543 0.24293679 0.24015297 0.08330116
0001c0 1c 4e 93 3d cb 28 c5 3d ff ce a6 bc f4 38 95 bd
       0.071926326 0.09626921 -0.020362375 -0.072862536
0001d0 a9 3b 97 3c dc f5 8f 3d 37 fc 95 bd ab a7 e3 3d
       0.018461065 0.07029316 -0.07323497 0.111159645
0001e0 18 5a 6e 3e e7 1a 91 3d 20 b1 b8 bc 82 92 9c ba
       0.23276556 0.07085209 -0.022545397 -0.0011945518
0001f0 bd b5 20 be 02 a2 86 3d fb ee 35 be ff 2c dc 3b
       -0.15694328 0.06573869 -0.17766945 0.006719231
000200 1f 40 7d be ff f9 42 3e 4e fd 59 3e f1 5f 3d 3e
       -0.24731492 0.19040678 0.21288034 0.1849363
000210 39 c6 c9 bd 72 0b 3e be 6f a3 95 3e e1 99 00 3e
       -0.09852261 -0.18559054 0.29226252 0.125587
000220 32 08 78 3c 28 f1 f0 bc b0 ad e2 bd 83 29 85 bd
       0.015138673 -0.029411867 -0.110682845 -0.06502058
000230 63 52 07 bd 75 38 3a 3e ed 40 70 3d 24 df 3f be
       -0.033037554 0.18185599 0.058655668 -0.18737465
000240 e3 b6 b2 bd 8d 62 20 39 55 6a 9b be 1f e4 88 be
       -0.08726289 0.00015295502 -0.30354562 -0.26736543
000250 e9 f4 27 bd 80 e4 53 3c 66 d9 96 bd 00 67 b8 bd
       -0.04100505 0.012932897 -0.07365684 -0.09004021
000260 58 b8 20 3c 9e c5 ac 3e 5b a1 d5 3d 28 6c 5d 3d
       0.009809576 0.3374452 0.10431167 0.054058224
000270 04 bc f7 3d 47 3a 6f bd ba 1c 24 bf 7b b1 fc 3d
       0.12096408 -0.058405187 -0.64106333 0.12338539
000280 49 54 e5 3e 4f 60 5b bc 26 0e 4c 3c d5 00 aa bc
       0.44790867 -0.013389661 0.012454545 -0.02075235
000290 05 9c 14 bd 1a ae 08 bd bd 3a 2e bd 50 35 35 3e
       -0.036281604 -0.03336916 -0.042536486 0.17696118
0002a0 bc df 3b 3e ee 70 f2 3c 9d df d5 bd 8f 53 86 bc
       0.18347067 0.029594865 -0.104430415 -0.016397266
0002b0 a7 c9 c0 bd 35 05 90 bd c3 0f 7b 3a 08 d9 0d bd
       -0.09413462 -0.07032243 0.0009577239 -0.034630805
0002c0 46 40 eb bd 65 7d 29 bd 94 b7 0b 3d b0 8d e2 3d
       -0.114868686 -0.04137935 0.03411062 0.11062181
0002d0 ee 18 04 bd 6f a9 51 3d 09 40 15 3e 84 77 e0 3d
       -0.032250337 0.051186975 0.14575209 0.10960296
0002e0 fc 9f 8e 3e 00 b4 12 3d f0 91 12 bb bd 4b 32 3d
       0.27856433 0.035816193 -0.0022364818 0.04352926
0002f0 d6 40 64 bd 3e 47 a1 bc 84 02 68 bb c4 7c 6c 3d
       -0.055725895 -0.019687291 -0.003540189 0.057736173
000300 7e 0a 67 3e 15 53 0a be f7 1d a9 3d 4f e4 70 3d
       0.22562596 -0.13508256 0.082576685 0.058811482
000310 45 58 63 be 46 1d 7d be 1e 3c e3 3d 53 c3 2d 3e
       -0.22201641 -0.24718198 0.11095451 0.16969042
000320 ba 63 d1 bb b1 c9 0e bd e5 0c 62 bd e2 aa 2d 3d
       -0.006390062 -0.034860317 -0.05518808 0.042399295
000330 eb 59 a7 bd f6 fb 6e 3d c7 d8 6b 3d fb b6 4c 3c
       -0.08171447 0.058345757 0.05757978 0.012494798
000340 d6 7b 80 3d 45 64 43 3d 49 76 62 3d 86 e9 4c bb
       0.0627362 0.047703046 0.055288587 -0.003126712
000350 71 83 05 be 4f 3f 66 3e 4e 08 8f 3e 71 fc c7 3d
       -0.13038422 0.22485088 0.27936023 0.09764946
000360 a8 01 c1 3d 58 81 12 bb c1 b7 95 bd 2b 99 63 bd
       0.09424144 -0.0022354927 -0.07310439 -0.055565994
000370 dd 71 13 3e 18 0f f7 3c 40 93 ee be 79 93 cb be
       0.14398904 0.030158564 -0.46596718 -0.3976095
000380 dc 58 f2 bc 94 6f c1 3d 32 37 d8 b8 02 32 c6 bc
       -0.029583387 0.0944511 -0.000103099635 -0.024193767
000390 0c 09 91 3d b1 44 16 3e 85 52 3f 3e 6f d8 bf 3d
       0.07081804 0.14674641 0.18683822 0.09367453
0003a0 b7 1a d3 bb e7 88 ea 3d 94 f9 f7 bc e7 ec 48 3d
       -0.0064423936 0.11451893 -0.030270375 0.049054053
0003b0 f9 6d 98 be b7 65 43 be 11 77 52 bd 0b 40 e2 3c
       -0.29771402 -0.1908177 -0.05138308 0.027618429
0003c0 30 ac 8f 3d 85 44 9f bd e2 8d 86 3d 4b 4e c7 3d
       0.07015264 -0.07776741 0.06570031 0.0973173
0003d0 f5 f5 b9 bd 97 b4 56 bc 5e a9 fd bd 4d 07 ec bd
       -0.09080116 -0.013104579 -0.1238582 -0.1152483
0003e0 0a 51 9c bd 04 dd d2 3c 38 45 61 bc 90 50 12 bc
       -0.076326445 0.025740154 -0.013749413 -0.00893034
0003f0 ba 8d 44 3d 73 f2 94 bd 3f 35 70 3e 0c d8 7c be
       0.047986723 -0.07272806 0.23457812 -0.2469179

lstm.weight_hh_l0 f4 [512, 128]
000000 df 01 38 bb 8c 8f 44 3d 14 e1 bf 3d 53 69 c1 3a
       -0.0028077287 0.04798846 0.09369102 0.001475612
000010 13 91 1c 3e a9 a3 b3 bd 62 2b 49 3d b5 34 7c bd
       0.15289716 -0.0877145 0.04911364 -0.061573703
000020 46 9e 20 be 8e 91 35 3d 7d fa bb 3d b5 71 0f be
       -0.15685377 0.044328265 0.09178636 -0.1400822
000030 5b 0c c0 3d b7 e2 22 be 8d a2 59 3c 2a 45 95 3d
       0.093773566 -0.15906797 0.013283384 0.072885826
000040 fb a0 f3 3d 5b f8 d7 bd 12 4e d4 3d 2a 28 07 3e
       0.11895939 -0.10545417 0.10366453 0.13198915
000050 fb 83 0f bd 20 76 88 3c 4f af ff bc a8 54 1d 3d
       -0.035037976 0.016657889 -0.031211523 0.038410813
000060 90 b4 68 be 61 59 22 bc da e3 7a bd 38 6c 0b 3d
       -0.22725129 -0.009909005 -0.061252452 0.034038752
000070 58 94 ec 3c c9 a0 df 3d da 1b ad bd 91 cc 05 be
       0.02887933 0.10919339 -0.08452578 -0.13066317
000080 92 14 3c bd 97 b6 af 3d d0 04 f9 3b be 8f 34 3d
       -0.045918055 0.08579748 0.0075994506 0.044082396
000090 03 4a 78 bd 71 c2 e5 bd ba 8b c1 bd 73 5c d0 bd
       -0.060617458 -0.112187274 -0.09450479 -0.10173883
0000a0 a4 0f 23 3d af 49 ac 3c 26 93 96 3d 95 7d 59 be
       0.039809838 0.021031229 0.07352285 -0.21239312
0000b0 4b 89 3c 3e 81 69 0c 3e 35 62 9c be a2 8a 40 3e
       0.18411748 0.13712122 -0.30543676 0.18802884
0000c0 11 a4 72 3d 83 76 0c 3e a3 ed 44 bd 5c f6 09 3d
       0.059238497 0.13717084 -0.04807819 0.033682212
0000d0 8c 2f 44 3d 2e 4d 54 bd dc 8f 54 be e4 d2 35 3d
       0.047896907 -0.051831417 -0.20758003 0.044390574
0000e0 65 31 85 3e c3 fa ce 3d 24 fc a1 ba 58 b4 95 bd
       0.26014248 0.10106423 -0.0012358469 -0.073097885
0000f0 ea 40 d0 3d 15 d6 c0 bc 7c 16 42 3c a4 f2 2a be
       0.101686314 -0.023539582 0.011846181 -0.16694123
000100 90 11 44 be 66 b7 0f 3e f9 ac 07 3e aa 20 18 3e
       -0.19147325 0.14034805 0.13249578 0.1485621
000110 c2 83 11 3e 00 a7 95 3c 6e a5 2c bd 64 a8 85 3c
       0.14210418 0.018268108 -0.042149954 0.016315646
000120 44 e9 a2 3d 35 95 47 bd 41 0d 21 be 66 17 30 3d
       0.07954648 -0.04872628 -0.15727712 0.042991064
000130 be e5 39 be 7d 72 37 3d 98 04 99 3e bb ee 23 be
       -0.18154046 0.04478692 0.29886317 -0.16009037
000140 4f 71 8f bd 1d 5a 02 3e 52 32 a4 bd 8b 11 21 be
       -0.07004034 0.12729688 -0.0801741 -0.15729348
000150 12 68 8d 3d d1 be 22 be d6 77 c1 bb 0a ef 16 3d
       0.069046155 -0.15893103 -0.005904178 0.03684906
000160 3a 01 4a bd 06 cd 8a 3d f9 ba 02 be dd f5 a4 bd
       -0.049317576 0.06777386 -0.12766637 -0.08054707
000170 35 0e 03 3b e6 34 f0 3d 24 d1 8b bc 90 61 43 3c
       0.0019997482 0.117288396 -0.0170675 0.011925116
000180 0a 2a 5b be 6f 8c 50 3d f2 f1 5f 3e 30 f1 00 bd
       -0.21402755 0.050915178 0.21869639 -0.031480014
000190 1b 54 73 3d 97 9a b7 bc d5 59 d3 bd 02 6d 27 ba
       0.05940638 -0.022412581 -0.103198685 -0.0006386788
0001a0 70 bc 01 be 63 a9 75 bc 3f 11 04 be f3 8d 4b be
       -0.1266954 -0.014993998 -0.12897204 -0.19878368
0001b0 e7 b2 88 3d 71 26 db bd b4 49 91 bd 21 bf bf bd
       0.06674748 -0.107006915 -0.07094136 -0.09362627
0001c0 f1 98 8f be de a7 bb bc a5 0c ac bd 23 9f 90 bc
       -0.28046373 -0.022907194 -0.08400849 -0.017654007
0001d0 c7 b4 29 3c a1 a5 34 3e 85 50 3c 3d f8 83 f0 bd
       0.010358042 0.17641307 0.045975227 -0.11743921
0001e0 7d 8a 6d 3d ad 0e 86 bd 33 59 b8 3c de f2 d6 3c
       0.0579934 -0.06545768 0.022503471 0.026238855
0001f0 1e 20 a7 ba 48 bf 9a bd 2c dd 7f 3c fe 85 8e 3b
       -0.001275066 -0.07556015 0.015616696 0.004349469
000200 ad 60 05 bc 88 41 48 bd 37 b6 8d bb 4f af 8d 3c
       -0.008140725 -0.04889062 -0.0043247 0.017295508
000210 d4 07 bd bd 4b c8 0e 3c 2f 5a 04 bd 3c 8a c0 bc
       -0.09230009 0.008714746 -0.03231257 -0.023503415
000220 ed ad aa bd b7 af e3 bd ba 52 52 3e e5 7b 26 3d
       -0.08333955 -0.11117499 0.2053937 0.0406455
000230 af 93 a8 bd 8d 4b bf 3c 38 4f 8c bd dd 86 37 be
       -0.082312934 0.023351455 -0.06851047 -0.1792254
000240 90 05 ff bd c9 54 d8 bd ab 12 4f be 82 80 39 bd
       -0.12452233 -0.105630465 -0.20221965 -0.04528857
000250 5c 89 d4 3d 77 4a 7d 3d 57 47 a8 3c 8d 3c 14 bd
       0.10377762 0.061838593 0.02054183 -0.03619056
000260 d8 5c c2 3c 80 fb 0f be 66 cb 73 3d 8b 93 f7 bb
       0.023725912 -0.14060783 0.059520148 -0.0075554303
000270 a7 0a 0c be b3 a0 2e 3d 36 e4 a5 3d 4a 81 fd bd
       -0.13675939 0.042633723 0.081001684 -0.123781756
000280 f7 7a a9 3c 74 3a 28 3e f6 76 f1 3b 23 6b b3 3d
       0.020688517 0.16428548 0.0073689176 0.08760669
000290 c9 5e eb 3d b3 ab 76 3d 54 62 3d bc 3d 86 d3 bb
       0.11492688 0.06022234 -0.011559088 -0.0064552114
0002a0 00 eb 8a 3d a8 a9 13 3e c5 99 f8 bd b2 83 00 3e
       0.06783104 0.14420187 -0.12138704 0.12550238
0002b0 1f 99 1d bd 61 e8 6a bd 27 53 1f 3e c9 7f 7e 3d
       -0.038476106 -0.05735052 0.15559064 0.062133584
0002c0 0a e3 ec bd 3b d4 38 bd 2a 56 2a 3d 33 25 48 bd
       -0.11566742 -0.045124274 0.04158608 -0.0488636
0002d0 d7 05 f0 bd 10 c4 02 3d 4e 00 c6 bd 39 d5 08 3e
       -0.11719864 0.03192526 -0.09668027 0.13362588
0002e0 18 c2 bd 3d 6d 96 91 3c 9d 1c 11 3e d6 b6 ed bc
       0.09265536 0.017771924 0.14171071 -0.029017847
0002f0 ac 92 08 be 69 82 8d bc 2f 92 c5 bd 31 09 45 be
       -0.13337201 -0.017274098 -0.09647023 -0.19241787
000300 17 f5 38 bd 84 34 00 bc 29 c7 f9 bc 60 86 6e 3d
       -0.04515561 -0.007825021 -0.030490475 0.05823362
000310 1b c4 4d bd d3 45 6f 3e 22 4c f7 bd 0b 2e e6 bd
       -0.05023585 0.2336648 -0.12075068 -0.11239251
000320 40 3d e4 3d 56 d7 0d 3c ed 7f 06 3e c2 bf f4 bd
       0.11144495 0.008657297 0.13134737 -0.119506374
000330 57 1d 2f 3e 90 b7 ad bc dc 79 2a be 75 84 19 3e
       0.17101036 -0.021205693 -0.16648048 0.14991935
000340 2a a4 cc bd 61 31 dd 3d 91 97 f6 3d 68 5f ce bd
       -0.09992249 0.10800434 0.12040628 -0.10076791
000350 6b c0 c2 bc 39 12 23 3e bd 6f b8 bc cf 0d bc bc
       -0.023773393 0.1592492 -0.022514218 -0.022955803
000360 4e 69 7e 3c bd c4 bc bd d7 f8 04 3d 83 da 15 be
       0.015528036 -0.09217212 0.032463875 -0.14634137
000370 7a 6d 08 3e c4 74 20 3d 15 31 97 bc ac c3 be 3d
       0.13323012 0.039173856 -0.018456021 0.09314665
000380 1f 41 bb 3c e6 af a0 3d 16 c6 87 bb d0 fc 36 3e
       0.0228582 0.0784605 -0.0041434867 0.17869878
000390 f2 69 cf bd 00 67 47 bd 2a 16 fa 3c cc ce b2 3c
       -0.10127629 -0.048682213 0.030528147 0.021827124
0003a0 cf 89 b1 bd 58 98 a0 bd 56 8b 37 3e 6b ba c4 b9
       -0.08668863 -0.07841557 0.17924246 -0.00037522925
0003b0 6d 26 4e be e6 2f f5 bd b9 36 b7 bd 9a 6c f2 3d
       -0.20131846 -0.119720265 -0.089459844 0.1183712
0003c0 49 3b 76 3d c6 37 49 bd b4 67 1a 3d 60 7b b6 3d
       0.060115132 -0.049125455 0.037696555 0.08910251
0003d0 33 87 5c bd 6e 6e b7 bd d6 bf 01 3e 1d 2e 1f 3d
       -0.053839874 -0.0895661 0.12670836 0.038862336
0003e0 57 27 2a be e1 30 8b 3d a1 94 00 3e d9 6e 83 3d
       -0.1661657 0.06796432 0.12556697 0.06417627
0003f0 b3 50 dd bd b6 31 1b 3e 0f f7 da bd 38 42 3c bd
       -0.10806408 0.15155682 -0.10691654 -0.04596159

lstm.bias_ih_l0 f4 [512]
000000 6e 01 6f 3d 53 2c ce bd 6d 07 c8 bc 99 b8 04 be
       0.058350973 -0.10067048 -0.024417603 -0.12961043
000010 ab b0 a7 bd 7b a8 c5 bd dd 37 f6 bd c4 8c 3f be
       -0.081879936 -0.09651276 -0.12022374 -0.18706042
000020 8a 86 7c 3d cb c1 c0 bd f8 57 55 bd c3 be 8f bd
       0.061651744 -0.09411963 -0.052085847 -0.07018807
000030 f9 96 2d be 41 67 b4 bd a8 1b 98 bd 2b 28 31 be
       -0.16952123 -0.088087566 -0.0742715 -0.17300479
000040 d6 b4 5a bb 8a 7e 89 bc a0 ac bf bd 76 f8 05 be
       -0.0033371947 -0.016783971 -0.093590975 -0.13083062
000050 af a6 0b bd 06 c1 db bb 69 c1 ba bd f7 1c 44 3d
       -0.03409451 -0.00670636 -0.09118921 0.047879186
000060 37 ca 11 be e6 9e 0c be 4f 52 0c be bc 4d 80 be
       -0.14237295 -0.1373249 -0.13703273 -0.25059307
000070 ef 85 5c bc 06 cf 02 be 43 ac a8 bd 1b 8c a9 bc
       -0.013459667 -0.12774286 -0.08235981 -0.02069669
000080 9c ab a0 bd 31 93 99 bd 8c 4e 2a bd 02 84 6b 3e
       -0.07845232 -0.07498778 -0.041578814 0.22999576
000090 d7 6a 22 be da 8e 0c be 97 70 66 3d e9 e5 c2 bd
       -0.15861069 -0.13726369 0.056259718 -0.09516508
0000a0 c8 68 ea bc 5e c6 93 3d ed 0a 19 be 8b 11 08 be
       -0.028614417 0.0721557 -0.14945574 -0.13287942
0000b0 ee e2 3d bd df 90 ed bd 30 0c 4f bd 27 4c 88 b9
       -0.046358995 -0.115998976 -0.050548732 -0.0002599668
0000c0 83 97 48 be bd 7f 2c 3d 99 5f e9 bd 40 dd 50 be
       -0.19589047 0.04211401 -0.11395187 -0.203969
0000d0 d5 05 b3 bd d7 d0 80 bd 2f 57 a8 bd c7 ee 08 be
       -0.08741347 -0.06289833 -0.08219754 -0.13372336
0000e0 98 aa 10 3d 31 aa b7 bd b8 d3 78 bd ca f7 0b 3d
       0.03531894 -0.08968008 -0.060748786 0.034171857
0000f0 f1 b1 6e bd 30 48 25 be 0c de 7c 3d f4 45 29 bd
       -0.058275167 -0.16140819 0.061735198 -0.041326478
000100 61 b2 2e be 5e f3 22 3d 74 8b b1 bb 02 c6 55 be
       -0.17060234 0.039782874 -0.0054182354 -0.20876315
000110 76 ea 10 3e 87 db 9e bd b1 51 88 be 80 d3 32 bc
       0.1415194 -0.07756715 -0.26624826 -0.010914683
000120 79 08 3c be 27 b7 9b 39 d6 44 0b 3d b0 e2 81 3e
       -0.18362607 0.00029700363 0.034001194 0.2536826
000130 6a 76 4b be 15 62 9b bd bc ff d6 bd 73 58 19 be
       -0.1986939 -0.07587067 -0.10497996 -0.14975147
000140 13 1d ac bc da a5 1e be fb 89 87 3d ba 21 30 bd
       -0.021009957 -0.15492955 0.066181146 -0.043000914
000150 7c 3d d1 bd ef a5 01 3e 66 7f 20 be 15 fd f3 bc
       -0.10216805 0.12660955 -0.15673599 -0.029783765
000160 16 5a f8 bd 36 64 80 bd 0a ca 26 be a4 f1 02 be
       -0.121265575 -0.06269114 -0.1628801 -0.12787491
000170 6f 4f ef bc 91 11 ce bd 2c 6e d9 bd e5 18 9d bd
       -0.029212682 -0.10061944 -0.10616717 -0.07670764
000180 2f 9a 30 be 78 73 60 bd d5 02 84 3d 2e f5 c4 bd
       -0.17246316 -0.05479762 0.06445853 -0.09617077
000190 42 66 0e be 08 67 16 be ef ec f4 bd 8d 24 b9 3d
       -0.13906196 -0.14687741 -0.11959254 0.09040175
0001a0 84 77 d4 3d 48 c9 bb bd 9a e2 90 be f0 2c e6 bd
       0.10374358 -0.09169251 -0.28297883 -0.1123904
0001b0 33 ff 8a 3d 54 57 01 be af 07 26 be 1d aa b7 bd
       0.06786957 -0.1263097 -0.16213869 -0.089679934
0001c0 f6 14 5d 3d 36 03 0a ba cb 6d 24 3d c5 b3 1c be
       0.053975068 -0.00052647607 0.04014377 -0.15302952
0001d0 3a 23 d4 bd 96 a9 03 be d6 24 d4 bd 12 5d 4e be
       -0.103582814 -0.1285766 -0.103585884 -0.20152691
0001e0 9a b3 ca bd 75 66 44 bb aa 40 b5 bd f6 b2 2c bd
       -0.098975375 -0.0029968296 -0.08850224 -0.042162858
0001f0 ac 75 03 be 8a ec dc bd 0c f8 a8 bb 28 b7 6a be
       -0.12837857 -0.10787304 -0.0051565226 -0.22921431
000200 67 b2 50 3e fe 01 28 3d dd 81 64 bd c9 1a 69 3d
       0.20380555 0.041017525 -0.05578791 0.05691031
000210 8c 9d 02 3b 06 5d 18 3d 91 a1 96 bc 26 4f 85 bd
       0.001993033 0.03719809 -0.018387588 -0.06509237
000220 86 9c 16 3e 5b c6 11 bc 00 8e 0e 3d f9 73 13 3e
       0.14708146 -0.008897389 0.03480339 0.14399709
000230 5d 14 a9 bc 54 f2 3e 3e 49 49 f2 3c de 66 fe 3c
       -0.020639593 0.18647128 0.02957596 0.03105491
000240 cc e8 d9 3a 40 27 c3 3c 13 d6 db 3d f5 9a c8 3d
       0.0016625165 0.023822427 0.10734191 0.09795181
000250 24 ad 43 3e 6a 35 95 3d e7 c7 12 3d 6c fb f4 3c
       0.19109017 0.072855785 0.035835173 0.029905044
000260 17 8e ff 3d 57 0a c1 bd fe 94 92 3c 0a 8c de 3d
       0.12478273 -0.094258 0.01789331 0.10866554
000270 9c ae c7 3b a3 53 87 ba 3f 8d 91 3c 28 9b 9a bd
       0.006093813 -0.0010324608 0.017767547 -0.07549125
000280 12 1f fd 3c 28 2a 02 3e 27 dd e8 3d fe 50 9a 3d
       0.030898605 0.12711394 0.113703065 0.07534979
000290 28 29 8e bd 18 90 d0 3d 3d 58 e1 3d aa 1b 50 bd
       -0.06941444 0.10183734 0.11003158 -0.050807633
0002a0 1c 07 ee 3b 39 3b f3 3d ff 0a 6c bc 0f aa ba 3c
       0.007264031 0.1187653 -0.014406919 0.022786168
0002b0 de f7 b4 bd 21 e2 6b bc da 88 01 3e 3e 1e c7 3d
       -0.088363394 -0.014397175 0.12649861 0.09722565
0002c0 f8 60 bf bc dc 61 36 3d 9d dc d6 3c a0 32 10 3d
       -0.023361668 0.04452692 0.026228243 0.03520453
0002d0 b1 c9 7c 3d b6 ac 2e bd 51 8d 10 3e c4 a4 4e bd
       0.061715785 -0.04264518 0.14116408 -0.0504501
0002e0 75 87 93 3c e6 6e 1a 3e 37 00 9b 3d 28 75 97 bd
       0.018008927 0.15081367 0.075684 -0.07395393
0002f0 6e 9c 2c bd 3b bf 81 3d 59 27 e0 3d a7 9d cd bb
       -0.04214137 0.063353024 0.10945005 -0.006274897
000300 5e e3 10 3e 8d b7 86 3d 5b eb a7 3d 78 11 34 bd
       0.14149234 0.06577978 0.08199187 -0.043961972
000310 c8 e6 2e 3e 26 d6 8b 3c be ba 64 3d 6e 4c 89 bd
       0.17080224 0.017069887 0.055842154 -0.06704031
000320 4c 16 6d bd 04 d7 2a bd 2e 63 40 3d a6 c3 0c 3e
       -0.057882592 -0.04170896 0.046969585 0.13746509
000330 67 39 12 be 87 1c 2f 3d 1d 9d 6d bd f6 77 b3 3d
       -0.1427971 0.042751815 -0.058011163 0.08763115
000340 f1 84 0e 3e 85 40 58 3c 78 18 bd bc 99 2b 8d bd
       0.139179 0.013198976 -0.023082957 -0.06893081
000350 ad cc 14 3d 41 bd 22 3e f1 99 77 bd 5f 06 62 bd
       0.036328007 0.15892507 -0.060449544 -0.055181857
000360 34 0e 20 3d 81 b4 41 3d 7c d1 cf bc 29 ac e2 3d
       0.039076045 0.047291283 -0.025368445 0.11067993
000370 14 3b f4 3d 2c 37 48 3d 84 4f 8e bd c4 47 9b bd
       0.11925331 0.04888074 -0.0694876 -0.075820476
000380 34 5f ea 3c 5d 8d b4 3d a3 c5 d7 3d 54 cd 52 bc
       0.02860985 0.088160254 0.10535743 -0.012866337
000390 49 17 cd bc e6 21 19 be 5d d4 46 bc a6 55 28 3d
       -0.025035517 -0.14954337 -0.012135592 0.041097306
0003a0 c7 95 30 3e 2c 8b 3f 3d cb ef 8a bd 69 a1 b4 bd
       0.17244636 0.046763584 -0.06784018 -0.08819849
0003b0 1a 5e b6 bd bd 37 28 3a 26 41 a7 bd 4b c5 d6 3c
       -0.08904667 0.0006416997 -0.08166723 0.026217123
0003c0 4a 00 69 3e e0 af 92 3d d3 95 3e bd cf 3a b6 3c
       0.22754017 0.07162452 -0.046529602 0.022244839
0003d0 01 3f df bc 19 e7 79 3d f3 43 af bb 11 4b 35 bb
       -0.027251722 0.061011408 -0.0053486763 -0.0027663151
0003e0 a0 9b 0e 3e ef 3d ff bb f4 fa 5e 3c e1 2c ca 3b
       0.13926554 -0.0077893655 0.013609637 0.0061699008
0003f0 2d 25 e6 bd 85 10 f0 bd e3 33 c2 3d f8 a3 4f 3d
       -0.112375595 -0.11721901 0.09482553 0.050693482

lstm.bias_hh_l0 f4 [512]
000000 48 cc 57 bb 90 7f a8 bd ea ed 76 bd 13 e1 0e be
       -0.0032928158 -0.082274556 -0.060285486 -0.13953047
000010 79 be 15 be 7b 1e e8 bd 1c 60 7d bd 47 ca 0a be
       -0.14623441 -0.11333939 -0.061859235 -0.13553725
000020 99 60 bd bd 5a 64 1b be 7c 1a a0 bd 22 e6 fd bd
       -0.0924694 -0.15175 -0.078175515 -0.1239741
000030 87 71 87 bd 36 6d e9 bd 3e 17 96 bd 09 7a ae bd
       -0.066134505 -0.113977835 -0.07328652 -0.0851937
000040 f2 cd 1d 3c 31 9a 20 be 56 4d 75 bd 30 ee ae 3c
       0.009631621 -0.1568382 -0.059888206 0.021353811
000050 d7 03 99 bd 1e e1 1b be 56 ce dd bd 26 d0 f5 bc
       -0.074714355 -0.15222594 -0.10830371 -0.03000648
000060 87 77 52 be b9 7f d4 bd 4f c5 cf bd 27 2f e6 bd
       -0.20553409 -0.10375924 -0.101450555 -0.11239462
000070 9e 8b 93 3d 21 c8 14 be 48 de ae bd 16 e3 13 be
       0.07204364 -0.14529468 -0.085384905 -0.14442095
000080 17 6a 94 bd 18 78 c8 3c f7 a0 15 bd 5b 47 8a 3d
       -0.072467975 0.024471328 -0.03653046 0.06751891
000090 c4 eb c8 bd ff 44 af bd a9 a6 1f 3d ae 94 02 3c
       -0.09810594 -0.08558082 0.0389773 0.007970018
0000a0 3b 67 2c be ca ca 14 3d 7f a1 9b bd a7 e2 96 bd
       -0.16836254 0.036326207 -0.07599162 -0.07367449
0000b0 83 56 23 bd 7f 44 17 3b f6 22 a0 3b a5 fa ab bd
       -0.039877426 0.0023081598 0.00488698 -0.08397416
0000c0 9c 42 23 be db bd ab bd 3c 15 c8 bc 94 82 35 be
       -0.15943378 -0.083858214 -0.024424188 -0.17725593
0000d0 86 eb 08 3d a3 7c 8f bd 66 d1 9f bd ac ba 1d be
       0.033427738 -0.070061944 -0.078036115 -0.15403241
0000e0 33 e1 bf bc a7 99 2d bd 1b 05 4b 3d 06 ac a5 bd
       -0.023422813 -0.042382862 0.049565416 -0.080894515
0000f0 11 31 80 bd 53 05 3a ba 32 83 74 3d d6 81 3f be
       -0.06259359 -0.000709613 0.05969543 -0.18701872
000100 8c 59 08 be 7f 37 8a bc 62 ce f5 bd 98 35 62 be
       -0.1331541 -0.016872166 -0.12002255 -0.22090757
000110 9f 9e 9e 3e da a3 b1 bd 6c 16 72 be b0 d0 11 bc
       0.30980393 -0.0867383 -0.23641366 -0.008899853
000120 8f c8 2f bd e4 ea 66 3d 0a 9a b4 3b ff 70 3d 3e
       -0.042915877 0.056376353 0.005511527 0.18500136
000130 1c 3d c4 bd 5d 89 c9 bc 84 4d 54 bd c4 ea 65 bd
       -0.09581968 -0.024601633 -0.051831737 -0.056132093
000140 9d ed c3 bd 74 67 6c bd 1a 64 88 3d de 41 24 3c
       -0.095668055 -0.057715848 0.06659718 0.01002547
000150 32 32 03 be b4 fc 83 3d c1 ed 42 be bc 4b 34 ba
       -0.12812117 0.06444684 -0.19036008 -0.00068777404
000160 44 64 06 be ff 1b aa bd 8e b8 fb bd 04 56 b6 bd
       -0.13124186 -0.08306121 -0.122910604 -0.08903125
000170 d2 e3 ec bd 91 10 c1 bd 17 bb 12 be b9 52 47 bd
       -0.11566891 -0.09426988 -0.14329182 -0.048662875
000180 61 c8 fc bd 80 20 78 3c 6c 2a f9 bc ec 5f ab bd
       -0.12342907 0.015144467 -0.030415736 -0.08367905
000190 51 c0 0c bd 8d 7e d7 bd fe c3 fe bb 58 f2 cd 3d
       -0.034363095 -0.105221845 -0.007774829 0.10055989
0001a0 39 14 ce 3d 1f d4 6c bd 66 0e 26 be 05 4b 9a bb
       0.10062451 -0.057819482 -0.1621643 -0.00470865
0001b0 66 0f 76 bc ce 02 5a 3c ba cd 80 bd ed 7a b7 bd
       -0.01501832 0.013306333 -0.06289239 -0.08958993
0001c0 c0 93 c9 3d ca 96 be bd 2f 41 62 bd cd e7 be bd
       0.09842634 -0.093061045 -0.055237945 -0.09321556
0001d0 64 87 1d 3b a9 ed 9c bc 7b 12 e3 bc 2f 03 02 be
       0.0024036998 -0.019156294 -0.027718773 -0.12696527
0001e0 b0 50 13 bd db 38 8f 3c 55 83 f8 bc c5 92 2c bd
       -0.03596562 0.017483165 -0.030336061 -0.042132158
0001f0 85 88 c7 bd f0 6a 0e be 65 55 02 bd da 4c 04 be
       -0.09742836 -0.13907981 -0.03181972 -0.12919942
000200 60 ec 42 3e c6 68 35 3d f8 47 46 3d 4c e1 a7 bd
       0.19035482 0.044289373 0.04840848 -0.08197269
000210 4a 73 ed bd 28 a5 85 bd 02 d7 0e bc b8 cf b3 3c
       -0.11594255 -0.06525642 -0.008718254 0.021949634
000220 e3 c3 2a 3e 41 ca 0b bc 3e cd f4 3d 99 83 9c 3c
       0.16676287 -0.008532108 0.11953209 0.01910572
000230 fc df aa bd ae 57 34 3e 3e 41 a3 3c 97 14 00 3d
       -0.08343503 0.17611572 0.01992857 0.031269636
000240 0f 27 bd 3d 2f 40 99 bd d6 bd ee 3d fb a2 30 3e
       0.092359655 -0.07482945 0.11657302 0.17249672
000250 ec e1 51 3e 9c 61 fe 3c f0 47 2f bd 42 47 f6 3c
       0.20496339 0.031052403 -0.042793214 0.030063275
000260 dc 4d 5e 3c 4c 94 1f bc f0 64 01 3e ae 12 0d 3e
       0.013568368 -0.009739947 0.12636161 0.13776657
000270 de 69 57 bb 76 b0 98 3d b7 5f e6 bd 72 be 43 3c
       -0.0032869498 0.07455532 -0.11248725 0.011947261
000280 2d 8e 27 3e 82 dc 48 3d b4 65 27 3d 6f ac 21 3c
       0.1636283 0.049038418 0.040868476 0.0098677715
000290 9a ca 38 3b 54 c5 30 3e 99 55 b7 3d 7a ef 2f bd
       0.0028196932 0.17262775 0.08951873 -0.042952992
0002a0 94 cd 88 bd ce 26 54 3e 88 75 30 bd 32 2b 79 bd
       -0.06679836 0.20717928 -0.043080837 -0.06083221
0002b0 c0 5a 1d 3c 2c 3c 00 bd 90 cf 07 3e 6e 47 14 3d
       0.009604156 -0.031307384 0.13262773 0.036200933
0002c0 3f 30 f5 bd 76 bc e1 3d 53 b3 da 3d 2f 62 90 3b
       -0.11972093 0.11022274 0.10678735 0.0044062356
0002d0 13 7c 56 3d 28 f8 2d bc 64 f5 b1 3d ed c2 a6 bd
       0.05236442 -0.010618247 0.08689383 -0.08142648
0002e0 a8 3a a3 3d 9c 67 e4 3d 8d 21 a3 3d 0c 7c c9 3c
       0.07970172 0.111525744 0.07965384 0.024595283
0002f0 a7 7e 5a bc 02 a2 98 3d ed ed e1 3d 1c fc 1a 3d
       -0.01333586 0.074527755 0.11031709 0.037838086
000300 3b c2 12 3e 72 a0 0b 3e 8a ba cb 3d bf b3 08 bc
       0.14331906 0.13635424 0.09947689 -0.008343636
000310 57 07 94 3c d6 18 9d 3d 58 c5 b1 3d 88 02 ce bd
       0.018069906 0.07670753 0.086802185 -0.100590765
000320 aa 8f 08 bd eb 53 9d 3a 80 d1 a0 3d 75 92 aa bc
       -0.033340134 0.0012003159 0.07852459 -0.02082179
000330 7f bb e7 bd 03 84 f9 bb 11 ef a4 bc c0 bb 64 3c
       -0.11315059 -0.007614614 -0.020133527 0.013960779
000340 65 4a 07 3e 7d ac ee bd 8a fb 0c bd c7 ae 7a 3d
       0.13211973 -0.11653993 -0.034419574 0.061201837
000350 94 f7 56 bd da 24 81 3d c3 e6 62 bd 48 30 14 3d
       -0.052482203 0.06305857 -0.055395853 0.036178857
000360 57 58 e3 3d 68 f0 3b 3d d2 c6 4f 3c 1f 42 15 3d
       0.11100834 0.045883566 0.01268168 0.03644001
000370 96 1d 35 3c bd 8d dc bd 5b fd 89 3c 22 97 dc 3c
       0.011054417 -0.10769222 0.016844442 0.026927534
000380 0f 40 02 bd 8b c0 46 3d 53 a1 37 3d 11 e5 8e 3d
       -0.031799372 0.048523467 0.044831585 0.06977285
000390 b4 6f 94 bc fe 51 01 be c8 fc 12 3d 5a 98 0e 3e
       -0.01811967 -0.12628934 0.035885602 0.13925305
0003a0 ec c1 66 3d 81 65 5d 3d 62 d0 cf 3b 19 86 93 bc
       0.056337282 0.05405188 0.00634198 -0.018008279
0003b0 0f 69 98 bd 9c 99 76 bd 31 02 c5 bd b6 fd 71 3d
       -0.07441913 -0.060205087 -0.096195586 0.05907985
0003c0 ff 3e 78 3e da 6e 49 3c 1e 2a c9 bc fd df 0c bd
       0.24242781 0.0122944955 -0.024556216 -0.0343933
0003d0 c5 9c 9f 3a 88 e7 8b 3d 5f 4e bd 3d a4 ae a9 bc
       0.0012177458 0.068312705 0.09243464 -0.020713158
0003e0 96 2d 0e 3e 02 b5 95 bc bb e8 c0 3c e4 94 28 3e
       0.13884577 -0.018274788 0.023548475 0.16463047
0003f0 41 ab 07 3c 40 f4 f5 bc 4e 20 39 3d a7 ec 9f 3d
       0.008280576 -0.030023694 0.045196824 0.0780881

lstm.weight_ih_l1 f4 [512, 128]
000000 b1 d0 67 3e ac 5d 2e 3d 82 6b f8 bc 96 aa e2 bd
       0.22638203 0.0425698 -0.030324701 -0.11067693
000010 a8 94 f0 bc 98 46 c2 bd 81 72 19 bd ff b3 4b be
       -0.02936776 -0.09486121 -0.037462715 -0.19892882
000020 c8 ee d0 bb 1e 86 cb bb 11 fd 9a bc 94 2e 05 be
       -0.006376121 -0.0062110564 -0.0189195 -0.1300605
000030 9b b8 ba 3d 0f e3 9b bd 72 2e 39 3d 74 02 9c bd
       0.09117242 -0.07611667 0.04521031 -0.076176554
000040 58 fc 75 be ce a3 f0 bc 5d c6 a2 bd fe e4 b4 bd
       -0.24022043 -0.029374983 -0.07947991 -0.08832739
000050 57 4b 59 3e 2c 18 d0 bb 27 cd 45 bc 7f 03 d3 3c
       0.21220146 -0.0063505378 -0.012072838 0.025758503
000060 7b 8f a5 bc b5 84 23 bd 3b c9 81 bb ad 68 82 bd
       -0.020210018 -0.03992148 -0.003960756 -0.063676216
000070 b8 d6 30 3c a0 14 d1 3d 59 17 f6 bc a5 79 96 bd
       0.01079338 0.10209012 -0.03004043 -0.073474206
000080 45 7d 08 3b f2 5a 4f 3d af 8f 18 3e 06 1c b4 3c
       0.002082662 0.05062384 0.14898561 0.021986019
000090 45 2c c4 bd 4e c0 87 bd 26 b5 3d bd 5b ae 8b 3c
       -0.09578756 -0.06628476 -0.046315335 0.017050913
0000a0 cf 7a 27 bd 47 4f 12 3d 19 87 95 3d 4d ff 9c bd
       -0.040888604 0.035720136 0.073011585 -0.07665882
0000b0 76 be b1 3d c4 c3 27 bd 3b 48 78 3c 54 ab 89 3d
       0.08678906 -0.04095818 0.01515394 0.06722131
0000c0 72 34 3e 3d 16 98 e2 3d ac 40 5e bd ea 0c 8f bd
       0.046436734 0.11064164 -0.054260895 -0.06984885
0000d0 76 0f 68 3d d3 d2 77 bd 3a d9 b4 bd cc 7a fd bd
       0.05665537 -0.060503792 -0.08830495 -0.12376937
0000e0 5a eb 2b 3d eb 6a bd b9 38 c4 21 3d d3 e1 62 bd
       0.041972496 -0.0003612855 0.03949377 -0.055391144
0000f0 3a 83 ca 3c 55 ad e2 3d f3 fa bc bd 3a c5 55 3b
       0.024720777 0.11068217 -0.09227552 0.0032618777
000100 be 15 9a 3c ce 7b 50 bd 33 53 08 ba dc 7e e2 3d
       0.018809196 -0.05089932 -0.0005200386 0.11059353
000110 6c f6 ad 3d 18 4c 1b 3b e7 8f 09 be 3b 6e 06 be
       0.08494267 0.0023696478 -0.134338 -0.13127987
000120 f8 a3 15 bd 2f 8f 71 bd 83 57 6e 3c d0 06 44 bc
       -0.036533326 -0.05897444 0.014547232 -0.011964515
000130 08 de a8 bc 33 1e c9 3d a6 41 35 bc 6d 8c 8d bc
       -0.020613685 0.09820213 -0.011063015 -0.017278874
000140 fa 42 4a bc 64 9e 04 3e b6 89 c8 bd 86 38 b5 bd
       -0.01234507 0.12951046 -0.09791891 -0.088486716
000150 8c eb 12 bd 40 cd 5c 3c 8a f4 a0 bc 09 5d dd 3c
       -0.035869166 0.01347667 -0.019647855 0.027021902
000160 b1 b1 8f 3d 71 76 98 3d fd f5 29 3e f8 e8 4a 3d
       0.07016314 0.07444466 0.16597743 0.049538583
000170 a7 59 c3 bd a6 e8 40 3d 41 05 61 bd 02 9c e4 bc
       -0.09538584 0.04709687 -0.05493665 -0.027906422
000180 f7 22 94 bd b6 47 3c be 7e e3 75 3d eb 02 f8 3c
       -0.072332315 -0.1838673 0.060031407 0.030274829
000190 21 15 53 3d 15 97 2b bc fb e1 6b 3d 73 fe 7b bd
       0.051533822 -0.0104730325 0.05758856 -0.06152196
0001a0 9e 1e 37 bc fc fa ba bd fd 6f 13 be 6f 4c ef bd
       -0.011176733 -0.09129903 -0.14398189 -0.116845004
0001b0 f8 8c e1 bd 65 b2 88 3d 45 9b 0f be 2e bd 9f 3d
       -0.11013216 0.06674651 -0.14024074 0.07799755
0001c0 dc e1 d1 3d 4a 32 ce bd c4 72 72 3c fd 80 b4 bd
       0.102481574 -0.100681856 0.01479787 -0.08813665
0001d0 0c 0d 5c 3d 8e 7f c2 bc 19 88 70 3d 4b c2 0c 3d
       0.05372338 -0.023742463 0.058723543 0.03436498
0001e0 4a 8d d5 3c 24 08 b4 3c 46 57 9d 3d 83 38 f1 bc
       0.026068348 0.021976538 0.07682662 -0.029445892
0001f0 55 e5 88 3d 05 40 28 3e 34 40 03 3e c8 96 f6 bd
       0.066843666 0.16430672 0.1281746 -0.12040478
000200 70 33 2e bd 43 77 c4 bd c3 9f 45 3d fc 18 81 3d
       -0.042529523 -0.0959306 0.048248064 0.063035935
000210 b6 8e 93 bd 89 69 b2 bc c6 84 98 bc 87 5c a9 bd
       -0.07204954 -0.021778839 -0.018617999 -0.08269601
000220 0c 28 83 bd 6d b7 ec 39 b5 9e 51 bc 43 d9 c9 3d
       -0.06404123 0.0004515009 -0.012794186 0.098558925
000230 62 15 9d 3d 3b ee 58 bd 57 d6 85 bd 6f f9 1b be
       0.07670094 -0.05296157 -0.06535023 -0.1523187
000240 da be 44 be 5c 4b e2 bb 1b 2e ab 3a ab 56 01 be
       -0.19213429 -0.006905956 0.0013060005 -0.12630717
000250 94 78 df 3d 46 6e ad bc 35 62 f1 3c f0 82 c3 3c
       0.1091167 -0.021170747 0.029465774 0.023866147
000260 d6 eb 0f 3d 15 c1 97 bc 64 03 23 be b5 b7 90 bc
       0.03513702 -0.018524686 -0.15919262 -0.017665723
000270 53 00 ac 3c 77 80 e9 3b 8c 9b 81 bd e4 c2 99 bd
       0.020996248 0.00712591 -0.06328496 -0.075078756
000280 bd 28 28 bc 2b b8 dd bc e8 65 19 bb 39 90 d8 bc
       -0.010263619 -0.027065357 -0.0023406688 -0.026435958
000290 5d 2b 06 3d 73 aa a3 bd 73 3d bc 3b 7c 1d 44 3d
       0.0327562 -0.07991495 0.00574463 0.04787968
0002a0 15 42 23 3d eb d9 f3 3d af 60 44 3d 66 e1 66 3d
       0.039857943 0.11906799 0.047943767 0.0563673
0002b0 cd b8 f0 3c a0 4b f3 bd 3a 34 13 be 79 ff 9d bd
       0.029384995 -0.11879659 -0.14375392 -0.07714743
0002c0 d8 26 c8 bd 58 0a a2 bb c5 95 38 3d 8e ec 16 bc
       -0.09773034 -0.0049450807 0.045064706 -0.0092116725
0002d0 6f 9a b5 bd 2d 2a cf 3c f5 e5 af 3c 7a 4d b5 3d
       -0.088673465 0.025288666 0.021471957 0.08852668
0002e0 21 d2 33 bd d1 97 98 bd 62 ee b2 3d 0b 99 80 3d
       -0.043901566 -0.07450832 0.08736874 0.06279191
0002f0 dd 6b bf bd 45 e9 d2 bb 4f 8c dd 3c c6 f2 d2 3c
       -0.09346745 -0.0064364993 0.027044443 0.025750529
000300 ac 6f 1b 3d 72 47 c6 3d da 96 dd bc dd d6 49 3d
       0.037948295 0.09681596 -0.02704947 0.049277175
000310 a5 2c 11 3d cd ed c6 3d 89 5b b1 3d e5 53 2f 3d
       0.035442967 0.09713326 0.08660037 0.042804617
000320 e1 14 f0 bd 6e 97 fd 3d bb da c5 bc 6c e7 0b 3c
       -0.11722732 0.123823985 -0.02415215 0.008539062
000330 a1 ae 91 bc f0 97 57 3d 71 f9 bc 3c 66 37 ba 3d
       -0.017783465 0.052635133 0.023068162 0.09092598
000340 51 01 09 be 93 c5 2b 3c e7 aa 3e 3c 49 e7 8a bd
       -0.13379408 0.010484117 0.011637426 -0.067823954
000350 45 e2 55 3c 9b 96 12 3b 8f 91 92 bd 8a 98 fa bd
       0.013054435 0.00223676 -0.07156669 -0.12236126
000360 c1 b5 ca 3c 00 b9 3d 3d 29 a7 52 bd db 6c cd 3d
       0.02474487 0.046319008 -0.051428948 0.10030528
000370 6e f9 9b bd d3 58 c7 bd 49 b0 f3 3d 47 55 93 3d
       -0.07615934 -0.09733739 0.11898858 0.07194
000380 29 bc 9b bb 1e ac 03 bd b7 a7 0a 3d c9 29 52 3d
       -0.004752655 -0.032146566 0.03385135 0.05130938
000390 69 4b 44 bc 5e c6 8d 3d fc 14 b7 3d a3 d3 0b be
       -0.01198087 0.06922601 0.08939549 -0.13654952
0003a0 94 fe a7 3d 33 3b eb 3c 4d 27 b8 bd 4c 3f 84 3d
       0.08202854 0.028714752 -0.08991871 0.064573854
0003b0 1e b2 97 bd 61 8d 26 bd d6 7e 9b bd 35 0c ed bc
       -0.0740702 -0.040662173 -0.075925514 -0.028936485
0003c0 83 80 33 3d 19 d1 9b bc ce a7 12 bd 52 7b b7 bc
       0.04382373 -0.019020604 -0.035804562 -0.02239767
0003d0 91 ea 9c 3c 1d dd 55 bd 94 72 39 3d 28 8e 8f 3d
       0.019154819 -0.052212823 0.045275286 0.07009536
0003e0 c0 4f 1e 3d 61 e4 6d bd 5e 16 8b 3b 2e 27 ed 3c
       0.038650274 -0.058079127 0.0042446097 0.028949346
0003f0 43 41 c6 bd 6f 98 e0 3d bd 67 07 3c c6 d6 3d 3d
       -0.096804164 0.109665744 0.008264479 0.046347402

lstm.weight_hh_l1 f4 [512, 128]
000000 ae 24 1d 3d e1 e4 47 3d 3f 30 92 bd bd 36 29 3d
       0.03836506 0.04880226 -0.071381085 0.041311968
000010 dc 16 ec bc bd 60 42 3e 44 99 e5 3d 97 59 a8 3c
       -0.028819494 0.18982215 0.11210874 0.020550532
000020 cb 4f 8c bd 00 5a b4 3d 9d 8b 4b 3d 90 17 14 3d
       -0.06851157 0.08806229 0.049693692 0.036155283
000030 a3 8f b2 bd 96 1f e8 bc 08 cb e7 3b 29 87 4a 3d
       -0.08718803 -0.028335374 0.0070737638 0.049445305
000040 1b b9 75 bd fe c7 64 3d 78 ca d3 3c 86 d7 59 be
       -0.059990983 0.05585479 0.02585338 -0.21273622
000050 51 dc 9b bd 53 6f 41 bd 5f 6f cd 3d 99 ba 45 bd
       -0.076103814 -0.047225308 0.10031008 -0.048273657
000060 d7 7a 68 bd c5 ab b4 bd 6d af 38 bd f6 93 59 bc
       -0.056757774 -0.08821825 -0.045089174 -0.013279906
000070 5e c3 9f bd 8f 98 32 ba b7 e0 46 bd 66 00 53 bc
       -0.07800935 -0.0006812894 -0.04855415 -0.012878513
000080 a8 d9 a2 bd 0f 61 60 be a1 0b 44 3c 0c e8 4a bd
       -0.07951671 -0.21912025 0.011965663 -0.049537703
000090 07 6b af bd 90 7e 54 3d a8 05 78 bd f9 19 9a bd
       -0.08565336 0.051878512 -0.06055227 -0.07524485
0000a0 8f dc 87 3d 07 fb 9c 3d 61 35 1b 3d 2a c5 3d bd
       0.06633865 0.07665067 0.037892703 -0.04633061
0000b0 ad 14 a1 3d 02 8d e6 bc 73 7c 92 3d 0c c9 9d bd
       0.07865272 -0.02814341 0.07152643 -0.07704362
0000c0 7d dc a6 bd dc d1 b8 3d 08 02 8e 3d ce 35 1d 3e
       -0.081475236 0.090244025 0.06933981 0.15352556
0000d0 de 84 3a 3e b9 f9 67 3d 96 e9 2f bd 4e de e5 bd
       0.18214747 0.05663464 -0.042947374 -0.11224042
0000e0 44 fd 6e 3b 71 87 c0 bd 68 cb b4 bd ba 4c 79 3d
       0.0036466876 -0.094008334 -0.08827859 0.060864188
0000f0 02 07 29 3d c3 29 20 be 86 1a 69 bd 06 64 b5 3d
       0.04126645 -0.15640931 -0.05691006 0.088569686
000100 03 72 e5 bc bc cf b1 3c dc 02 29 be bd 0b 16 bb
       -0.028008467 0.0217055 -0.16504997 -0.002289518
000110 37 d6 d9 bd 67 7e a2 3c 4f cc 2f 3d ca 70 90 bd
       -0.10636561 0.019835664 0.042919453 -0.07052763
000120 e4 d1 ab bd 31 62 08 3d 93 a4 00 3d 07 3d 04 be
       -0.08389643 0.033296768 0.03140695 -0.12913905
000130 13 b7 d2 bc c1 95 e0 3c 8a f8 ed bc bc 37 03 3d
       -0.025722062 0.027415158 -0.029049177 0.032035574
000140 c6 57 c0 bd b1 6b a3 bc f0 51 e4 bd 54 87 8d 3d
       -0.093917415 -0.019948812 -0.11148441 0.069105774
000150 88 b9 72 3d 28 6e 64 3d 88 0b ff bd fd 3a 28 bd
       0.059258968 0.055769116 -0.12453371 -0.04107188
000160 63 6c 90 3d f6 b1 75 3d 61 19 e8 3d e5 be 68 bd
       0.07051923 0.05998417 0.11332966 -0.056822676
000170 82 65 55 3b 0d 29 09 bd 19 7d 24 3e c7 2c b2 bd
       0.0032561724 -0.033486415 0.16063346 -0.08699947
000180 7c ef 40 3d 96 99 43 be f8 0c 8e bd 43 05 0a be
       0.04710339 -0.19101557 -0.06936067 -0.1347857
000190 ae 91 3e 3d 9b eb 08 3e a7 56 a5 ba 12 cd 3b bc
       0.04652565 0.13371126 -0.0012614325 -0.011462467
0001a0 23 d4 5e bd 4b f4 3c bc 35 84 11 3d a9 13 94 bd
       -0.054401528 -0.011532853 0.035526473 -0.072303124
0001b0 c5 a3 26 3d f1 75 71 3d 53 b1 1c 3e 3b 4b 3a bc
       0.040683527 0.05895037 0.15302019 -0.011370475
0001c0 94 a2 11 bd 44 b9 a4 bc d4 8c 06 bc 75 73 7c bc
       -0.035555437 -0.020107873 -0.008212287 -0.0154083865
0001d0 40 66 e9 bd 54 ca 1d 3d 4e 89 96 3c eb d7 b5 bd
       -0.11396456 0.038523033 0.018376019 -0.08879074
0001e0 3d 98 90 3c 80 59 d9 3d da da 38 bd 9d a6 50 3b
       0.017650718 0.10612774 -0.045130588 0.003183759
0001f0 8e dd c2 bc 03 0f f2 bb 46 cd 00 bd 13 ae 37 3e
       -0.023787286 -0.0073870434 -0.031445764 0.17937498
000200 0b c8 1c bc a8 aa c0 bc 58 54 5b be 72 5c 9d 3d
       -0.009569178 -0.023518875 -0.21418893 0.07683648
000210 8d 5e ab 3d 8f 1c a1 3d 78 4a b0 3c 4c e6 30 3d
       0.083676435 0.07866775 0.021519884 0.04318838
000220 7b 00 29 bd b7 0d 91 bb 75 ae a3 3d 2e ad 53 3d
       -0.041260224 -0.0044266838 0.079922594 0.05167883
000230 04 12 b9 ba dc 65 14 3e 18 1f 00 3d 0d 9d b2 bd
       -0.0014119749 0.14491981 0.031279653 -0.08721361
000240 93 3b 6c bd 85 89 e5 3d aa 0c 4c 3b 33 2e c8 bd
       -0.057674002 0.112078704 0.0031135478 -0.09774437
000250 16 85 cd bc 28 a3 d7 3d 2f 66 cc bd d3 1d e5 bd
       -0.025087874 0.105291665 -0.099804275 -0.11187329
000260 82 32 be 3d 5d c8 01 bd 39 16 7e bd f0 d9 b1 3d
       0.09286977 -0.031685222 -0.062032912 0.086841464
000270 41 40 12 3e bf 46 a0 bd 82 e3 01 be 11 48 bb 3d
       0.14282323 -0.07825994 -0.12684444 0.09144605
000280 48 cd fd bc cc c6 e4 bd b1 c6 a1 be 81 1f d1 bc
       -0.030981675 -0.1117073 -0.31596902 -0.025527718
000290 c5 24 d3 bd b9 ce 15 bd a6 3d cd bb 81 ce 2c 3e
       -0.103097476 -0.0365741 -0.0062634526 0.1687565
0002a0 be 0b 27 3e b4 72 82 bd fd fb ed 3d 35 8a ed bd
       0.16313073 -0.06369534 0.116203286 -0.115986265
0002b0 c1 65 04 3e 0b c6 3e be 17 67 9d 3d f3 7e 9d bd
       0.12929441 -0.18630235 0.076856785 -0.07690229
0002c0 d9 87 bc 3c cd 29 64 3d de b2 15 be 8f 57 28 3e
       0.023013996 0.055703927 -0.14619014 0.16439651
0002d0 95 f1 3e 3e 4b 27 48 3b bc aa cc bd 90 f7 a5 bd
       0.18646844 0.0030540999 -0.099935025 -0.081038594
0002e0 f3 a0 87 bd c4 b5 21 bc 9b d6 ba ba bb 35 6d bd
       -0.066224955 -0.009869996 -0.0014254631 -0.05791257
0002f0 67 b7 40 3e f9 97 6f bc 06 e2 e9 bd 53 1e 16 be
       0.18819962 -0.014623635 -0.11420064 -0.14660005
000300 06 45 1d bc d5 31 f9 3c 7c 66 45 be e2 35 7a bd
       -0.009598976 0.03041927 -0.19277376 -0.061086543
000310 e5 38 78 3d 71 cf 59 3b 13 e8 fd 3d cc 29 4b be
       0.060601134 0.0033235217 0.1239778 -0.19840163
000320 a8 43 4d bd 91 06 d6 bd 29 8e 8f 3b ce 42 56 bc
       -0.05011335 -0.10450471 0.0043809605 -0.013077451
000330 7c ac e1 bc 8d 90 06 3e ee 1d e3 3d 24 13 69 3d
       -0.027548067 0.13141079 0.11089693 0.05690302
000340 b4 8d 1e bd bb 97 67 bd fa 7f 1e be 7f 81 08 3e
       -0.038709357 -0.056541186 -0.15478507 0.13330649
000350 5f 03 de bc b6 aa ff bc af 63 04 be 83 19 2f be
       -0.027101217 -0.031209331 -0.12928651 -0.17099576
000360 91 16 d2 3d e5 af 9c 3c 3e ab 10 3e cd a2 ce bd
       0.102582105 0.019126842 0.14127824 -0.100896455
000370 9f e5 16 be 2c 5d ec 3d 72 ff 24 bd 14 f8 e6 bb
       -0.14736031 0.115412086 -0.040282674 -0.007048616
000380 fc 13 0f 3e d2 d2 95 bd a0 0b 01 3e a2 c4 34 3e
       0.13972467 -0.073156014 0.12602091 0.17653134
000390 23 5c 34 bc 5b fb 17 3e 26 55 87 bb e7 6b d2 bd
       -0.011008295 0.14841978 -0.0041300235 -0.10274487
0003a0 2c 48 c9 ba 4d 66 bf 3c b9 b6 74 3c c8 0d 69 bd
       -0.0015356592 0.02336421 0.014936143 -0.05689791
0003b0 66 01 4d bd 04 a2 51 3d b5 79 3e 3e 90 e5 43 3d
       -0.05005016 0.0511799 0.18601115 0.04782635
0003c0 79 6b 71 bd 33 bc 53 bb 39 21 9d bd 5c 66 05 3e
       -0.058940385 -0.003230822 -0.07672352 0.13027328
0003d0 f3 68 c9 bd 81 04 81 3d a4 8a 79 bd 50 ea 30 be
       -0.098344706 0.06299687 -0.060923234 -0.17276883
0003e0 82 7e 0f be a6 c8 09 3e db 90 e7 ba 83 dd af bd
       -0.14013103 0.13455448 -0.0017667072 -0.08587172
0003f0 a7 56 3c bd ab d9 81 3d 2b e8 c3 3d 14 85 e2 3d
       -0.045981076 0.06340345 0.09565767 0.11060539

lstm.bias_ih_l1 f4 [512]
000000 d9 fd 86 3d 1e 59 9c bd 6c 05 51 bc 8f 9f 9f bc
       0.06591386 -0.07634185 -0.01275764 -0.019485263
000010 d2 34 2e bd c3 b4 0b bd 23 7b 1d bc 06 31 a8 3d
       -0.042530842 -0.034107935 -0.009611878 0.082124755
000020 f8 b6 85 bc 26 16 be 3d 10 c5 3b bd b6 55 0a 3d
       -0.016322598 0.09281568 -0.04584223 0.033773147
000030 a5 29 48 bd d0 0e dd 3c 95 ce 0e be 6e b1 58 3c
       -0.04886784 0.026984602 -0.13945992 0.013225896
000040 cd a5 e2 bd ce b1 5e be 5f 60 4e bc 40 9e 63 3c
       -0.1106678 -0.21747515 -0.012596219 0.01389271
000050 75 df f5 bd 90 8d 16 be 76 e2 17 3d bb 1d 8e 3b
       -0.12005512 -0.1470244 0.037081204 0.0043370402
000060 95 74 42 bd ef 6b ca ba 71 41 42 bd e7 b2 c6 3c
       -0.047474463 -0.0015443544 -0.04742569 0.02425523
000070 d3 ee c8 bd f9 69 fe 3d 9d 21 83 bd 9d cb e6 bd
       -0.09811177 0.124225564 -0.064028956 -0.11269305
000080 d1 5e 64 3d d1 39 02 bd f9 58 2a bc ae af 7e bd
       0.055754486 -0.03179342 -0.010397189 -0.06217926
000090 20 27 ee bd 2b 19 ad bd 41 a7 8c 3c 7a 86 73 3d
       -0.11628556 -0.08452066 0.017169597 0.05945442
0000a0 d2 08 7a bc 37 19 e4 bd 17 5d 60 bd 46 b3 4e be
       -0.015260892 -0.11137622 -0.054776277 -0.20185575
0000b0 8f 21 42 3d bc 11 b6 bc 7b ed 22 bd c7 ff 31 bd
       0.047395285 -0.022225253 -0.03977726 -0.04345682
0000c0 74 d5 bb 3c 37 4a 52 bc 43 0b 96 bd c6 7c 24 3b
       0.02292893 -0.012835077 -0.07326367 0.0025098785
0000d0 8a 26 cc 3b 70 f1 09 bd 95 d9 cf bd 5a 53 37 ba
       0.00623018 -0.03367752 -0.10148922 -0.00069933163
0000e0 37 7e 8b 3c 80 9e 88 bd ff 09 99 3c d4 18 82 3d
       0.017027957 -0.066708565 0.018681524 0.06352392
0000f0 cb 7b b8 bc 9c 25 4c 3c aa 0e 38 3d 20 ab d3 3d
       -0.022519967 0.012460139 0.04493586 0.10335374
000100 d5 62 25 bd df d0 72 bb 95 53 91 bd ea 80 01 be
       -0.040377457 -0.0037050766 -0.0709602 -0.12646833
000110 ce 6a 0d be 81 29 ae bd cf f6 16 bd 16 77 55 bd
       -0.13810274 -0.0850401 -0.03685647 -0.052115522
000120 1c 6c 9c bd f8 d4 60 3c 75 f1 6e bd 61 cc 0f bc
       -0.07637808 0.013722651 -0.05833574 -0.008776755
000130 18 ac 48 be a5 27 be bc 60 83 b5 3d d7 4a 54 be
       -0.19596899 -0.023212263 0.088629484 -0.20731674
000140 16 76 f0 bd 0f 50 20 bd 5c b4 b2 bd 5b 1f 83 bd
       -0.11741273 -0.03913885 -0.08725807 -0.06402465
000150 0e c2 7c bd 34 bc 87 3c 8c f3 22 be 30 fa 21 bd
       -0.061708502 0.016569234 -0.15913218 -0.039545238
000160 5a 02 d5 3b ee b8 9e 3d 2c fd 32 be ed af 00 3e
       0.0065005245 0.07750116 -0.1747939 0.1256711
000170 a9 f5 42 3d 11 53 e4 bc 1f 6b 95 3d 7f 09 c5 bd
       0.04759756 -0.02787164 0.07295822 -0.09620952
000180 65 ad 0f bd 9f 1e 0b bc 27 f4 29 3b f2 6d c6 3b
       -0.03507747 -0.008491187 0.002593288 0.006055587
000190 e8 2e b7 bd 1c 42 ec 3c 36 a9 22 be 28 81 d6 bc
       -0.089444935 0.028840117 -0.15884861 -0.026184633
0001a0 a7 03 a8 bd 04 af 79 bd c7 a0 61 bc 4a d0 bc bd
       -0.08203822 -0.060957924 -0.013771242 -0.092194155
0001b0 5a 43 32 be d6 d1 18 bd e1 d6 03 be 19 12 01 3d
       -0.17408505 -0.03730949 -0.12874939 0.0315114
0001c0 1a d4 1a bd 32 60 f5 bd e1 ac a0 bc 92 3b 3f 3d
       -0.037799932 -0.119812384 -0.019613685 0.04668767
0001d0 28 75 c8 bc e7 f7 82 3d 51 70 97 bd bd cd 4b 3c
       -0.024469927 0.0639494 -0.073944695 0.012439189
0001e0 46 99 e2 bc 49 9c 98 bc 16 eb 9a bd c5 3e 01 be
       -0.027660977 -0.01862921 -0.0756437 -0.12621601
0001f0 74 5e 72 3d 10 46 53 bc fe dd 85 3d 66 c9 f5 bd
       0.05917211 -0.012895122 0.06536482 -0.12001304
000200 9c 4d 87 3d f4 66 ae bc bd 81 24 bc d9 2f a3 3d
       0.066066 -0.021289326 -0.010040698 0.079681106
000210 b9 b6 b5 3d 81 c9 16 3d 58 09 58 3b ce 23 f6 3d
       0.08872742 0.036813263 0.0032964554 0.12018548
000220 b8 42 47 3d a3 aa a6 3c 39 72 34 bd 0b 75 ba 3c
       0.048647612 0.020345038 -0.044054244 0.022760889
000230 10 7a 86 bd 3e 6f 64 bd 45 dc 2b bc 31 92 61 3d
       -0.0656625 -0.05577015 -0.010489528 0.05507106
000240 60 e2 93 bd d6 56 4a bd e6 fe 32 bd 42 49 98 bd
       -0.07220912 -0.04939922 -0.04370012 -0.07435848
000250 b8 3f 00 3d 78 8b 83 bd 13 40 88 3d 2b ae 04 3d
       0.031310767 -0.06423086 0.06652846 0.032392662
000260 2c 7e a4 3d 13 71 06 3c 5b 8d 2a bd 50 49 a1 bb
       0.08031878 0.00820567 -0.041638713 -0.0049220696
000270 91 54 7b 3d 19 51 d3 3d 32 46 ab bd 4d 60 74 bd
       0.061359946 0.103182025 -0.08362998 -0.059662152
000280 70 92 63 bd 2b 6a 96 3d 0d 47 d0 bd ec 37 cc bd
       -0.055559576 0.07344469 -0.10169802 -0.09971604
000290 ac d3 b9 bc 70 06 93 3c ea 6c 94 3d 61 a1 02 3e
       -0.02268394 0.017947406 0.07247336 0.12756874
0002a0 04 92 1b bd 9c d4 e6 bd a3 29 aa ba 7a 5f 12 be
       -0.03798105 -0.11271021 -0.0012982379 -0.14294234
0002b0 da 21 9f 3d e2 ff de 3c 36 9c 93 bd 09 71 80 bc
       0.077701285 0.027221624 -0.07207529 -0.0156789
0002c0 22 2a 93 3c 59 aa 55 3d fc fc 11 bd 10 ea a5 3d
       0.017964426 0.05216441 -0.035641655 0.081012845
0002d0 2f 0d 94 3d 20 92 dc 3c 76 8f dd bc 17 c4 a1 ba
       0.07229077 0.026925147 -0.027045947 -0.0012341765
0002e0 2e eb 00 bd f7 70 0a bd 4b 67 62 3d 95 20 d8 3d
       -0.031474285 -0.033799138 0.05527429 0.105530895
0002f0 c3 cd b8 bd 16 cb 71 bc 39 30 12 bd b8 51 5a 3d
       -0.09023621 -0.014757892 -0.03569052 0.05330059
000300 74 0d 5a 3a 4e 87 85 bd ed 54 d0 bc 0b 35 f2 bd
       0.0008318045 -0.06519948 -0.02543112 -0.118265234
000310 55 b8 3e 3d 06 ce 3e bd b3 d4 77 bb 94 6c 6b bd
       0.04656251 -0.046583198 -0.0037815988 -0.057476595
000320 d9 ec 96 3a 21 4f 1e bd 84 03 ed 3c 3f dd ae bb
       0.0011514678 -0.038649682 0.02893234 -0.005336433
000330 b3 55 00 be ce 3a 6f bc 68 87 c8 3c 0f d8 31 3d
       -0.12532692 -0.0146014225 0.02447863 0.04341894
000340 54 18 12 bd 59 2e ab 3c bc c6 e5 bd 76 07 5e 3d
       -0.035667732 0.020896124 -0.11219546 0.054206334
000350 bb f7 3f bd 46 cc b2 bd 3d 68 a4 bd 15 7f 1f bd
       -0.046867114 -0.08730368 -0.080276944 -0.038939554
000360 6a 10 dd 3c 59 ce c7 bd 38 4d 22 3c 24 46 e4 3c
       0.026985366 -0.097561546 0.009906106 0.027865477
000370 c2 c7 31 bd 1d 5a 16 be 60 76 aa 3d 82 41 66 3c
       -0.043403395 -0.14682813 0.083233595 0.014053704
000380 b4 27 b9 bd a1 34 9e 3d 0a df 39 bc 64 71 4a bc
       -0.09040776 0.07724882 -0.011344681 -0.012356136
000390 6a d2 f7 bc 8e af 13 3d a1 4e 19 bd 3b 3d a7 3d
       -0.0302517 0.036056094 -0.037428502 0.08165976
0003a0 e0 c6 de bc bf 4e 86 bd 27 80 25 ba ad 10 39 3d
       -0.02719444 -0.065579884 -0.00063133467 0.04518192
0003b0 5d 07 92 bb 0c 0f 26 be c8 4a 27 3e af 9d 65 3d
       -0.004456444 -0.16216677 0.1633712 0.056058582
0003c0 a0 d4 c5 bd f0 0a 84 bc 17 90 98 3d 6f 5c 2f bd
       -0.096596956 -0.016118497 0.07449358 -0.04281276
0003d0 0e fe 0b 3d f3 07 13 3d a2 ae 4d 3d 2d 59 9f bd
       0.034177832 0.035896253 0.05021537 -0.07780681
0003e0 eb 04 ac 3b 04 95 51 bd 5e 5e d2 bc a3 9c f9 bc
       0.0052496097 -0.051167503 -0.025679763 -0.030470198
0003f0 99 3f 4f bb 08 57 11 bc 1a d4 a0 3d 95 15 0c bd
       -0.00316236 -0.0088708475 0.07852955 -0.03420027
