models/lstm_50.pt (torch, 813411 bytes, 9 tensors)

lstm.weight_ih_l0 f4 [512, 8]
00000000: 871d 253e c891 193d 38e5 a13b f74a 61bd
00000010: 0e93 c9bc fa5c 87bd 983e 54bd 3b1a 8b3c
00000020: 7a6b 17bb e2fe 9dbc 8683 97bd 7b4b 4a3d
00000030: 5d2c 783d 5f50 a93d a616 bcbd 2220 803d
00000040: 15a1 c93d 7f38 b1bd fb7f 1f3c d0df 59bd
00000050: 9b27 1ebd 8b4d 84ba db5a 6ebc 5e51 013d
00000060: 0ca3 ccbc a0c7 933c 3202 1d3c b3a2 a73d
00000070: cc83 bc3d c7b9 293d 0a3c e43b 8a62 64bc
00000080: 84fe 7abd 4a38 3d3d 0ab7 dbbc 2c6d a9bb
00000090: c46c 353d 44f9 d03d a00a a53d 36df 9bbd
000000a0: b089 123d 2df4 9bbc 1dce 8a3c e16d 8dbd
000000b0: a902 49bd 3afd 3bbb 511f 0fbc 3860 dabc
000000c0: e909 3b3c 20ae ecbc 391d 42bd d20a 8e3d
000000d0: 0dd8 7f3d 7797 a1bd a6ed e0bd ba7b a8bd
000000e0: 9628 0f3e 7d6d 17bc e7a6 5b3d a240 623d
000000f0: 5a6a 5bbd c3f1 8a3c 21e0 003d 791d 503c
00000100: 50da 4e3d 6360 543d 9e44 7e3d 5387 72bd
00000110: 51cc 023e 3086 2bba e5de 8e3d 9fa1 9f3c
00000120: 43dd 833d c07f a73d e412 da3c 744a af3d
00000130: b2e1 8c3d 016e 033d ef81 843d 3f90 ad3c
00000140: 593f babc fe11 c23d 2cea 313d 0048 993d
00000150: 10b9 88bd 0230 6ab9 09ca 94ba cd34 79bd
00000160: e5d0 f93b 2e08 d4bd b8dc 423d 18d8 8c3d
00000170: 2be8 db3d 8e5d bb3d 5c65 283d 1798 ef3d
00000180: 3133 a93d e859 feba 1dcf d2bc 4118 99bc
00000190: a0ae 7abd 9c59 c3bd 4ef0 a0bc b191 24bd
000001a0: 190f 7d3c 26e5 033d 11bf fbbc 245b bd3d
000001b0: 07a3 083e 6585 fa3d bf33 893d 429d dc3d
000001c0: aa0c 5d3d 718f c03d deb1 54bd 268e d6bd
000001d0: c431 24bd 330f b93c 9427 35bd e172 8f3d
000001e0: 57c3 0a3e 43c0 483d 635c a0bd 687d 6fbd
000001f0: 0bff 78bd f57b 883d 863b 6bbd f00a 77bd
00000200: 4e0a 6ebe e364 bd3d a63f e43d c7bc a63d
00000210: 4496 96bd b21f 8bbd 6863 0e3e 7b68 cf3d
00000220: 66b3 4b3b 9fb9 913d e8ee a3bd 537b 09bd
00000230: 2ffb a0bc 1a88 a43d cfca 203d b187 7bbd
00000240: a8e4 c5bd ed3d 67bd 6579 dcbd 0b61 90bd
00000250: 637c b1ba dbb7 2dbc e0fc f0bd 7499 a2bd
00000260: db77 ab3c 2f9b a53d 64a8 c13c 844c f9bc
00000270: 1eda 163d 8533 153d aebb 45be 3bea a53c
00000280: fa47 523e 4106 18bd 78cc 623d cd82 9a3c
00000290: 6406 2ebd 1145 273d 6d63 97bd 87c1 fe3d
000002a0: 3f0d d83d f57c 473d e1b1 b9bd 1c46 8fbb
000002b0: 6eda a2bd 62a6 94bd 612d 13bd 2be5 f93c
000002c0: b610 eebc a115 cd3c c931 9bba 2cc4 983d
000002d0: 1294 963d f5b7 91bd 70d5 0d3d 5a81 b33d
000002e0: ef40 083e d15f 6d3d cf28 8abc cc78 ef3c
000002f0: ab96 a3bd c6d0 6abd bf29 863d f7e0 ae3d
00000300: 493e b03d 758e 30bd b597 9f3d f761 493d
00000310: f38c b4bd ca29 b1bd c753 cdba ffdb df3d
00000320: 097f 90bc f24c 4fbd 9e01 15bd 7c0d 733d
00000330: eafb 5fbd f4ba 893d a790 233d 3117 9c3d
00000340: 728b 0d3d 70eb 483d 096e 8f3d 592e 733c
00000350: 68d1 2237 b35b 313d 81db 803d 19f3 623d
00000360: 86b4 bfbd 6234 5cbc 5db5 40bd 9f19 02bd
00000370: f949 e33d c088 b33c aae8 84be 29ce 81bd
00000380: 79fa f8bc 1b86 c73c 7faa 29bc 6adf 03bd
00000390: 7bbf 243d 1392 553c 274b a63d 6ca0 40bd
000003a0: ff4e c33c e24b ba3d d373 30bd 4052 043d
000003b0: 4b92 a4bd 5098 99bd 742a a43c 6c5b b73c
000003c0: fa1c 953b 302c 57bd c3d8 8e3b 86d3 033d
000003d0: 4cd4 73bd a195 7a3d 20ba 1f3c b44a b9bd
000003e0: d4d5 40bd 8b96 a53c 838e d73b b603 1e3c
000003f0: f2bd 0c3d 39f6 84bd 5fe7 8b3d 6793 c1bd
0.16124545 0.037492543 0.004940655 -0.055003133 -0.024606254 -0.06609531 -0.051817507 0.016980281
-0.0023104833 -0.019286577 -0.07398133 0.04938839 0.060589183 0.08267283 -0.09184007 0.06256129
0.09845177 -0.08653354 0.009735103 -0.05319196 -0.03861199 -0.001009391 -0.014548029 0.03157174
-0.02498009 0.018039525 0.009583043 0.08185329 0.09204826 0.041436937 0.006965165 -0.013939509
-0.06127788 0.04619626 -0.026820678 -0.005170485 0.04429318 0.10203794 0.08058667 -0.076109335
0.03577584 -0.01903733 0.016943986 -0.06905723 -0.049074803 -0.002868487 -0.008735494 -0.026657209
0.011415937 -0.028891623 -0.04739115 0.069356576 0.0624619 -0.07890218 -0.10982828 -0.08226724
0.13980326 -0.009242413 0.053625967 0.05523742 -0.05356822 0.016960984 0.031463746 0.012702339
0.050501168 0.051849734 0.062077157 -0.059211086 0.12773253 -0.0006543128 0.069761075 0.019486247
0.06438687 0.08178663 0.026620336 0.08559123 0.068789855 0.03208733 0.06470095 0.021186946
-0.022735285 0.09476088 0.043436214 0.07484436 -0.06675923 -0.00022333863 -0.0011351715 -0.06084137
0.007623779 -0.10353123 0.047573775 0.06877154 0.10737642 0.091487035 0.04111229 0.11698931
0.08261717 -0.0019405456 -0.025733525 -0.018688323 -0.06120169 -0.09538576 -0.019645836 -0.040178005
0.015445494 0.032200955 -0.030730756 0.09245899 0.1334344 0.12232474 0.06699323 0.10772182
0.053967156 0.09402359 -0.05192744 -0.104763314 -0.040086523 0.022590255 -0.044227198 0.07004333
0.13551079 0.04901148 -0.07830121 -0.058469206 -0.060790103 0.06664268 -0.057429813 -0.060313165
-0.23246118 0.09247758 0.111449525 0.08141475 -0.0735288 -0.06793155 0.13905108 0.1012735
0.0031082272 0.071154825 -0.08004552 -0.033564877 -0.019651024 0.08033772 0.039255913 -0.061408702
-0.09662753 -0.05645554 -0.10765342 -0.070497595 -0.0013541098 -0.010602917 -0.11766982 -0.07939425
0.020931175 0.080862395 0.023639865 -0.030431993 0.036829107 0.036426086 -0.19309875 0.020253291
0.2053527 -0.03711534 0.055370778 0.018861199 -0.042486563 0.04083735 -0.07392011 0.12439256
0.105494015 0.048703153 -0.09067131 -0.0043723714 -0.079518184 -0.072582975 -0.03593195 0.030504784
-0.029060703 0.025034728 -0.0011840399 0.07459292 0.07352461 -0.07115165 0.034627378 0.08764906
0.1330602 0.057952706 -0.016865162 0.029232405 -0.07987722 -0.057328008 0.06550931 0.085390024
0.0860563 -0.043104608 0.07792608 0.049165692 -0.088159464 -0.08650549 -0.0015665226 0.10930633
-0.0176387 -0.05061049 -0.036378495 0.05933903 -0.054683603 0.067251116 0.039932873 0.07621611
0.034556814 0.049052656 0.070034094 0.014842593 9.704709e-06 0.04330034 0.06291867 0.055407617
-0.09360604 -0.013440223 -0.04704796 -0.031762715 0.110980935 0.021915793 -0.2595876 -0.0633815
-0.030392872 0.024355939 -0.010355591 -0.032195486 0.040221673 0.013035315 0.08119803 -0.04702799
0.02384138 0.09096505 -0.04307921 0.032305002 -0.08035716 -0.074997544 0.020039774 0.02238246
0.0045505734 -0.052532375 0.004359336 0.032184146 -0.059528634 0.061177853 0.0097489655 -0.090474516
-0.047078922 0.020213386 0.006578268 0.009644439 0.034360833 -0.06492276 0.0683124 -0.09451943

lstm.weight_hh_l0 f4 [512, 128]
00000000: 5a68 0d3a 6076 c43d 0887 be3d 05e2 373d
00000010: 233f 023e df2d e9bd df6b c23d 9b98 84bc
00000020: a6f6 dbbd a091 e83d 159e 193d c4da 4ebe
00000030: dc3f 8c3c d734 10be 3c9e c63c ed85 b23d
00000040: ac16 f03d d509 7abd 3d8f 8f3d 6e73 0a3e
00000050: 9f68 a0bc b741 333d a33f 28bd dbd7 133d
00000060: ffa3 46bd e97b d53c d693 f7bc 7502 af3d
00000070: 0e90 ad3d 5a91 3a3e d7f2 9abd 89a0 26be
00000080: 4299 763d cb25 8b3d bc86 e03d 8a2d 2e3d
00000090: 4863 a2bd 370f 0ebe 9434 63bd db95 98bd
000000a0: cd23 19b9 bdb9 06bd 967d 7d3d 4446 3fbe
000000b0: 2748 3f3e 2417 113e dcd0 a2bd dddd 8d3d
000000c0: c2d6 413d f869 dc3d d583 57bd b2f1 293d
000000d0: 8eeb 033b 162e d23c d024 bcbd 31e7 b53c
000000e0: 3e73 153e d548 893d 0800 05bc 661e 803d
000000f0: e704 363d a2ac 46bc 113c 293c 44ad 063d
00000100: 0867 1bbe 5cd3 123e c7d4 143e 935e 0c3e
00000110: 7f78 973d 5c26 2fbd c6ab 88bc b516 983d
00000120: f590 713c ac54 3bbd 6536 23be 43ec 753d
00000130: cef0 6dbd d657 f93c fb07 393e cbb0 39be
00000140: c4a8 8abd 6424 d73d 51d3 9ebc 8fe4 91bd
00000150: 1da9 9b3d 0016 3dbe ee28 003d e0f9 0a3d
00000160: aebe 0ebd 0e06 da3a e5f1 27be c995 7ebd
00000170: 2e7d 3d3d e925 ca3d ae48 a9bd 81c6 49bd
00000180: e7b5 48be 252b 03bb 2d88 053e 18f7 bfbd
00000190: ed0d cf3c e41e 333c 3e00 dabd 5d20 14bd
000001a0: a8e0 4ebd f46e 3bbb 3d2b b4bc 7fff 73bd
000001b0: 41c9 90bc e156 dcbd ad72 dabc 26d8 afbd
000001c0: 6c67 ddbd 5c24 edbc 64be d5bd dce1 54bc
000001d0: 86fa 103d 1011 093e aac6 b73b ac40 05be
000001e0: 0d01 d23d 8726 61bd 26a3 b33c 9e95 58bd
000001f0: f9fa 1d3d 6a07 74bd 1562 b63c d6f2 593d
00000200: b995 783b 9676 63bd 82cd 883d f000 6e3d
00000210: b51f 86bd 27e3 51bd 5ed2 f1bb da8b 553c
00000220: b88e 973c c3f3 55bd 5b24 743d 3971 b03c
00000230: 1985 66bd 4fbb 99bd a545 29bd f2c9 a7bd
00000240: 56ec 9cbd 847e 9ebd 903c a9bd 5d0e bebb
00000250: ae3c 9c3d f2a9 843d 353d 243d f135 68bc
00000260: 3ec1 45bc 05be 08bd d3a8 28bd ee7b 3cbc
00000270: 4434 8d3d 6bb4 9c3d b4e0 363b ea62 883c
00000280: 484c 1b3d b280 b93d 5b02 3f3d 68bf 913c
00000290: 523e 963d 98af 033c e22f 843c 29df cbbc
000002a0: d3a4 3abd a278 a53d da60 67bd 4ab2 d73c
000002b0: a307 703c a4fc 0dbd 6832 833d 75f2 b53d
000002c0: fc30 2bbd 0fb7 fdb9 f77a ea3b 796f 8a3c
000002d0: ed1e 2abd c39d 893d b3c5 b63b a3c9 3b3d
000002e0: 2428 483d 20b1 83bc d1a7 653d 8558 2a3d
000002f0: 2b1b 0ebd 5fc4 c73c 1481 6dbd 07a6 20bd
00000300: 2ee0 9ebd 60a9 0d3a 203a c03c 94e6 6a3d
00000310: cc80 67bc 410d b33d b663 1fbd b867 acbc
00000320: bb43 4e3d 7811 44bd c344 d33d 8576 bfbd
00000330: c41a 773d 256b db3c f1e7 64bd 80d1 8b3c
00000340: 84c0 cfbd 2a0d 303d a814 c43d 840b 72bd
00000350: 7860 b4bc 634c 863d 742f bc3b 5bf9 393d
00000360: b7ee 873c 75cc 34bd b54a 3bbc 9d50 39bc
00000370: 1c98 993d 3329 b83d 99e7 573d 482e c43b
00000380: 3517 613c 5b00 a33d 7c69 3a3c 319a 3e3d
00000390: dd1e 75bd 8b01 a0bd 6c46 753d fa8d 243d
000003a0: a9d2 1dbd 572d 3dbb 903b 5c3d bc61 2bbd
000003b0: 4701 96bd 1657 70bd 88bd 61bd 44fb e7ba
000003c0: f0cd 593d 5bf9 4ebd d06d b73c 68c9 243b
000003d0: 3927 bfbd ce5b 763c 5d75 7d3d f678 01bd
000003e0: 3dc8 b5bd 36ba 63bd 2c2f aa3d 912a 8eba
000003f0: 7c24 c7bc aaf6 993d f7d6 23bd e028 e4bb
0.0005394273 0.09592891 0.09303099 0.044893283 0.12719397 -0.11385702 0.09493231 -0.01618605
-0.10740404 0.11355901 0.037504274 -0.2020064 0.017120294 -0.14082657 0.024245374 0.087169506
0.11723074 -0.061044533 0.070097424 0.13520595 -0.019581137 0.043763842 -0.041076314 0.036094528
-0.048496243 0.026060062 -0.03022186 0.085453905 0.08474742 0.1821951 -0.07565849 -0.16272177
0.06020475 0.06794318 0.109631985 0.0425239 -0.07929093 -0.13872992 -0.055470064 -0.07450458
-0.00014604554 -0.032891978 0.061887346 -0.18679148 0.18679868 0.14168984 -0.07949993 0.06927083
0.04732395 0.107623994 -0.05261596 0.041490264 0.0020129415 0.025656741 -0.09186709 0.022204967
0.14594743 0.06703345 -0.008117683 0.06255798 0.04443827 -0.01212612 0.010329262 0.032880083
-0.15176022 0.1433844 0.14534293 0.13707952 0.0739603 -0.04276119 -0.01668347 0.07426206
0.014744033 -0.045735046 -0.15938719 0.06003977 -0.058090977 0.030437391 0.1806945 -0.18133847
-0.06770471 0.10504988 -0.019387873 -0.07123672 0.07600615 -0.18465424 0.031289034 0.033929706
-0.034849815 0.0016633885 -0.16400869 -0.062154565 0.04626196 0.09870512 -0.08265816 -0.049261574
-0.1960064 -0.002001473 0.13040228 -0.09373301 0.025275195 0.010932658 -0.106445774 -0.036163677
-0.050507218 -0.0028600069 -0.021993274 -0.059569832 -0.01767409 -0.10758758 -0.02666601 -0.08586149
-0.10810742 -0.028948002 -0.10436705 -0.012993302 0.035395168 0.13385415 0.0056083994 -0.13012952
0.10254107 -0.054968383 0.021928381 -0.05287706 0.038569424 -0.059577383 0.022263566 0.053210102
0.0037931039 -0.055533014 0.066798225 0.058106363 -0.065490164 -0.05124202 -0.007379814 0.0130338315
0.01850067 -0.052234422 0.059604984 0.021538364 -0.056279276 -0.075064294 -0.041326184 -0.08192815
-0.07662265 -0.07738975 -0.082635045 -0.005800052 0.07628761 0.06477727 0.040097434 -0.014173017
-0.012069998 -0.03338434 -0.04117663 -0.0115041565 0.068947345 0.076515995 0.002790493 0.016648728
0.037914544 0.0905775 0.046633106 0.017791465 0.073361054 0.00803747 0.016136114 -0.024886684
-0.045567345 0.080796495 -0.05648885 0.026330132 0.014650258 -0.034664765 0.064060986 0.08884136
-0.041794762 -0.0004839231 0.007155772 0.016898857 -0.0415334 0.06719544 0.005577767 0.045846593
0.048866406 -0.01607567 0.056068245 0.041588325 -0.03469388 0.02438563 -0.057984427 -0.039220836
-0.07757603 0.0005403962 0.023465216 0.057348803 -0.014129829 0.08742762 -0.03891345 -0.02104555
0.05035756 -0.047868222 0.1031585 -0.09348778 0.06032826 0.026784489 -0.05588526 0.01706767
-0.10144141 0.042981304 0.09574252 -0.059093013 -0.022018656 0.06557538 0.0057429615 0.04540382
0.01659332 -0.044140298 -0.011431386 -0.011310724 0.07499716 0.08992233 0.052711103 0.0059869625
0.013738443 0.07959052 0.0113776885 0.046533767 -0.059843887 -0.07812794 0.059881613 0.040174462
-0.03853098 -0.0028866136 0.05376774 -0.041841254 -0.073244624 -0.0586768 -0.05511239 -0.0017698784
0.053174913 -0.050530773 0.02239123 0.0025144462 -0.09333653 0.015036536 0.061879504 -0.031609498
-0.08876083 -0.055597506 0.083097786 -0.0010846426 -0.02430939 0.075177506 -0.03999993 -0.0069628805

lstm.bias_ih_l0 f4 [512]
00000000: d728 f63c 7a06 073d fa87 b23c b742 40bb
00000010: 7f28 c83c 64b5 33bd 9bfe af3b dd71 53bd
00000020: 38e0 f43d 72fe cd3c 3aa8 96bc 2250 2b3b
00000030: 3061 2ebd a6f4 963c 2c9e 133c 6e91 9cbd
00000040: cae1 053d c821 7f3d 68e2 2fbd 658b a8bd
00000050: 42af 873d 5ab2 b03d a133 4d3d c4c0 963d
00000060: 6cb8 79bc fe84 04bd e49a 95bd 5680 b8bd
00000070: 65de 883c 6f58 94bd 72f6 99bb 055a 903d
00000080: 69dd 38bd a1b0 6b3c c41d 7e3d f10b 333e
00000090: e017 80bd 70ac 65bc cf6c 363d f592 92bc
000000a0: 69ed 823d fb19 e83d 863e 85bd 71e0 3e3c
000000b0: d9b9 293d 7c2c 23bd d5ec 96bc 734d 9b3d
000000c0: 7cfd a4bd 4440 c53d 814d d23a 4df1 a5bd
000000d0: 70ca 7ebd 89e2 723d be2b f2bb 118a 50bd
000000e0: 2e55 ce3d f767 b03c 87fc 6dbc 6a77 623d
000000f0: d94f 053d e1f6 7ebd bc11 363d 5d2f 8d3d
00000100: 83ea dcbc c98a 833d bfba 9c3d 7365 e2bc
00000110: a122 24bd 13b0 d1bc 7c4a a1bd 5678 3d3d
00000120: d2ca 81bd 85ae 0e3d a0ef 603d e6f6 363e
00000130: 327a 88bd 68ca ba3c 3949 f7bc 2483 4abd
00000140: 7d47 b83d b275 dbbc 6ad7 863d ec7e 183d
00000150: 3dae c8bb f6f5 bb3d 024b f8bc 911a 0a3d
00000160: 046d b3bd ff18 87bc 92ea 6cbd 936c 3cbd
00000170: 3b86 6b3d f3c2 2ebd 7ea1 f03c 74e3 373d
00000180: b2ff afbd d501 d83c 9939 f33d 8c66 a93b
00000190: 0377 38bd 7405 d73c e6e9 4fbd ac6c c03d
000001a0: 3749 c93d 3e9b 68bc 09a7 aebd e117 f1bc
000001b0: 9bc0 b63d 9402 2dbd c5e0 89bd 1d59 793c
000001c0: 9512 683d d6f7 ab3d 408c a43d 24ce 35bd
000001d0: b92a 3abd 1b75 4cbc 0540 62bd bbaf 9fbd
000001e0: 6251 253c bf42 803d 0cea ad3c 5f07 9a3c
000001f0: 47c7 82bd ed65 91bc 0b34 833d 7003 31bd
00000200: 4ccf 143e 32f2 843d d45f 60bd b71b 923d
00000210: 0fb0 6c3d 7664 223d cc3a 7b3d d785 3fbd
00000220: cba5 eb3d ab64 903d 0b2a 8c3c de35 cb3d
00000230: 381f a0bb 5dc2 123e 5d7e de3c 7ef5 0b3d
00000240: ff1b 3ebd 3f5e 4d3d dd93 8c3d 2e73 85bd
00000250: a14a d13d 2d8c 3e3d fdf4 aa3d de7b bd3b
00000260: 1627 a53d 03fd 96bc e9b4 10bd 081c b23d
00000270: d93c 53bd 8f9d 1abd bb85 c63d dd85 98bd
00000280: 3eff 0abd e6a4 d63d 8132 993d 9189 1d3d
00000290: 71e2 adbc e5bb 203d adfc 5b3d 097b 01bd
000002a0: 02fb a33c 3f85 983d 3713 3f3c 2b8d cb3d
000002b0: 7dac 38bd 4079 4fbc 63ed bc3d 4254 8c3d
000002c0: 51e6 693d 0014 bf3c d1d6 ecbb bf01 853d
000002d0: f5e0 8d3d 9239 34bd eac1 b03d 91e9 28bd
000002e0: 0c81 2d3d c3ef 8a3d 8c08 ac3d de04 dfbc
000002f0: 0ec4 93bd 5f0a 843d 599d 933d 841f 983b
00000300: e7ef bb3d 5fe8 1a3d 168b 7d3d cad7 5e3d
00000310: cf73 003e 60e4 d1bb 8367 b03d 0321 02bd
00000320: f16e 2dbc 8be3 48bd 13d6 95bc 9cc8 e63d
00000330: eb9d b0bd be4b b83d d779 8bbd dc31 683d
00000340: 33cf 943d 1abd 2e3d 2e85 67bc 2b0f 4fbd
00000350: 3257 713d 5441 103e 2cb2 f6bc 7a0e 0c3b
00000360: 151a 35bd 546b 5f3d 0299 6abc 87a1 cc3d
00000370: 60a1 5b3d 410f aa3d e084 0fbc 7075 06bd
00000380: 551b 493c 04ee d23d 3bff d83d 0010 adbc
00000390: f4b3 a53c 34e0 92bd b0a8 2bbd 8d9d a73c
000003a0: 32f0 ef3d 2ab2 273d 16e2 98bd 3f29 a5bd
000003b0: c736 9bbd 1ab4 f73c f94b dd3b bc6a 493d
000003c0: 62e9 d83d 3cb6 ab3d 16e1 20bd b025 11bb
000003d0: a0c4 fbbc 4000 5b3d 1e3b 84bc 9147 b53d
000003e0: 82ca ba3d 8fa9 603c 56ee 533d 0cbe fcbc
000003f0: 46ba c1bd 1eea 91bd bd20 753d b016 5f3d
0.03004877 0.03296516 0.021793354 -0.002933664 0.024433373 -0.04387416 0.0053709275 -0.05162226
0.11956829 0.025145743 -0.018390764 0.0026140292 -0.042573154 0.018427204 0.009009879 -0.07644926
0.032686032 0.062288076 -0.042940527 -0.082297124 0.06625225 0.08627768 0.050098065 0.07360986
-0.0152417235 -0.032353394 -0.07304934 -0.09008853 0.016707608 -0.0724343 -0.004698568 0.0704842
-0.04513303 0.014385373 0.062040105 0.17485024 -0.06254554 -0.014018163 0.04453736 -0.01789234
0.06392939 0.113330804 -0.06506066 0.011650191 0.041437004 -0.039837345 -0.018423477 0.07583132
-0.08056161 0.09631398 0.0016044826 -0.08102665 -0.06220478 0.059298072 -0.0073904684 -0.05091292
0.100748405 0.02153395 -0.014525539 0.055289663 0.03254685 -0.06224716 0.044450507 0.068937995
-0.026967293 0.064229555 0.076528065 -0.027636265 -0.040072087 -0.025596654 -0.07875535 0.04625734
-0.06337513 0.034834404 0.054916024 0.17867622 -0.06663932 0.022801593 -0.030186282 -0.04944147
0.0899801 -0.02678952 0.06584056 0.037230417 -0.0061242864 0.09177773 -0.030309204 0.033716742
-0.087610275 -0.016491411 -0.05784089 -0.046001982 0.05750106 -0.042666387 0.02937388 0.04489465
-0.08593692 0.026368061 0.1187622 0.0051696952 -0.045035373 0.026247717 -0.050760172 0.093957275
0.09828418 -0.014197169 -0.08527953 -0.029430332 0.08923455 -0.042238787 -0.067323245 0.015219
0.056658346 0.0839688 0.08034563 -0.044386044 -0.0454509 -0.012479092 -0.055236835 -0.0779719
0.010090204 0.06262731 0.021229766 0.018802343 -0.063856654 -0.017748797 0.06406411 -0.04321617
0.14532202 0.064915076 -0.05477889 0.071341924 0.05778509 0.03964659 0.06133537 -0.0467585
0.11506232 0.07050451 0.017109891 0.09922384 -0.004886534 0.14331956 0.027159864 0.034169666
-0.046413418 0.05013871 0.0686414 -0.065161094 0.102193125 0.0465204 0.08347509 0.0057825884
0.08064096 -0.018431192 -0.03532878 0.08696753 -0.0515717 -0.037747916 0.09693476 -0.074474074
-0.033934824 0.10480671 0.07480336 0.03846127 -0.02122614 0.03924169 0.053707767 -0.031611476
0.02001715 0.0744729 0.011662296 0.09939035 -0.045086373 -0.012663186 0.092249654 0.068520084
0.057104412 0.023324966 -0.0072277565 0.06494474 0.06927673 -0.044000216 0.08630736 -0.04123837
0.042359397 0.06784012 0.08400068 -0.027224 -0.07215129 0.06447291 0.07207746 0.004642429
0.09176617 0.037819263 0.06190022 0.05440501 0.12544177 -0.0064053982 0.08613493 -0.031769764
-0.0105855325 -0.049045127 -0.018290555 0.11268732 -0.086238705 0.08998822 -0.068103485 0.056688175
0.072660826 0.04266081 -0.014130874 -0.050551575 0.058921047 0.1408742 -0.030114256 0.0021370933
-0.044214327 0.054545715 -0.0143187065 0.099917464 0.053620696 0.08303691 -0.008759707 -0.03282684
0.012274583 0.10299304 0.10595556 -0.021125793 0.02022741 -0.071716696 -0.04190892 0.020460868
0.117157355 0.040941395 -0.074649975 -0.08064508 -0.07578807 0.030237246 0.0067534414 0.049174055
0.10591389 0.08384368 -0.03927716 -0.0022147708 -0.030733407 0.053467035 -0.01614147 0.08851541
0.091206565 0.013712301 0.051740967 -0.03085234 -0.09459357 -0.071247324 0.059845675 0.054464996

lstm.bias_hh_l0 f4 [512]
00000000: e569 01bd b85f 523d 9698 66bc 7898 52bc
00000010: e384 23bd cba1 78bd 9687 823d 6379 cfb8
00000020: 2287 0dbd 8c0e 05bd f630 36bd aa99 51bd
00000030: 5b17 793d 928f f4bb b3c1 233c 9426 3a3c
00000040: 9e00 3b3d 1644 9fbd e459 17bc dc20 8f3d
00000050: 3bfb d13c f1a7 72bd 9119 073d 6f19 8cbb
00000060: ce91 a0bd 53d6 9e3a 5477 19bd 8e0f 453d
00000070: f453 d13d 014b b8bd a216 fdbb 7212 5abd
00000080: 595a 20bd 1d27 e93d 9b65 893d 95ba 4a3c
00000090: b1b7 05bb c545 1a3d ea45 df3c e393 ae3d
000000a0: c946 9bbd e4b8 9e3d 77ac 093c 771c 913d
000000b0: 6a46 443d bcb4 a03d 159a 173d 7227 01bc
000000c0: 08a7 34bd 23f5 f2bc 8aa3 ba3d da77 5ebd
000000d0: e32c 703d c98a 553d 8f9f 53bb f6dc 91bd
000000e0: a90f 2c3d 66f7 8c3d 9c2c c43d 97d8 74bd
000000f0: 553f e73c 2fa1 c93d c7b6 2d3d b331 9dbd
00000100: beb7 2b3c 7235 f83b abf5 1bbd 94f0 22bd
00000110: 654a 033e 9468 0ebd e460 48bd 0cb9 453d
00000120: 2562 9e3d d630 ba3d fd7b d83c 2b45 e13d
00000130: 386b 143d 3cb2 973d 161b bc3c 43f4 343d
00000140: 8009 7b3c 883a 903d 86b1 873d a4d8 b83d
00000150: b063 03bd 239c f23c a9ef 82bd faa3 803d
00000160: 79db c7bd 9bfb 16bd 1a67 92bc 1c90 eabb
00000170: 5833 edbc f7c0 14bd e9fa fdbb 2e61 953d
00000180: d627 17bd 5f3e c53d d0af c33c 1baf 903c
00000190: d261 743d f310 8b3d ed17 7a3d 773a d53d
000001a0: ece5 c23d a92f a13c 508d 113d 9742 a03d
000001b0: b5fb cf3b be6d c73d 01c2 023d 8bd2 7a3c
000001c0: 8612 cf3d 2157 0cbc 6959 76bc 32c5 7c3c
000001d0: 74f4 773d 2a89 c63d 2501 a93c f07c 5fbb
000001e0: 5fb5 953d 2634 aa3d 449a a23d c947 9a3c
000001f0: e1c8 06bd 5085 48bd c031 193d 97a5 683d
00000200: 4509 073e b2a5 8b3d 016a 4a3d e952 8abd
00000210: 2a60 76bd 70a1 80bd e76a 913d 2000 253d
00000220: 57fa 093e 3124 913d ae90 d03d 2b45 d2bc
00000230: dd9c 8abd b727 083e 2f76 8f3c abd6 0c3d
00000240: ce62 353d a4b5 46bd a07b 9f3d 89c0 193c
00000250: 24b4 ed3d 8991 9a3b 50d0 9e3b 2dab c23b
00000260: f175 fabc a058 873d 43ca 953d 7eb5 ed3d
00000270: 5ea9 79bd eefd 1a3d a07a 08bd 0a67 543c
00000280: c754 ca3d 96fb da3c ee0c 013b 955a ddbc
00000290: bbed 503d 8d57 e13d 87f7 073d b39d c2bc
000002a0: 865e 5dbd 0fcc 263e e45b 8bbc 5b34 813c
000002b0: ba99 583d dd43 f2bc be7a c93d 809b f53b
000002c0: a9c9 20bd 8b50 b63d f22e 963d 32dd 0b3d
000002d0: 8b73 753d 152b 44bc a138 033d 3ce5 93bd
000002e0: 2c19 d53d 52e7 e93c ea29 b43d f212 923d
000002f0: 578b 31bd 11ed 9a3d ed63 953d 75b3 473d
00000300: aaad bf3d 39fd dd3d b494 a23d 335e b83d
00000310: 338f dfbc f709 5a3d 72cf ef3d a2c6 85bd
00000320: cdac 643c c70e c9bb 0c53 593c 70c6 3abd
00000330: e1cc 67bd 384a 223d 6e9b f7bc ff1d 8bbc
00000340: 205a 863d e955 b2bd 7ea1 d0bc 75fb a23d
00000350: 3ada f4bc 5359 383d 864b cdbc e37b bf3d
00000360: 2510 e33c 3ba7 593d 4d68 c23c c658 d23c
00000370: 348d 5fbd 0b9a 96bd 72de 9e3d d232 8f3d
00000380: b628 45bd cac0 813d 2f14 3a3d 9bf5 7b3d
00000390: 625b de3c 5681 46bd 9149 c83b 32ed f23d
000003a0: b240 893a 8d8c 453d 9e70 f5b9 0e4b 2bbc
000003b0: 6283 7abd 73c1 fabc 28c4 febb ce02 a83d
000003c0: b466 f73d 60d1 c83c d4c0 8dbc ee0f 71bd
000003d0: 8d5d 14bb 56e8 783d d833 a73d 3686 903d
000003e0: 67ee b93d f679 533b f3a3 7c3d b3ab 023e
000003f0: a080 d53c bea5 823c ea63 273c 09a6 a73d
-0.03159513 0.051360816 -0.014074465 -0.012853734 -0.039921653 -0.060701173 0.06373517 -9.893139e-05
-0.0345527 -0.032484576 -0.044480287 -0.051171936 0.06081329 -0.007463404 0.009994912 0.011361737
0.045654885 -0.07776658 -0.00923774 0.06988689 0.025632491 -0.059242193 0.032983366 -0.004275493
-0.0784031 0.0012118317 -0.037467316 0.048110537 0.10221091 -0.08998681 -0.0077236453 -0.053240247
-0.039148662 0.113844134 0.06708833 0.012373586 -0.0020403678 0.037664194 0.027255017 0.08524301
-0.075818606 0.07750109 0.008402935 0.07085507 0.047918715 0.07846972 0.03701218 -0.00788294
-0.044104606 -0.029657906 0.09113224 -0.054313518 0.058636557 0.05213431 -0.003229115 -0.07122223
0.042007122 0.06883125 0.09578821 -0.05977687 0.028228441 0.098451965 0.04241064 -0.07675495
0.010480819 0.0075747306 -0.038076084 -0.039780214 0.12821348 -0.034767702 -0.048920527 0.048272178
0.07733563 0.09091346 0.02642631 0.10999521 0.036235064 0.074070424 0.022962134 0.04417826
0.015322089 0.07042414 0.06625657 0.09025696 -0.03207749 0.029615467 -0.06393368 0.06281276
-0.09758658 -0.036861043 -0.017871428 -0.0071582925 -0.028955147 -0.036316838 -0.007750858 0.07293926
-0.036903225 0.09631037 0.023887545 0.017661622 0.0596636 0.06790342 0.061057974 0.10411542
0.0951651 0.019676046 0.035535157 0.07825201 0.0063471445 0.097377285 0.031923298 0.015308986
0.10110955 -0.008565695 -0.0150359655 0.015427874 0.060535863 0.09694131 0.020630429 -0.0034101568
0.073099844 0.08310728 0.0793958 0.018833058 -0.032906417 -0.04895526 0.03740096 0.056798544
0.1318713 0.06818713 0.0494175 -0.06754095 -0.060150303 -0.06280792 0.07100468 0.040283322
0.13474403 0.07086981 0.101838455 -0.025667747 -0.067682005 0.132964 0.017512409 0.03438441
0.04428368 -0.04851307 0.077872515 0.009384283 0.11606625 0.004717056 0.00484661 0.005940816
-0.030573817 0.06608701 0.07313969 0.116068825 -0.060952537 0.037839822 -0.03332007 0.01296402
0.09879451 0.026731294 0.0019691545 -0.027020732 0.051007967 0.11003027 0.033195045 -0.023756837
-0.054045223 0.1628878 -0.01701159 0.015772035 0.05288098 -0.029573375 0.09837864 0.0074953437
-0.039254818 0.08902081 0.07333173 0.034146495 0.059924643 -0.011973162 0.032036427 -0.07221457
0.10405192 0.028552685 0.08797057 0.0713252 -0.043345775 0.07564748 0.0729445 0.048755128
0.09359296 0.10839314 0.07938519 0.09002342 -0.027289962 0.05323216 0.11709489 -0.06532027
0.013957215 -0.006135795 0.013264429 -0.0455994 -0.056591872 0.03962156 -0.030225482 -0.016982077
0.06560159 -0.08707792 -0.02546763 0.07958118 -0.029889215 0.04500706 -0.025060426 0.093498014
0.02771766 0.053138 0.023731375 0.025677096 -0.05457802 -0.073536 0.07757272 0.06992115
-0.048134528 0.063356 0.045429405 0.061513525 0.027143184 -0.048463188 0.0061122854 0.11861648
0.0010471551 0.048229743 -0.00046813948 -0.010454906 -0.061160453 -0.030609822 -0.0077748485 0.0820366
0.12080136 0.0245139 -0.017303862 -0.058853082 -0.0022638768 0.060768448 0.08164185 0.07056849
0.09078675 0.003226874 0.06167979 0.1276081 0.02606231 0.015948173 0.010216692 0.081859656

lstm.weight_ih_l1 f4 [512, 128]
00000000: 24e6 db3d 18f9 04bd 97d5 2cbd 233d 57bd
00000010: c837 36bd 5227 a2bd da20 01bb c374 d0bd
00000020: 00f1 97bd 792f 13bd b54a ac3a d8c6 c9bd
00000030: 7fa4 d53c 46eb c5bd 9e9c f43c bc29 40bd
00000040: 569e 56bd d625 2a3c 31c2 aebd aea1 09bc
00000050: c7b0 623d 3c18 113d a356 5abd b15f 36bd
00000060: 617e 8abd 3972 acbc 2de2 823d fc03 53bd
00000070: ffc1 8abb fe27 7b3d 5b13 603d 397d 9abc
00000080: 5a04 0bbc e61f 833c fb60 b43d 2106 d4bc
00000090: b55e 9fbd a9ae 303b 43b7 333d 87ac 983d
000000a0: 2019 8dbc 6975 25bd 76d6 2a3d 4da9 bbbd
000000b0: 3497 7d3d a3e6 33bc c5ef 003d 16c7 843d
000000c0: 358c 4a3d 762e b33d 830c 233d f6ea a5bd
000000d0: 8e56 e93c 5e76 6cbc 08cc abbd 6506 bebd
000000e0: c948 da3c ab28 be3b e7f7 4fbc c8d8 69bd
000000f0: 2ee9 c73c ac94 a63d 38e6 75bd bdfa 7d3d
00000100: 1fb3 803d c08d 9bbb c0c9 24bd 3dae 813d
00000110: 4857 a23d 4459 bf3c 3a5b 39bd 1631 6fbd
00000120: bfb5 6438 3d17 a8bd 4d63 763d 8fd0 3a3d
00000130: 78fc 47bc 9516 8f3d 0050 873c 1eda c93c
00000140: cf78 523c a77f c03d df19 30bd 5848 19bc
00000150: 53e9 a13c c327 0e3c 0d5b 3e3c 7b13 033d
00000160: 25c1 c03d c2fe 823d 1fbe b73d 4679 383d
00000170: da8b 0fbd f36a 743d 4bd1 9fbd a3cc 4a3d
00000180: 2f49 8abd 9544 aebd 2387 613d faaa 5f3d
00000190: e82b 503d 1d6e 3e3c d585 9d3d 0ada 8b3b
000001a0: 244e 03bd 204f 74bd e922 ffbc c7f6 b7bd
000001b0: fcc7 a3bd 5043 5b3d b3ac 9dbd 4cf6 5e3d
000001c0: 5bf8 693d f860 cb3c 5f70 5ebb 45a7 44bb
000001d0: ba8f db3c fef4 f9bc d43a 363d 0756 123d
000001e0: 384c a13c ba2f 14bc bbfb a63d 8387 ecbc
000001f0: 70ca 113d dc68 8d3d bfb2 3b3d 6fb8 3cbc
00000200: 8562 89bd ff75 babd 3f28 943d e068 463d
00000210: b3c1 19bd e82d ecbc 5ade 933d fbe3 6abd
00000220: dd26 f9bd 0e01 943c 0db1 d83c ddfd d73d
00000230: 53d1 ab3d 34f8 47bd 4842 8abc 9915 b3bd
00000240: 472c 5abd b7e4 1bbd 93b4 2e3d 25d0 acbd
00000250: 8cc1 373d e17d 133b df32 92bc 8334 bbba
00000260: 1b95 3d3d 751b 403d 6be4 e5bd 8acd 283d
00000270: 044e 123c c83d 03bd e2e0 f8bb 28f2 1a3b
00000280: 1167 53b8 d4c4 f3bb 2c79 e6bc 0a57 afbc
00000290: ffc7 283d 015e 5f3d 212f f139 ae52 923d
000002a0: 89ff 40bb f416 013d 85d8 9e3d eee5 563d
000002b0: 81b8 5b3d f3f5 89bd 9513 dcbd 4ea3 46bd
000002c0: 2a0c 93bd 5a80 913c 868f 2f3d dca5 143d
000002d0: 830d 64bd 9507 20bc 7073 973d 0fbe 983d
000002e0: b39b b4bc d043 1abd 8bba 253c 9f53 82bc
000002f0: e030 94bd cbb7 3b3d ac77 563d bea0 5c3d
00000300: 5c15 033a 77fe b43d 39f7 01bd 886d 8e3d
00000310: 59e9 e03c 5688 9e3d cbd4 953d 6aa9 873d
00000320: 5171 91bd 54be c83d 9858 a0bc 2585 3cbb
00000330: 16b3 ba3c d3d3 643d a474 b43d c5cb 483d
00000340: 20e2 80bd 58ce d2bb 89dd a83b b06f febc
00000350: 80bd aabc a29a afbc 454e 5ebd a69a d1bd
00000360: b9a9 163d 9494 c23c cdb6 a7bc c1cb 823d
00000370: d5b4 22bd 2884 33bd 7619 913d 938d 9d3d
00000380: 49ff 073b b245 88bb e6db 883d 7557 973d
00000390: 79a0 a0bb 51a4 123d 7861 5d3d 1cde 96bd
000003a0: 3064 673d e933 353d cade 8e3d f875 5c3c
000003b0: 0b22 44bd 15b3 9dbd 774b 3ebd 8598 50bd
000003c0: e47a a13c 549d bc3d 10fa abbd a511 82bc
000003d0: fc52 b1bc 0b9b 80bc d55d dc3c d4fa e93c
000003e0: 9224 223d 5c42 95bd f05a b5bc f860 fe3b
000003f0: 18d4 bcbd 6782 183d 52b7 feba e5c1 9e3d
0.10737255 -0.032464117 -0.042195883 -0.05254854 -0.04448679 -0.07917656 -0.001970342 -0.101785205
-0.07419014 -0.035933945 0.0013144823 -0.098523796 0.026079414 -0.096640155 0.029859837 -0.0469148
-0.052397095 0.010384997 -0.08533133 -0.008400364 0.05534437 0.035423502 -0.05330528 -0.044524852
-0.06762386 -0.02105056 0.06390796 -0.05151747 -0.004234552 0.061317436 0.05470596 -0.018858539
-0.008484924 0.016006421 0.0880756 -0.025881829 -0.07781736 0.0026959574 0.043875944 0.07454782
-0.017223895 -0.040395174 0.041708432 -0.09163151 0.061911777 -0.010980281 0.031478662 0.06483285
0.049450118 0.08749096 0.039806854 -0.08101456 0.028483655 -0.014432518 -0.08388525 -0.092785634
0.026646035 0.005803188 -0.012693382 -0.057091504 0.02440318 0.08133826 -0.060034007 0.0620067
0.06284165 -0.0047471225 -0.040231466 0.063320614 0.07926804 0.023357995 -0.045253016 -0.05839642
5.45287e-05 -0.08207557 0.060153294 0.045609053 -0.012206189 0.06986729 0.01651764 0.02464014
0.012846186 0.09399348 -0.042993423 -0.009355627 0.019764578 0.008676472 0.011618388 0.032001
0.094118394 0.063962474 0.089718096 0.04503753 -0.035045482 0.059672307 -0.07803591 0.049511563
-0.0675224 -0.08509175 0.055060517 0.054606415 0.050823122 0.011622933 0.07691542 0.0042679356
-0.032056943 -0.059645772 -0.031144576 -0.08982616 -0.07997128 0.05353099 -0.076989554 0.054434106
0.057121616 0.024826512 -0.003394149 -0.0030006927 0.026801933 -0.03051233 0.044489697 0.035726573
0.019689664 -0.009044582 0.081534825 -0.02887321 0.03559345 0.06904766 0.045824762 -0.011518582
-0.06708244 -0.09104537 0.07234239 0.04843986 -0.03753824 -0.028830484 0.072201446 -0.057346325
-0.12165616 0.01806691 0.026451612 0.105464675 0.08389535 -0.04882069 -0.016877308 -0.08744354
-0.053264882 -0.038059916 0.042652678 -0.08438138 0.044862315 0.002250545 -0.017846523 -0.0014282617
0.046284776 0.046901185 -0.11225208 0.041211642 0.008929733 -0.03204134 -0.0075951675 0.0023642872
-5.040231e-05 -0.007439235 -0.028133951 -0.021403808 0.041206356 0.05453301 0.00046002216 0.07144676
-0.0029449186 0.03151603 0.077561416 0.05246537 0.053642754 -0.06736364 -0.107459225 -0.048495583
-0.071800545 0.017761398 0.042861484 0.03629099 -0.05567695 -0.009767433 0.07395065 0.07458126
-0.0220469 -0.037662327 0.010115276 -0.015909014 -0.07235885 0.045829576 0.05236022 0.053864233
0.0005000436 0.08837598 -0.03172991 0.06954485 0.027455019 0.07740848 0.07315978 0.0662411
-0.071016915 0.09801927 -0.019573495 -0.0028765884 0.022790473 0.055866074 0.0881131 0.049022455
-0.0629313 -0.0064332895 0.005153362 -0.031059116 -0.020842314 -0.02143604 -0.054273862 -0.10234575
0.036782954 0.023752488 -0.020472908 0.06386519 -0.039723236 -0.043827206 0.070849344 0.07693019
0.0020751527 -0.004158699 0.06682567 0.07389728 -0.0049019423 0.035801236 0.05404803 -0.07366583
0.05649203 0.04423896 0.069760874 0.01345586 -0.04788403 -0.07700173 -0.046458688 -0.050926704
0.01971192 0.092096955 -0.08397305 -0.015877554 -0.021646015 -0.01569893 0.026900211 0.028561987
0.039585657 -0.07288048 -0.022138089 0.0077630244 -0.09220141 0.037233736 -0.0019433296 0.07751826

lstm.weight_hh_l1 f4 [512, 128]
00000000: a5d4 843d 2954 0d3d 4974 483b 6e69 393d
00000010: b7ed 03bc 6d3c 853d d578 ee3c fb23 093d
00000020: c8fa a5bc dac3 8e3d a07c e03c 9f8f 8cb9
00000030: 100c 97bd c870 b2bc 23b8 66bc 50e0 413d
00000040: ccc7 27bd b0c3 153d cdc5 133d 24ce c7bd
00000050: 9ce3 b13c 20ab 1cbd f5bf b63d 3d78 44bd
00000060: f200 04bd 41ab 92bd f221 36bd 97a7 703a
00000070: 8b79 05bd 8aed 92bc fe97 d3bc 5799 95bd
00000080: 7738 9fbd 05c9 eabd b5ef 6b3d d56d 76bd
00000090: d0e5 7b3c d160 6a3d 76b7 21bd 5a9a 61bd
000000a0: efaa 063d f82f 653d 1049 68bc 175e 6fbd
000000b0: 53ca a03d d769 a7bc 54b4 193d ef91 91bd
000000c0: 9802 72bd 7a9d 253d bfba 513d fe77 a73d
000000d0: 785c 863d 449b 9d3d abba 563b f6a7 4cbd
000000e0: 876b 623c da21 0f3d de0b ca3c 8bde de3c
000000f0: 779d 85bd e179 a2bd 5782 49bd 29f1 923d
00000100: 214a f23c 98ae 193d 67be 51bd f1dc 12bd
00000110: 6f72 64bd 277c 833d a075 d2bc a75f a73c
00000120: 1c11 dcbc a34d d23c bd46 cc3c b5d2 cbbd
00000130: 4538 f2bc 1dd7 283d f28d f3bc 29f9 923c
00000140: 418f 59bd ff6c 59bd 5904 adbd 6065 433d
00000150: 9ee5 973d fff3 8d3d 0a13 a8bd 6b10 cabc
00000160: 6e94 a43d 665f 0ebc 9c5e 9d3d e6f0 02bd
00000170: fa4d 7bbc 42d5 4bbd 847f c93d 9c68 8cbd
00000180: 95dc 5c3c 8721 57bd ac21 40bd 24ec 3fbd
00000190: 65ae 793d dc20 7c3d b6f5 2abc 87ea cebc
000001a0: 4258 0dbd 56d4 34bc 9a57 073d f213 a2bd
000001b0: 56db 1e3d 61aa 463d 2c93 9a3d 47ba fb3c
000001c0: 667c 3fbc 33bf 4ebd b62f d03b 69f2 2ebd
000001d0: 0e0d aabd 6066 173d c63e 58bb c049 29bd
000001e0: e3ca c13a 3b72 8f3d 9fda 41bd 4fc8 2a3d
000001f0: 03b5 6139 63be 34bd 0688 75bd dbba c23d
00000200: e39f 74bd e06f 4f3c 5dcd babd 8c7a 393c
00000210: e421 e83c 19ff e0bc 0374 0abd d0b0 bbbc
00000220: 515d 543d 86c5 a2bd b9fc 1f3c 83d1 a6bc
00000230: ae7d 63bd f1a7 a73d bfeb 773d 5abd b4bc
00000240: bdc5 2bbd 5000 813d df0c 33bd f2d3 503d
00000250: ba12 903d 47cd 873d 75ea 10bd 2c12 2bbd
00000260: f2a0 1e3d 80ce 95bd 7d5e ec3b e274 463d
00000270: 2afe c43d f9e3 85bc 94e3 35bd f3cf a9bb
00000280: d830 073d ecd8 233d eba7 02be 6b0e 93bd
00000290: 3f41 123d 760f ba3b 2b14 7abd 9c89 c63d
000002a0: 6a3d bb3d 52bc 2dbd d3b0 8c3c 83f9 65bd
000002b0: cedf 853d ed05 cebd 2c17 6dbb 52d2 30bc
000002c0: ea86 37bc 32d3 05bd 2305 b2bd 83c0 683d
000002d0: 636c 3b3d 4b5b a83d 7026 09bc 96e5 05bc
000002e0: a7ff f13a ab22 34bc c148 aa3d 0dc0 e7bb
000002f0: f7a8 923d a550 623d 6b91 20bd e6ad a8bd
00000300: fd85 873d 3b43 a0bc 971e 66bd 8c7b 9ebd
00000310: 43df 713d 137b d3bc 8dfe 1fba 2cb9 93bd
00000320: b495 3f3b ed7a 3bbd 8190 19bd 045e 38bd
00000330: 7461 5fbc 557f 963d 09a4 413d 3a9f 043d
00000340: ca85 20bc cad0 8abd e579 a7bd df33 7a3d
00000350: 532d e93b 41c7 81bd 049a 33bd be73 c0bc
00000360: 4a36 1d3d 5074 84bd 4114 c13d 1a6f 4ebc
00000370: 316f cabd 44b8 033d 0538 b63b fb11 70bd
00000380: fb50 793d 9066 19bd 4f48 a43d a808 fd3d
00000390: d2e7 1d3d b5cb 223d 0726 fbbc 01cb 3fbd
000003a0: 56a0 32bd 950a ad3d 2cde 08bd d2da 1abd
000003b0: 35ad d9bc 8c01 1bbc 1ce4 993d 26fc c23b
000003c0: 8828 5c3c f62c 9a3b d47b e3bb f0b3 453d
000003d0: 274b 21bc bf3c c1bb 8d59 a3bd 78ca c6bd
000003e0: f4e9 a0bd a922 2e3d a811 083c 94a8 aebd
000003f0: 2334 0a3d 2695 13bb 1a1f 383c 6edc c53c
0.06485871 0.03450409 0.003058689 0.04526656 -0.008052281 0.06505666 0.029110352 0.03348158
-0.020261183 0.069709495 0.027403176 -0.00026809887 -0.073753476 -0.021782294 -0.014081988 0.04733306
-0.040962026 0.036563575 0.03607731 -0.09756115 0.021714978 -0.038249135 0.08923332 -0.04796623
-0.032227464 -0.0716157 -0.044465967 0.0009180246 -0.032586616 -0.017935533 -0.025829311 -0.07304638
-0.07774442 -0.11464123 0.05760165 -0.060163338 0.015374616 0.057221238 -0.039481603 -0.05507884
0.03287786 0.05595395 -0.014177576 -0.05843934 0.0785109 -0.02043621 0.03752549 -0.07107913
-0.059084505 0.040433384 0.051203486 0.081771836 0.06560606 0.0769563 0.0032765071 -0.049964868
0.013819582 0.034944393 0.024663862 0.027205726 -0.06524175 -0.07933403 -0.049196567 0.07174904
0.029576363 0.03752002 -0.051206972 -0.035855237 -0.055773195 0.064201646 -0.025690854 0.020431353
-0.026863627 0.025671786 0.024936074 -0.099522986 -0.029567847 0.041220773 -0.02973077 0.017941074
-0.053115133 -0.053082462 -0.08448095 0.0477041 0.07416843 0.06931304 -0.082067564 -0.024666032
0.08036123 -0.008689737 0.07684061 -0.03196802 -0.015338415 -0.049763925 0.09838775 -0.0685589
0.013480325 -0.05252221 -0.046907112 -0.04685606 0.06095733 0.061554775 -0.010434559 -0.025258316
-0.034507997 -0.011036953 0.033042528 -0.079139605 0.038783394 0.04850233 0.07547602 0.030728472
-0.011687374 -0.05047531 0.006353344 -0.04271165 -0.08303271 0.036962867 -0.00329964 -0.0413301
0.0014785196 0.070042096 -0.047327634 0.041694935 0.00021525104 -0.04412688 -0.059944175 0.09508296
-0.059722792 0.01266095 -0.09121201 0.011320721 0.028336473 -0.02746539 -0.033802044 -0.02291146
0.051846806 -0.07947831 0.009764844 -0.020363575 -0.05553978 0.08186329 0.06052756 -0.022062946
-0.041936625 0.06298888 -0.043713447 0.050983377 0.07034822 0.066309504 -0.035379846 -0.041765377
0.03872771 -0.073147774 0.0072134123 0.048451312 0.096187904 -0.016344057 -0.04440649 -0.00518226
0.033005565 0.040001795 -0.12759368 -0.071804844 0.035706755 0.0056781126 -0.06105439 0.09694216
0.09142573 -0.042415924 0.01717416 -0.056146156 0.06536828 -0.10059724 -0.0036177142 -0.010792332
-0.0112016 -0.032672115 -0.08692386 0.05682422 0.045757663 0.08220538 -0.008370981 -0.008172413
0.0018463031 -0.010994594 0.08314658 -0.007072455 0.07161134 0.05525269 -0.03920118 -0.082362935
0.06617353 -0.019563308 -0.056181516 -0.077384084 0.05905081 -0.025815522 -0.00061032997 -0.07213053
0.0029233517 -0.045771528 -0.037491325 -0.045011535 -0.0136340745 0.073485054 0.047275577 0.032378413
-0.009797523 -0.067781046 -0.081775464 0.061084624 0.007115999 -0.06336833 -0.043848053 -0.02349269
0.038381852 -0.06467497 0.09427691 -0.012599731 -0.09884489 0.03215815 0.0055608773 -0.058610898
0.060868245 -0.037451327 0.08021604 0.12355167 0.03855116 0.03974505 -0.030657781 -0.04682446
-0.04360994 0.08449284 -0.033415005 -0.03780634 -0.02657185 -0.009460818 0.075142115 0.0059504686
0.013437398 0.004705067 -0.0069422517 0.048267305 -0.009844578 -0.005897134 -0.07976065 -0.097065866
-0.07857123 0.042513523 0.008304991 -0.085282475 0.033741128 -0.002251932 0.011237884 0.02415296

lstm.bias_ih_l1 f4 [512]
00000000: 30bf 1f3d 76f7 21bd 0ffb a1bc d48b 1abc
00000010: b90f 85bd d56b 603c 0492 683d 762c 9e3c
00000020: 08e2 1f3d d03b 833d a0c6 053c 0bcf a33d
00000030: 2faa 56bd 7e15 3d3d 4a3d 79bd ac05 383c
00000040: 57e2 a5bc 8200 abbd 23a3 043d 0a3e 4f3d
00000050: 73df 8dbd a57f 98bd 6229 b73c 2a0e 1ebb
00000060: 673c 8dbd c24b 1a3b 3e23 c2bc 9800 c33d
00000070: 2924 92bd 565f 993d 5c8d 1abd 4d4f 8fbd
00000080: 1489 843d 68a5 babd 9a49 0d3d 20a1 9eba
00000090: cb65 86bd df0d 53bc a682 203d 891b 353d
000000a0: 9d14 063d 6b8c b6bc a587 0abd f5b0 c1bd
000000b0: e81a 823d 3bd0 133c cef2 e9bb ef24 abbc
000000c0: db25 bd3d e997 2e3d 7915 45bd e654 3bbc
000000d0: c113 713b 8553 ccbc 08a6 7ebd 7062 8f3c
000000e0: 463e 65bc 1895 84bc 03df 463d f070 9d3d
000000f0: 1805 8cbb be5d ee3c a40c 1e3d 1f39 ba3d
00000100: aa0f acbc 8565 b5ba f6eb c8bd 78b2 15bd
00000110: 2265 c7bd a749 78bd 9583 c33b fe9c 00bc
00000120: de04 0c3d 34ba 863d 09fd 253c 8fba 2c3d
00000130: f511 a6bd 9512 40bd 4efd 8f3d 720d 99bd
00000140: 0977 35bd cdb8 3d3d d569 37bd 4ec1 72bd
00000150: d53f 8d3d f705 b43d 91bc 71bd a47f fd3c
00000160: 3f84 97bc f11a d33c d7ec b6bd 867a 8f3d
00000170: 32fe 8e3d be66 613d 3767 8a3d 5d46 a6bd
00000180: d272 303c 8947 893c be83 98bb 9b33 853c
00000190: 6ebf f5bc 1a33 633d 6d5c 84bd bc00 64bd
000001a0: c59e 8ebc 0a28 11bd 15e2 953c e224 923c
000001b0: 5abe 86bd 23fd 0a3d a834 6a3c f475 913c
000001c0: 8295 09bc 3caf 1abd 6136 b13c 0c4e 393d
000001d0: 4cb0 9839 05be b33c f300 253d 0961 423d
000001e0: 8864 8abc 2502 15bc 76e1 6abc c36d f0bc
000001f0: be4a 9c3d 607f 6c3d 96ab 933d 6f88 b6bd
00000200: 1f79 e33c 266f 56bc 40d2 97bc 77c1 a73d
00000210: 17f2 503d c56b 443d d600 c43c 6732 893d
00000220: 4463 9f3d b89a 3e3c 4956 81bc 5f1d 353d
00000230: 18cb 95bd 4745 37bd 2fe1 ab3c 203e 413d
00000240: 527e 11bd 8788 64bb eb7a d5bc db9a 92bd
00000250: 3557 8b3d e57a f4bc e163 2c3d c8c9 fb3c
00000260: 2707 253d 57b1 323c e004 12bd 2e5e e93c
00000270: c66a 533d 6868 623d 936a 8abd 7246 02bd
00000280: f578 6dbd e45d 053d 298a 23bd 1575 81bd
00000290: 2b1a 81bc d60d 243d a76c 913d f5c0 c43d
000002a0: a161 c9bc 18a9 afbd 873a 9b3c ccf6 b4bd
000002b0: 1318 b63d 4d5c 1f3d abcd 74bd 6837 aebb
000002c0: 3d6c 743d 6bc3 9d3d 6027 afbc 2488 ab3d
000002d0: 3b71 5b3d f4fd 183d 51b4 373c 73de 1e3c
000002e0: 6484 6bbd 9390 8abc 4b69 823d e65d b53d
000002f0: b5e0 a6bd 4341 1fbb 9970 2abd 4874 213d
00000300: 787f 923b 0ba1 9ebd 16f8 05bc 5ce0 9fbd
00000310: 68bd 323d 8db6 45bd 845f 2a3b 0fee 37bd
00000320: 72ab 6b3d 6159 55bc 4015 723d 46d8 aa3c
00000330: 976c acbd 38e7 07bd 37c4 173c 58ba 9f3d
00000340: d9b1 4a3c 5945 5d3d b690 abbd 550e 743d
00000350: 174e 1cbc a118 77bd 425e 4ebd ca28 533d
00000360: 7b41 963b 5230 a6bd 6765 593d 9715 3abb
00000370: c638 39bd c229 b5bd 5835 6e3d a1cb 483d
00000380: b8eb 99bd 2d18 df3c cb47 04bd 246c d0bb
00000390: 4e6a 96bb 80d2 6a3d 217d e13b cbd3 373d
000003a0: 0659 1bbc cd35 6bbd 3278 cb3b 0198 833d
000003b0: 8708 4f3d f7b7 d1bd d77a a73d e8f3 913c
000003c0: 7c76 9bbd 36cc 2b3c 0d3c c93d fa6c fbbc
000003d0: e994 443d a0c4 8f3b ad31 733d 080a 38bd
000003e0: 3898 e53b bd72 21bd c40d c1bc 8d0a b93c
000003f0: 3131 6dbb ffeb 883c f5f6 bd3d 0c75 dfbc
0.03900069 -0.039542638 -0.019773034 -0.009432752 -0.064971395 0.013697584 0.056779876 0.01930831
0.03903392 0.06407893 0.008165032 0.07998475 -0.052408393 0.046163075 -0.060849465 0.011231821
-0.020249529 -0.08349706 0.03238214 0.050596274 -0.06927385 -0.07446221 0.0223586 -0.002411733
-0.068962865 0.002354369 -0.023698445 0.095215976 -0.07135803 0.07488887 -0.037732467 -0.06997547
0.06471458 -0.0911358 0.03449402 -0.0012102462 -0.06562384 -0.012881725 0.039187096 0.044215713
0.032734502 -0.022283753 -0.033820767 -0.0945758 0.06352788 0.009021814 -0.0071395403 -0.020891635
0.09235736 0.04262534 -0.04811618 -0.011433816 0.0036785456 -0.024942169 -0.06217006 0.017502993
-0.013991898 -0.016184375 0.048552524 0.07687557 -0.004273068 0.029097434 0.038586274 0.09092926
-0.021003563 -0.0013839459 -0.09810631 -0.036547154 -0.097360864 -0.060617115 0.0059666135 -0.00784993
0.03418433 0.06578484 0.010131129 0.042170104 -0.08108894 -0.04689272 0.07030736 -0.074732676
-0.044302974 0.046318818 -0.044778664 -0.05926638 0.068969406 0.087902 -0.05901772 0.030944653
-0.018495677 0.025769683 -0.08931892 0.07005791 0.06982078 0.055029623 0.06757968 -0.081188895
0.010769563 0.016757743 -0.004654377 0.016259959 -0.029998507 0.055468656 -0.06462941 -0.055664763
-0.017409692 -0.035438575 0.01829628 0.017839853 -0.065792754 0.033932816 0.014294781 0.01775644
-0.008397462 -0.037764773 0.021632375 0.045240447 0.0002912305 0.021941194 0.04028411 0.04745582
-0.01689364 -0.00909475 -0.014335981 -0.029349213 0.076314434 0.05773866 0.07210462 -0.089127414
0.027767716 -0.013088023 -0.018532872 0.08191197 0.051012125 0.04795434 0.02392618 0.066990666
0.07782605 0.0116335675 -0.015788214 0.044217464 -0.07314128 -0.044743802 0.0209814 0.047178388
-0.03552086 -0.0034871416 -0.026059588 -0.071584426 0.06803743 -0.029843757 0.04208744 0.030735865
0.040290024 0.010906539 -0.03564918 0.028487291 0.0516155 0.05527535 -0.06758609 -0.031805463
-0.05797668 0.032560244 -0.03992668 -0.0632116 -0.015759548 0.040052257 0.07100802 0.09607116
-0.024582686 -0.08577174 0.018948806 -0.08836135 0.088913105 0.038906384 -0.059766453 -0.0053166635
0.059673537 0.07703289 -0.02138108 0.08375576 0.053574782 0.037351564 0.011212424 0.009696591
-0.057499304 -0.016914641 0.06367739 0.088558 -0.08148328 -0.0024300374 -0.041611288 0.039417535
0.004470762 -0.0774556 -0.008176824 -0.07806465 0.043637663 -0.048269797 0.0025996873 -0.044904765
0.05753655 -0.013021798 0.059102297 0.02085508 -0.08419149 -0.03317949 0.00926309 0.07799214
0.012371504 0.054021213 -0.08377211 0.05958398 -0.009540102 -0.060326222 -0.05038286 0.05155257
0.0045854426 -0.08114685 0.05307522 -0.0028394216 -0.04522016 -0.08845855 0.05815634 0.04902232
-0.07515663 0.027233208 -0.03229503 -0.0063605476 -0.004590309 0.057329655 0.0068813716 0.044879716
-0.009481674 -0.057424355 0.0062093968 0.06425477 0.05054524 -0.10240167 0.08177727 0.017816499
-0.075909585 0.010485699 0.09825907 -0.030691613 0.047993574 0.004387453 0.059373546 -0.04493144
0.0070066713 -0.039416064 -0.023566134 0.022588039 -0.003619265 0.016714094 0.09275619 -0.027277492
