models/lstm_100.pt (torch, 813544 bytes, 9 tensors)

lstm.weight_ih_l0 f4 [512, 8]
00000000: deb3 3f3e 44ca f13c f201 9bbc 0d98 a1bd
00000010: ad2d 86bc ff8d a0bd 1e3d 25bd 47dc 4d3c
00000020: 8b66 f6bb f970 b2bc 96c5 8abd 5727 653d
00000030: b687 803d 0498 9b3d 69d4 00be 0b94 823d
00000040: ad9e 023e 0597 afbd b1ed 873c f882 3cbd
00000050: d62c 58bd 606c d2bb 0448 043d 485a d93c
00000060: 7670 5fbc 178b 953c 5771 5c3c 74fc b03d
00000070: f4ef c53d 6244 383c 353a 7d3a 8a32 57bd
00000080: 29d8 65bd 189f 313d 55d7 d4bc 235e 9dbb
00000090: 5f6c 423d cd67 053e 5cc0 6f3d 1e97 94bd
000000a0: a815 ab3d 7dda d6bc bf85 553c 0142 95bd
000000b0: 9263 cdbc fc54 0b3c f6a0 fbbb 7979 5cbd
000000c0: 1078 8dbc 7a01 0cbd 85bc 62bd 5844 7f3d
000000d0: 01f5 633d 9e99 bfbd 73a2 00be 7c8c 05be
000000e0: ae51 0a3e 55df bcbc 4c74 473d 1b42 503d
000000f0: 7e4b 4bbd f737 c83b 215d 3f3c 0adf 6d3c
00000100: 85b5 043e 0523 ad3c 8e91 3b3d bff9 9abd
00000110: 4ee4 fb3d 2458 c93c b416 7e3d 3a37 ffbc
00000120: 5ae2 953d a1b0 ba3d 7c6b 123d ff65 c23d
00000130: c295 aa3d ad16 e53c 7498 803d 5f7e e13c
00000140: 8006 18bd b639 bc3d d64e 813d 5af5 bd3d
00000150: 712a c3bd f323 d43d 901e 233a 8cec a5bd
00000160: b03b f93c f78d eebd 9ce4 863d aa16 b23d
00000170: 21b0 0e3e 5ffa d73d 7177 543d d589 233e
00000180: 60ea d63d 91a0 c8bc 5fcc 38bd 31dd 18bd
00000190: c9b8 81bd c608 f8bd 323b afbc f337 8cbd
000001a0: 48dd 053d 4c87 8f3d 20c3 6fbd de1b 843d
000001b0: 2880 593e ab84 143e a143 ce3d 4c96 ee3d
000001c0: 58f9 743d a30a d03d c2ab 89bd d3dd f5bd
000001d0: 9484 b5bb 959e d93c 8b26 d2bd b44f d83d
000001e0: 84bc 253e c051 e53c b292 bebd cb63 98bd
000001f0: ab7a d2bd 54ee c63d bdbf 04be a62d 12bd
00000200: 5bbf 76be bc0e e63d 2867 163e 8461 f03d
00000210: 5f03 8abd ba8d f4bd c88e 3f3e 0a02 dc3d
00000220: efed cdbb 3b9d 963d b859 a6bd c246 0fbd
00000230: c9da afbb db8c d03d db0a 9f3c a5de 72bd
00000240: e2fb 1bbe a6b9 12bd c63b 06be fd51 bfbd
00000250: f322 1bbc 2d30 15bd 25b2 a9bd a87f 93bd
00000260: 525d d23d 3ab2 413e 1e52 883d 7f41 4f3c
00000270: a8fb f83d 6907 ab3c 5106 a4be 6443 d33d
00000280: c610 823e ed10 6fbd cfc9 183d 3003 963a
00000290: 79bd 76bd 391e 4e3d 0746 0dbd 5580 153e
000002a0: e96d 053e 0672 2a3d 7fb8 e2bd 6e0f cbbc
000002b0: a5d1 b5bd fe1b 43bd 23b1 19bd 755c 513c
000002c0: a90e 12bd 9ae4 bb3a a996 35bc c308 853d
000002d0: 5e5f 673d 2c95 9bbd 8898 7c3d 649f 863d
000002e0: 39f5 293e fa92 513d 220c a2bc ebc0 d93c
000002f0: dd51 90bd d1eb 86bd 1575 b23d 7d0b a43d
00000300: 48f8 ce3d be0f 31bd 2848 b23d 5c62 753d
00000310: 3022 ddbd 2b1f 16be ad16 9a3c 6cc1 1a3e
00000320: 86ba d6bc 4527 92bd 8804 5abd 37bd 2e3d
00000330: 2d37 57bd 5748 903d 611c ed3c 4ffa 2e3d
00000340: 8032 0f3d 626c 253d ef9a 803d 2d2d e93b
00000350: 53b0 96bc 963a 903d c401 9f3d f194 b93c
00000360: b16c 08bd 0aae 19b7 2ccf a3bd 0986 82bd
00000370: fe8c 133e 2cbb 41bb 9b1a bdbe de0b 38be
00000380: 5c6d d9bb 3e38 363d 6e62 6cbc 16ba 15bd
00000390: 712f 7c3d e056 e93c a526 1e3e e27b fabc
000003a0: e219 3a3d 5b78 c63d ee65 80bd 5510 713c
000003b0: 6220 e3bd fe0d 06be 506c e8bc 808b 0cbd
000003c0: c766 af3c f48f 38bd ab22 ff3c 695e 753d
000003d0: 62a5 68bd 1eda 4a3d 95f1 1dbd 14b4 e7bd
000003e0: 93df 3bbd 1202 9c3c b7c0 b53b c65d 163c
000003f0: ccff 783d 2f40 b8bd e8b5 0d3e 3293 d4bd
0.18720958 0.029515393 -0.018921826 -0.078903295 -0.016379202 -0.078395836 -0.04034149 0.012564725
-0.0075195483 -0.021782385 -0.06775968 0.05594572 0.06275885 0.07597354 -0.12581028 0.06375893
0.12755843 -0.085737266 0.016592832 -0.04602334 -0.052777134 -0.0064216107 0.032295242 0.026532307
-0.013637653 0.0182548 0.013454757 0.086419016 0.09664908 0.0112467725 0.00096598576 -0.052538432
-0.05611435 0.043364614 -0.025981585 -0.0048024817 0.047466632 0.13027878 0.058533058 -0.07255386
0.0835374 -0.02622723 0.013032376 -0.0728798 -0.025071893 0.008504149 -0.0076791 -0.053826783
-0.017269164 -0.034181096 -0.055355567 0.062321037 0.055653576 -0.09355472 -0.1256197 -0.13041872
0.13507721 -0.023055712 0.048694894 0.050844293 -0.04963254 0.006110187 0.0116799185 0.014518509
0.12959869 0.021134863 0.04579311 -0.075671665 0.12299405 0.024578162 0.06203337 -0.031154264
0.07318564 0.091157205 0.035747036 0.094921105 0.08329345 0.027964914 0.06279078 0.027526079
-0.037115574 0.09190695 0.06313865 0.09275313 -0.095295794 0.10358419 0.0006222511 -0.08101758
0.030423969 -0.116481714 0.065865725 0.08695729 0.13934375 0.10545801 0.05187172 0.15970547
0.10493922 -0.024490627 -0.04511678 -0.03732032 -0.06334073 -0.121110484 -0.021390531 -0.06846609
0.032681733 0.07008228 -0.058535695 0.06450628 0.21240294 0.14503734 0.10071493 0.116497606
0.059808105 0.10158279 -0.06722213 -0.120052 -0.005539486 0.026564876 -0.10261258 0.10562077
0.16185194 0.027993083 -0.09305324 -0.07440909 -0.10277303 0.09713426 -0.12963767 -0.035688065
-0.24096434 0.11233279 0.14687788 0.1173735 -0.06738924 -0.11941095 0.1870681 0.107425764
-0.0062844674 0.07354208 -0.08122581 -0.03497959 -0.0053666574 0.10183116 0.019414356 -0.05929436
-0.15232804 -0.03582158 -0.1310874 -0.0934181 -0.009468782 -0.036422897 -0.082859315 -0.07202083
0.10271706 0.18915644 0.066562876 0.012649893 0.121573746 0.020877557 -0.3203607 0.10315588
0.25403422 -0.05836575 0.037301835 0.0011445042 -0.06023929 0.05032179 -0.03449061 0.14599736
0.13030209 0.041612647 -0.11070346 -0.02478763 -0.08877877 -0.047634117 -0.037522446 0.012778391
-0.035658512 0.0014335096 -0.011083283 0.06495812 0.056487434 -0.07596812 0.061668903 0.0657337
0.16597451 0.05116556 -0.019781176 0.026581248 -0.07046864 -0.06587947 0.08713738 0.08010004
0.1010595 -0.043227904 0.08705169 0.059908256 -0.107975364 -0.14660327 0.01880964 0.15112847
-0.026211988 -0.07136396 -0.053226978 0.042660918 -0.052542854 0.07045048 0.028944196 0.04271918
0.03496027 0.040386565 0.06279551 0.007115981 -0.018394625 0.070424244 0.07764009 0.022654029
-0.03330678 -9.160032e-06 -0.07998499 -0.063732214 0.14409253 -0.0029561026 -0.3693436 -0.17973277
-0.006635351 0.04448723 -0.014427764 -0.03655442 0.06156868 0.028483808 0.15444429 -0.03057665
0.04543484 0.09690925 -0.062694415 0.0147133665 -0.11090161 -0.13091275 -0.02837196 -0.034312725
0.021411313 -0.04505916 0.03114446 0.05990449 -0.056798346 0.04952442 -0.03856047 -0.11313644
-0.045867514 0.019043956 0.005546655 0.009177631 0.060790822 -0.08996617 0.13838923 -0.10379638

lstm.weight_hh_l0 f4 [512, 128]
00000000: 1b52 f8bb ecae a23d ee01 b13d 726d 413d
00000010: 4af2 f23d 8bce d3bd 9a09 943d 578f c2bc
00000020: 5b7a 05be 3154 ce3d d214 1d3d 1381 39be
00000030: 5d2b af3c 561d 24be efa8 a53c b263 b83d
00000040: 3eac e13d 96a0 a1bd eeb1 df3d bed8 053e
00000050: 40b8 f8bc a939 173d 5441 4ebc 6450 113d
00000060: f5c6 c9bd 46ec 483c ebbf 33bd 6dec 813d
00000070: 505f 333d 9cbe 323e 5e6d 93bd 912e 1bbe
00000080: 43b8 c33a e1db 963d 0106 bf3d 27ef 293d
00000090: a820 70bd 1abb 0dbe 4ab1 5abd db62 c3bd
000000a0: f8dd a23c 1030 9abc b9cf 773d a537 53be
000000b0: 6c10 353e 719a 133e dc9a babd 2ce5 c03d
000000c0: ec42 503d f439 ba3d cc0b 31bd 8e93 3f3d
000000d0: b845 883b 369d 37bc 7b1a d1bd 666a 023d
000000e0: 3cfa 493e 7d90 9b3d 1e35 89bc df0a debc
000000f0: ec7f 803d d6d6 3ebc 5275 2f3c d6d8 a7bb
00000100: cb58 22be 2ce8 133e c394 093e c24b 053e
00000110: 7e5e c23d 802a 84bd a51f 73bc b6e6 8a3d
00000120: 7847 3a3d 1f84 4cbd 5ea2 1abe fbae 5f3d
00000130: da5e b7bd 224a 9b3c 8e6c 593e 2433 32be
00000140: 1a0c 97bd 3bd0 ee3d 640f 2ebd 453e c4bd
00000150: 96be c33d d9db 34be e132 bf3b b44b ec3c
00000160: 5a06 61bd ebeb 493b c53d 28be 64bc 98bd
00000170: 0a4b 093d fb1c d93d ad5b 46bd 0d0c 09bd
00000180: 8098 45be a5e8 ba3c ed05 463e 6b2a d8bd
00000190: d6c6 ce3c ffbf 6e3c 652d d4bd a80a e2bc
000001a0: fe73 e8bd 93da aabc 15b0 1abd 258d bdbd
000001b0: 3b2f 89bc e9e7 b7bd 52b2 41bd 0df5 acbd
000001c0: 7fa7 23be f1a3 05bd 2704 a7bd 6f6c 8ebc
000001d0: 9273 023d 085c 093e 5d33 263b 218d 04be
000001e0: 6a46 b13d 31df 63bd 14ab 0e3d b297 1ebd
000001f0: 62ee b23c 26e6 50bd e46f 643c 51ed 7b3d
00000200: 8ee8 d2b9 56b3 5cbd 3611 483d 7085 5f3d
00000210: 906a 92bd a6b6 febc 6eb3 dcbc bf4d 96bb
00000220: 76d3 1cbc dd02 60bd 799a 663d 068e 333c
00000230: bdda 88bd 2e42 75bd a090 26bd 90a9 c0bd
00000240: cf27 dfbd 36b4 9bbd 798d f3bd fda3 ac3b
00000250: 0848 a53d 99cb 6e3d 16af 523d 7a2f febc
00000260: 4394 d639 588e 1cbd 29fd 49bd 8540 33bd
00000270: ad08 983c 499a a13d 6867 d33b c153 aa3b
00000280: 3e7c 843b 57f9 ec3d 71fb d43c 97d9 133d
00000290: 9e42 9c3d 9803 443b 2e7b b93c 024c d3bc
000002a0: 3916 c1bc b7f6 cf3d e510 86bd 8c94 003d
000002b0: c5c9 963b 03aa 24bd 5226 9f3d d6e1 cd3d
000002c0: 8c76 33bd 087f d6bb dde2 8b3c a839 b13b
000002d0: 255f 30bd 8107 da3c bacb 8ebb 1fc3 843d
000002e0: 7ff1 0f3d 3dd5 f2bc 0fe9 753d cefc 1fbc
000002f0: 3bfb 87bd 6dd2 933c 782d 8abd 9945 7abd
00000300: dd34 90bd 886d 20bc db49 9a3c f235 703d
00000310: 784b 29bd 6ee7 cf3d 0e50 29bd ff58 21bd
00000320: 46cf 703d 7277 dabc 6f76 d03d 382d d0bd
00000330: 95fe 883d cd84 a03c 0cfc 87bd cde2 013d
00000340: 1580 07be 13f8 003d 9138 cb3d 314e 91bd
00000350: 0f6d b9bc ab3c b23d ad27 9f3c 543c 2f3d
00000360: 1211 093d ac05 2dbd 4aa6 ccbc c320 55bd
00000370: 48c5 8e3d 0a12 a73d 78df 6e3d 3363 503c
00000380: 064f 483c ec9a a03d a990 2c3d f0bd 423d
00000390: 96bd 7fbd e759 96bd 19d4 a13d 16ce 013d
000003a0: 10da 78bd 9c6a d3bc 15f4 443d c2f3 2ebd
000003b0: 7c50 9bbd e88b 73bd 2873 9bbd 7747 8c3c
000003c0: 0404 5f3d 04ae 85bd d816 0e3d 4eb2 d23c
000003d0: 053e b6bd d70e 5eb7 9f93 4c3d 8f4f 52bc
000003e0: 3b60 e3bd b8b4 43bd b802 b33d 2ddf f1bb
000003f0: 3bc4 5cbd c8f4 e03d ba53 81bd 7761 0bbd
-0.007578147 0.0794352 0.08642946 0.047223516 0.11862619 -0.10342129 0.07228394 -0.02374999
-0.13034956 0.10074652 0.038349934 -0.18115644 0.021382982 -0.16026816 0.020222155 0.0900339
0.11019181 -0.078919575 0.10922609 0.13070962 -0.030361295 0.036920223 -0.012588818 0.035477057
-0.09852401 0.012263363 -0.0438842 0.06343923 0.04379207 0.17455524 -0.071985945 -0.15154482
0.0014932234 0.07366157 0.09327317 0.04148784 -0.058624893 -0.13840905 -0.053391732 -0.095403396
0.019881234 -0.018821746 0.060500834 -0.20626695 0.17682046 0.14414383 -0.09111568 0.09418711
0.05084507 0.09093085 -0.04322414 0.04677158 0.0041587017 -0.011206916 -0.10210129 0.03183975
0.19724363 0.07595918 -0.016748961 -0.027104793 0.06274399 -0.011647901 0.010709124 -0.0051222844
-0.15854184 0.14444035 0.13435654 0.1301718 0.09490679 -0.06453419 -0.014839088 0.06782286
0.045478314 -0.049930688 -0.15101 0.054610234 -0.089536384 0.018956248 0.21232817 -0.17402321
-0.07375355 0.116608106 -0.042495146 -0.095821895 0.09557836 -0.1766199 0.0058349227 0.028844692
-0.054937698 0.0030810784 -0.16429813 -0.07457808 0.03351883 0.10601231 -0.048427273 -0.03345876
-0.19296455 0.022816012 0.19338198 -0.105549656 0.025241297 0.014572143 -0.10360221 -0.027592972
-0.11350249 -0.020856177 -0.03776558 -0.09255437 -0.016746154 -0.0897978 -0.0472892 -0.08445177
-0.15981863 -0.03262705 -0.08155089 -0.01738569 0.031848498 0.13414013 0.0025360205 -0.12944461
0.086560085 -0.055632774 0.03483112 -0.038718887 0.021842185 -0.051000737 0.013942692 0.06150562
-0.00040227588 -0.053881966 0.04884454 0.054570615 -0.071492314 -0.031092953 -0.026941027 -0.004586905
-0.009571901 -0.05469023 0.05629966 0.010959154 -0.06682346 -0.059877567 -0.04066527 -0.094073415
-0.10896265 -0.07602732 -0.11892218 0.0052685724 0.080703795 0.058299635 0.051436506 -0.031028498
0.00040927724 -0.038221687 -0.049313698 -0.043762702 0.018558824 0.07890756 0.006451536 0.0051979725
0.004043131 0.11570995 0.025998803 0.03609618 0.07629894 0.0029909369 0.022641744 -0.02579308
-0.023570167 0.10154479 -0.06546191 0.031391665 0.0046016895 -0.0402012 0.07770981 0.100528404
-0.043814227 -0.006545905 0.01707595 0.0054084845 -0.043059487 0.026614906 -0.004357782 0.06482529
0.035142418 -0.029642696 0.060036715 -0.009764863 -0.06639715 0.018044675 -0.06746954 -0.06110153
-0.07041333 -0.009791739 0.018834045 0.058645196 -0.04133174 0.101515636 -0.04133611 -0.039391514
0.05879142 -0.026668284 0.101788394 -0.10164875 0.06689183 0.019594574 -0.06639871 0.031710435
-0.13232453 0.031486582 0.099228986 -0.07094992 -0.022635011 0.08702978 0.019428099 0.042782143
0.033463545 -0.042241737 -0.024981637 -0.052033197 0.06971222 0.081577376 0.058318585 0.012718963
0.012225872 0.07842049 0.042130146 0.04754442 -0.062436663 -0.07341366 0.079017825 0.03169068
-0.060754836 -0.025807671 0.048084337 -0.042712934 -0.075837106 -0.059459597 -0.07590324 0.01712392
0.05444719 -0.065273315 0.034689754 0.025719788 -0.08898548 -1.3235686e-05 0.04994547 -0.012836351
-0.11102339 -0.04777977 0.08740753 -0.007381341 -0.053898077 0.10984188 -0.06314798 -0.034028497

lstm.bias_ih_l0 f4 [512]
00000000: e759 063d 6604 a83c 74b1 d73c 59a6 b4bc
00000010: 8893 8c3c 26f3 5fbd b3d7 8fbc 620b 8cbd
00000020: 3581 c73d 348c ca3c 97b7 1bbc c809 62bc
00000030: 4c48 8bbd 9813 6ebc c39d b6ba 0282 d5bd
00000040: c2c3 243d d593 6e3d e1f4 30bd 606c 0fbd
00000050: 1aa4 2a3d 4e79 823d 85c2 eb3c 2c23 8e3d
00000060: fcfa 34bd 3793 6bbd c789 a2bd 0e23 02be
00000070: 3a1e c03c 4b18 a3bd 01a0 d3bc 80b3 733d
00000080: c3d9 06bd abdb 25bc d253 513d fa45 3f3e
00000090: 686c 8fbd 02c2 b2bd d1a4 f83c ea23 cdbc
000000a0: 69f0 673d 3827 cd3d 3117 9dbd dd24 e5bb
000000b0: f71c f23c 3b65 53bd 202b b0bc 62c8 ee3c
000000c0: 43c1 a5bd 1369 b13d 6251 25bd ce9d c6bd
000000d0: d9c2 9dbd 0394 303d c2ac ccbc 665e 93bd
000000e0: 5a78 ce3d eff0 633c 8057 8abd 15d7 f23c
000000f0: 58f5 b53c 67bb 83bd 1273 323d ecfc 813d
00000100: eaf0 1cbd ed94 6a3d bfcf 7a3d a378 59bd
00000110: 0131 0ebc 8148 f6bc 96b2 e2bd 3669 373d
00000120: 9fbe 97bd cf98 df3c d901 313d 15aa 443e
00000130: a1da e8bd 32bc 243c c87e 2dbd 511e 81bd
00000140: cb7c 6a3d 219a 6bbd 2711 843d 068e ff3c
00000150: 4944 abbc 5c62 b23d 8bcd 30bd bcf6 ff3c
00000160: 40ac 9ebd a79e 74bc 461e 95bd 2cd0 6bbd
00000170: 5b0c a13d dfec 56bd fca2 343c 240e f63c
00000180: 9bcf efbd 34ce 6e3b 6602 9f3d b243 cdbc
00000190: 821f 62bd 1119 873c 8089 99bd 5c04 a03d
000001a0: 5cae c63d 2559 2bbd bb40 06be 0c2a 1dbd
000001b0: c9e2 bc3d c7df 92bd efe8 abbd 1605 b9bc
000001c0: e825 753d 85e4 ad3d 54ef a33d 749a 55bd
000001d0: bb2e 49bd 26c3 30bc 6ac4 87bd 96e2 aabd
000001e0: 009a aabb 3919 6c3d 489a 123b 5761 30bc
000001f0: 866f 9abd 0160 74bd 897a 453d 1eb6 c9bd
00000200: 7dcd 223e a282 803d b1f2 4fbd de1f 8b3d
00000210: 18c6 533d 8ac8 363d 9799 373d 6adc 4ebd
00000220: 23f3 de3d b3a7 913d 8c91 fb3c 8875 ea3d
00000230: 8afb c0bc 60c6 213e 1010 d43c 88ce b43c
00000240: e121 05bd 31f0 473d 03e8 c33d ed22 313d
00000250: ba78 043e 022d 673d 25a9 883d f861 553c
00000260: fe51 be3d cdbf 27bd 36b3 12bd b4e5 9f3d
00000270: 691c 04bd acc8 ffbb 319b 9c3d 2553 83bd
00000280: 6b96 8ebc 1f92 de3d 2b5d d23d 676f 5f3d
00000290: bf96 02bd 9789 873d a86c 733d 3f1a efbc
000002a0: 804d fa3c c3e6 983d eaf5 233c 23c5 b03d
000002b0: d1e3 49bd f85d 4ebc 4d0d ee3d 21a6 ba3d
000002c0: 31a0 6f3d 50a6 c13c 3f26 4e3c eb87 773d
000002d0: 3a20 833d 95e3 60bd 0300 963d 7e7e 31bd
000002e0: 60a8 2b3d f7af c03d c7ad 283d 0d68 8ebd
000002f0: a6ed 83bd 6309 b43d 27ec 9d3d 3426 8b3c
00000300: e22c c43d 16d8 3c3d c367 623d a8f9 0d3d
00000310: de53 0a3e 79f0 ad3c f837 a43d 6d3b 04bd
00000320: e7a2 5fbc ed3a 48bd 8f1d 61bc f9e7 f63d
00000330: 1256 f7bd fc55 aa3d c4d3 9cbd f8c4 6d3d
00000340: bdc8 923d ff59 de3c d532 54bc 9127 5cbd
00000350: 5327 6f3d daa4 143e 7738 23bd eaa4 62ba
00000360: 926a e23b 1745 6e3d eb3a cebc dd34 f53d
00000370: 73ca bf3d 89e7 9d3d f29f f2bc a45a 2fbd
00000380: ec37 8f3b a7e9 b13d 70ff a63d 7b4e 40bc
00000390: 26db 7c3c 262a 9bbd 909f 5abd c0cf 9f3c
000003a0: c5cd 083e 622c 353d 6bea adbd 77b9 99bd
000003b0: a600 92bd 075d b13b 3dc1 66bc 10de 453c
000003c0: c3c3 0f3e 8bea d73d f0b8 11bd 7755 9d3c
000003d0: 30d2 bebc 92e9 8a3d 315e c2bc a162 b13d
000003e0: c2dc c93d 7fbb 1d3c 8476 1a3d 1791 c5bc
000003f0: 1085 c6bd f44b c1bd f700 8b3d 4a21 003d
0.03280058 0.02050991 0.026329733 -0.022051977 0.017160192 -0.054675244 -0.017558908 -0.068381086
0.09741441 0.024725057 -0.00950422 -0.013796277 -0.06800899 -0.014531039 -0.0013932515 -0.10425188
0.04022575 0.058246452 -0.043202285 -0.035015464 0.041660406 0.06370793 0.028779278 0.06940302
-0.04418467 -0.057513442 -0.07936435 -0.12708685 0.023451913 -0.07963618 -0.025833132 0.059497356
-0.032922518 -0.010123174 0.051105328 0.18679038 -0.07003099 -0.0872841 0.030352028 -0.02504154
0.056625757 0.10017246 -0.07670439 -0.00699292 0.029554827 -0.051610213 -0.021504939 0.029148284
-0.08093502 0.086626194 -0.040360816 -0.096980676 -0.0770318 0.043109905 -0.024984721 -0.071957394
0.10081549 0.0139124235 -0.067549706 0.029643575 0.022211716 -0.064322285 0.04356677 0.06347069
-0.03831569 0.057270933 0.06123328 -0.053093564 -0.008678676 -0.03006387 -0.11069219 0.04477807
-0.07409405 0.027294545 0.043214653 0.19205506 -0.11369825 0.010054635 -0.042357236 -0.063046105
0.057247918 -0.057520036 0.06448584 0.031195652 -0.020906584 0.08710167 -0.04316477 0.031245582
-0.07747698 -0.014930404 -0.07281165 -0.057571575 0.07863685 -0.05247199 0.011025187 0.03003604
-0.117095195 0.0036438825 0.07764129 -0.025056694 -0.05520583 0.016491445 -0.07496929 0.078133315
0.09701225 -0.04183306 -0.1311063 -0.038370177 0.09222943 -0.071715884 -0.08394038 -0.022585433
0.059850603 0.08490852 0.080046326 -0.05214925 -0.04911683 -0.0107887145 -0.0662926 -0.08343999
-0.0052063465 0.05764124 0.002236979 -0.010765395 -0.07540803 -0.05966187 0.04821256 -0.09849189
0.158987 0.06274916 -0.050768558 0.067931876 0.05170259 0.044624843 0.04482421 -0.050503172
0.108862184 0.07112064 0.03070905 0.114481986 -0.023557443 0.1579833 0.025886565 0.022071138
-0.032503013 0.04881305 0.09565737 0.0432462 0.12936679 0.056439407 0.06672887 0.013023846
0.092929825 -0.0409544 -0.03581544 0.07807484 -0.032253657 -0.0078059044 0.07646788 -0.06412343
-0.01740571 0.10867714 0.10271677 0.0545496 -0.031882044 0.0661804 0.059429795 -0.02918732
0.030554533 0.07465889 0.010007361 0.08631351 -0.04928953 -0.012595646 0.11623631 0.09113718
0.05850238 0.023638874 0.012582361 0.060432356 0.06402631 -0.05490454 0.07324221 -0.043333523
0.04190862 0.09408563 0.041181352 -0.0695344 -0.06441812 0.08790853 0.07711058 0.01698599
0.09578873 0.046104513 0.055274736 0.03466192 0.13508555 0.02123283 0.08018488 -0.032283235
-0.013649679 -0.04888432 -0.0137399575 0.12055964 -0.120769635 0.083171815 -0.076575786 0.058049172
0.07167194 0.027142523 -0.012951572 -0.05374867 0.058387112 0.14516011 -0.03984877 -0.000864579
0.006909677 0.058171358 -0.025174579 0.119729735 0.09364786 0.077101775 -0.029617283 -0.04281105
0.00437068 0.08687144 0.081541896 -0.011737461 0.015433108 -0.075763986 -0.053374827 0.019508243
0.13359745 0.04423178 -0.08491977 -0.07506078 -0.0712903 0.005412701 -0.0140841575 0.01207687
0.14039521 0.105427824 -0.03557676 0.019205792 -0.023293585 0.06782831 -0.023726555 0.0866139
0.09856559 0.009627222 0.03771068 -0.024117036 -0.096933484 -0.09438315 0.067872934 0.031281747

lstm.bias_hh_l0 f4 [512]
00000000: 8548 ecbc 765b 1f3d aa45 1cbc 27f5 02bd
00000010: 524f 41bd ab6f 92bd 6f23 273d 7319 8abc
00000020: fd44 68bd 94c7 06bd eeca 11bd 9068 8abd
00000030: 05e8 103d 2691 25bd cf05 d6b9 5daf 86bc
00000040: 96e2 593d 068b a7bd e6a3 1bbc 09f6 ef3d
00000050: 0768 883a fb8c a7bd f71c 3f3c 69f9 0abc
00000060: 31d8 dbbd f22e c4bc 1755 33bd 760f 363c
00000070: fd23 df3d dd0a c7bd 0e68 ecbc 7289 83bd
00000080: 76ad dcbc abf5 b63d 6501 663d f02d c73c
00000090: 5d12 1cbc 09d3 11bd 5c22 563c a6ef 9f3d
000000a0: 033c aabd 21c6 833d 315f 54bb 2adc 553d
000000b0: 079b 133d 5698 883d e3fa 0a3d 7680 5fbd
000000c0: 762e 36bd fa28 21bd 6863 493d 7be8 8fbd
000000d0: e671 333d 463c 133d c395 aabc 50f6 bcbd
000000e0: c255 2c3d 15b7 7a3d 3e29 2f3d 2cf2 aebd
000000f0: fa94 923c 3561 c53d 1d18 2a3d 2264 a8bd
00000100: 116f 63ba 5781 213a 489b 5abd 4e9b 85bd
00000110: d26f 233e bdb4 20bd 8898 a5bd eca9 3f3d
00000120: 586e 883d e1bf aa3d 9d40 713c 8dab fc3d
00000130: 2357 31bc 6c2e 7b3d 97cd 303c 5d75 fa3c
00000140: ce9f 8ebc bf95 223d 47eb 843d bc7c ac3d
00000150: 0bf0 3fbd 684d cc3c a843 9dbd b828 773d
00000160: b41a b3bd dc96 10bd 8985 06bd fa6a 99bc
00000170: 481c 00bc e3ea 3cbd dece d5bc 37e6 6d3d
00000180: d063 8bbd 53b4 963d b92c 8dbc 8cdc 4dbc
00000190: 53b9 4a3d aa2b 6e3d c8ee 163d 27d2 b43d
000001a0: 114b c03d 2c6a 02bc 8a9f 28bc 83f3 8d3d
000001b0: 890e 193c 3e0f 8b3d 49c6 7a3c 5d48 b8bc
000001c0: 1b9c d53d 66e3 f9bb d940 7bbc c926 fb3b
000001d0: 6ef0 683d 56ff c93d 58df 1c3c 0076 11bc
000001e0: 26c3 6c3d 08fe 9f3d 0f69 773d 86e0 2fbc
000001f0: 8419 36bd 2319 babd 5788 b03c 7898 c73a
00000200: 7607 153e 2136 873d 24d7 5a3d c24e 91bd
00000210: 1aa5 87bd d7de 6cbd a334 5f3d 8da9 153d
00000220: e7a0 033e 3967 923d 8a6a ec3d 2c8d 2abc
00000230: d2d9 b0bd ba2b 173e c907 853c e290 b63c
00000240: f15c 6e3d b223 4cbd c6cf d63d ab3c f13d
00000250: 82ad 123e 4bcc 6f3c 0ff6 42bc a0f9 573c
00000260: d4c9 95bc d06f 323d 14cb 943d 1b7f db3d
00000270: ee88 2abd 25d1 8a3d 7d4f 5cbd 9efe be3c
00000280: d52e ec3d 68b0 fa3c 4bcc f43c 481e 33bc
00000290: 2f48 253d ad41 0c3e 8667 1f3d dac1 aebc
000002a0: 3d35 32bd b5fc 263e 8bea 98bc 99a3 303b
000002b0: 6662 473d 58b6 f1bc a89a fa3d 63ae f63c
000002c0: cd0f 1bbd 1ef5 b63d 0dc1 be3d fec2 f23c
000002d0: 4cf2 5f3d 8469 bbbc a969 9b3c a92f 98bd
000002e0: d32c d43d cc73 603d 83f0 383d d3b0 ed3c
000002f0: cdde 11bd 30ec ca3d bbb2 9f3d bf42 7a3d
00000300: a5ea c73d 23f5 ee3d 0803 953d 21ef 8f3d
00000310: f38e 90bc 5f9f a53d e79f e33d dbd3 86bd
00000320: d778 323c edc9 c3bb caf0 913c c187 1abd
00000330: a19e babd d85e 063d a881 1ebd cfef 7fbc
00000340: 9e53 843d 1a1e d2bd 4bf8 c6bc 296f 9c3d
00000350: 9239 f9bc d0e7 493d 4185 0ebd 1f56 b93d
00000360: c877 a13d fe80 683d d6f3 523c 3853 3a3d
00000370: 7166 6ebc c3c1 a2bd ff4d 683d 7880 753d
00000380: 9488 65bd bf78 413d 1329 ac3c f934 913d
00000390: 0015 b73c 2e15 57bd 2a6e afbb cef9 f03d
000003a0: 8041 8f3c c506 533d 4aed 2fbc 7499 9fbb
000003b0: 1e17 68bd 330f 63bd be64 eabc 7912 383d
000003c0: 7802 1f3e 54d1 3c3d cde0 5ebc bd52 19bd
000003d0: b99a a93b 95dd 993d 1aab 973d 46a1 8c3d
000003e0: a700 c93d f5f7 60ba 212c 433d 5091 093e
000003f0: 8a55 c23c 0987 ebbb 7f74 953c bf56 703d
-0.028843174 0.038905583 -0.009538094 -0.031972077 -0.047194786 -0.07150205 0.040805276 -0.016857838
-0.056706417 -0.032905176 -0.03559392 -0.06758225 0.03537752 -0.040421627 -0.00040821588 -0.016441042
0.053194605 -0.081808135 -0.009499526 0.11716849 0.0010406979 -0.08181187 0.011664621 -0.008482316
-0.107345946 -0.023948167 -0.04378232 0.011112085 0.10895536 -0.09718869 -0.02885821 -0.064227
-0.026938181 0.08933576 0.056153674 0.024313897 -0.0095258625 -0.03560165 0.013069715 0.07809381
-0.083122276 0.064342745 -0.0032405371 0.052211918 0.036036517 0.06669681 0.03393067 -0.05456587
-0.044477902 -0.03934572 0.049167067 -0.07026764 0.043809794 0.035946153 -0.020823365 -0.09226668
0.042073973 0.061209757 0.04276394 -0.08542284 0.017893303 0.096376814 0.041526902 -0.08222224
-0.0008675913 0.0006160936 -0.053370744 -0.06523763 0.15960625 -0.039234865 -0.08085734 0.04679291
0.066616714 0.08337379 0.014724878 0.12337408 -0.010823998 0.06132357 0.010791204 0.030573541
-0.017410185 0.03969359 0.06490188 0.08422229 -0.046859782 0.024939254 -0.0767892 0.060341567
-0.087453276 -0.03530012 -0.032842193 -0.018727768 -0.007819243 -0.046122443 -0.026099619 0.058080878
-0.06806147 0.07358613 -0.01723324 -0.0125647895 0.049493145 0.05814711 0.036848813 0.08829146
0.09389318 -0.007959884 -0.010291943 0.06931212 0.009341844 0.067900166 0.015306064 -0.022495443
0.104301654 -0.007625985 -0.015335285 0.0076645357 0.056869917 0.098631546 0.009574734 -0.008878231
0.057803296 0.078121245 0.060402926 -0.010734683 -0.044457927 -0.09086826 0.021549387 0.0015227934
0.14553627 0.06602121 0.05342783 -0.070951 -0.066232875 -0.057829704 0.054493558 0.03653865
0.12854348 0.071485944 0.11543758 -0.010409635 -0.08635296 0.14762774 0.016239064 0.022285882
0.058194105 -0.04983873 0.104888484 0.117791496 0.14324 0.01463611 -0.011899485 0.013182074
-0.018284716 0.043563664 0.072652966 0.10717603 -0.041634493 0.067781724 -0.053786743 0.02331477
0.1153237 0.030601695 0.02988257 -0.010932513 0.040352043 0.13696928 0.038917087 -0.02133267
-0.043507803 0.16307338 -0.018666526 0.002695298 0.048677824 -0.029505894 0.122365296 0.030112451
-0.037856866 0.08933471 0.09314165 0.029633995 0.05467443 -0.022877462 0.018971281 -0.074309655
0.10360112 0.054797933 0.045151245 0.02901498 -0.03561287 0.099083304 0.07797762 0.06109881
0.09761552 0.1166785 0.07275969 0.07028032 -0.017646288 0.08087038 0.11114483 -0.06583377
0.010893068 -0.005974999 0.017815012 -0.03772712 -0.09112287 0.032805294 -0.03869787 -0.01562114
0.06461261 -0.10259648 -0.024288317 0.076383896 -0.03042296 0.04929334 -0.03479505 0.090496294
0.078841746 0.05676364 0.012875518 0.04548952 -0.014550791 -0.07947113 0.056715008 0.05993697
-0.056038454 0.047234293 0.02101568 0.07090182 0.02234888 -0.052510433 -0.0053537088 0.117663965
0.017487288 0.051520128 -0.010737726 -0.004870588 -0.05666267 -0.055434417 -0.02861249 0.044939492
0.15528286 0.04609807 -0.013603401 -0.03743242 0.005175915 0.075129665 0.07405682 0.06866698
0.098145775 -0.00085818704 0.047649506 0.13434339 0.023722429 -0.0071877283 0.018244026 0.058676478

lstm.weight_ih_l1 f4 [512, 128]
00000000: cd64 0a3e e79f 99bc 194e 1ebd ecfb 96bd
00000010: 3a14 09bd c463 a8bd 3f32 0ebc fb11 01be
00000020: c00d 8bbd 3634 cabc 06df f5bb 5fbe cdbd
00000030: 180d 2c3d d137 cdbd f28f 053d 90cb 52bd
00000040: 6d54 02be 08cb 083a a9da a2bd 3ab7 3ebd
00000050: 634d ca3d 226e e33c d141 5abd dabe e2bc
00000060: af2f 26bd 63a8 c4bc 0e5c 1f3d 092f 54bd
00000070: 6c76 083b 9e34 c83d 8f5e 103d 3dd8 05bd
00000080: e2e1 13bc 8f2e c53c 5358 cb3d f3b8 a2bc
00000090: 3388 a9bd 9aa1 c8bc a081 a73c 880b 843d
000000a0: 4d7b bdbc 527d a0bc 11e2 4f3d ea9c bebd
000000b0: 0646 903d e3e3 a1bc ae7b c23c 8955 993d
000000c0: 9cfc 513d cee3 c83d 5ea3 923c 2665 a0bd
000000d0: 6dec 0a3d c2b5 85bc 7412 bfbd cfc2 cebd
000000e0: a803 c33c 7555 ca39 5473 f93b ef6b 22bd
000000f0: 3892 053d 8e9a c33d 7cb1 8bbd 40bc 6b3d
00000100: 183b 653d 81f8 99bc ebe9 02bd 78ec 953d
00000110: 6f07 bb3d 4c99 d63c 5516 97bd 883a 95bd
00000120: d630 46bc 7c25 a9bd 2668 133d 869c 083d
00000130: 7534 4bbc f348 a53d 5246 983c d8c0 473c
00000140: 1f5a 41bc fa32 cc3d 72c5 85bd 1995 cebc
00000150: 3b61 02bb 4d67 363c 31ff f03b d214 113d
00000160: 80ac 7e3d b7da 8a3d f7ed dc3d 9d89 473d
00000170: d77b 42bd 05b4 7b3d 84c6 a6bd 334e 083d
00000180: bd8f 87bd 0430 d9bd 151b 2e3d 5472 283d
00000190: 40a6 633d d30d f53b 8ba6 9b3d e343 5cbc
000001a0: ef0d 92bc 1175 86bd a888 24bd 87b9 c5bd
000001b0: 1c0a a3bd 58ea 5d3d 053e acbd d90f 823d
000001c0: 3431 8a3d fc48 73ba f70b e6bb 9c94 c8bc
000001d0: f817 003d eda1 f4bc f05b 5b3d 2799 e73c
000001e0: fe9e e43c bcb5 43bc 9903 8f3d ff82 06bd
000001f0: 5125 2c3d 2d70 e03d 9d75 7a3d 172b 27bd
00000200: 2228 6cbd 9863 debd 2802 953d 3d46 403d
00000210: 6b41 08bd e733 02bd 8a55 613d 4faf 8dbd
00000220: 5db4 dcbd 79b4 7a3c 7401 9f3b e681 023e
00000230: 2f3a b93d c637 5dbd 4590 1ebd 4ae0 cabd
00000240: eef1 f1bd 2eeb 29bd 0c07 193d afb7 c7bd
00000250: a3da 843d ae3b cfbb 9aba b53b 5a05 5d3b
00000260: 1c5a 813d 256b 823c f650 1dbe 4868 a73c
00000270: ed1f 873c e1ea fb3c 0bf4 d2bc 2598 c738
00000280: ead2 153a e717 03bd f6b6 a0bc d78e 10bd
00000290: 3a0a 673d 728b fdbb 23e7 093b c603 873d
000002a0: 07c5 823c ce74 443d e1b0 943d 92a2 4c3d
000002b0: e826 623d f950 a6bd 222f f7bd 9eb1 26bd
000002c0: f162 a7bd fecd 6f3b 3a49 433d 4fbe 3d3d
000002d0: 727b 1bbd 5a4d 253c 705f 6a3d 9f5d a13d
000002e0: 0975 90bc 23b8 2dbd 14ae e43c e875 923b
000002f0: e73a a4bd df49 013d b6d5 1e3d 0832 823d
00000300: 95c8 993c 6b9d c33d 9a84 f4bc 679f 693d
00000310: 02e8 383d 0e32 193d b069 643d f370 613d
00000320: 73c2 aebd 2acc d33d fc8a 08bd a967 513b
00000330: c752 093c c780 543d 8267 9e3d 2dbe 593d
00000340: 4087 d6bd fcee ccbb 83bc 73bc a3e5 27bd
00000350: 6fdd bbbc 3765 52bc 6939 8dbd 0cf0 debd
00000360: 85e6 4a3c cf40 c13b 60a1 99bc 9b41 963d
00000370: a75f d0bc f7f7 45bd b653 ae3d 9855 963d
00000380: 1309 ca3b f5fb 2dbc e0dc 133d dde9 793d
00000390: 30b8 d8bb ed1f 5e3d 5179 663d a15b b4bd
000003a0: bc67 6e3d 4eb3 473d 95e8 8d3d 96ca 9c3c
000003b0: 81ba 12bd 1a21 89bd 0135 9fbd b8a8 1abd
000003c0: 48ef b33c dd57 5f3d 847a 82bd 5f2a ecbc
000003d0: 8ab0 0cbc a860 2bbd cc11 c93c a0aa 103d
000003e0: e494 1e3d 9a8a 80bd 2c5f d7bc 2f47 8c3c
000003f0: 90da b8bd eace 7b3d fa2a 93ba 9547 3b3d
0.13515015 -0.018753005 -0.0386487 -0.07372269 -0.033466555 -0.08222154 -0.008678972 -0.12604515
-0.06789732 -0.0246831 -0.007503393 -0.10046076 0.042004675 -0.10020412 0.03260798 -0.051463664
-0.12727518 0.00052182423 -0.07951862 -0.046561457 0.098780416 0.027762476 -0.053285424 -0.027678896
-0.04057282 -0.024006074 0.03890615 -0.05180267 0.0020822538 0.09775661 0.035246428 -0.032676924
-0.009026023 0.024070052 0.09928956 -0.019863581 -0.08277931 -0.02449112 0.020447552 0.06447512
-0.023130083 -0.019591007 0.050752703 -0.09307273 0.07044606 -0.019761985 0.023740616 0.07487018
0.051266298 0.09809075 0.017900165 -0.078317925 0.03391688 -0.01632202 -0.093296915 -0.100957505
0.023805454 0.00038592113 0.007612625 -0.039653715 0.03261015 0.09550963 -0.06820962 0.057552576
0.05596456 -0.018795254 -0.031961363 0.073204935 0.09132277 0.026196145 -0.07377306 -0.072865546
-0.012096604 -0.08259103 0.035987996 0.033352397 -0.012402643 0.080705546 0.018588219 0.012191974
-0.011801272 0.099706605 -0.065318 -0.02521758 -0.001989438 0.011133027 0.00735464 0.035420246
0.062176228 0.06779998 0.10787576 0.048715223 -0.047481384 0.061450977 -0.081433326 0.0332777
-0.06619213 -0.106048614 0.042506296 0.041124657 0.05557847 0.0074784546 0.07600125 -0.01344392
-0.01782891 -0.065652974 -0.040169388 -0.09654527 -0.079609126 0.054178566 -0.08410267 0.06350679
0.06747666 -0.000928059 -0.0070204693 -0.024484925 0.03127286 -0.029862368 0.053554475 0.02827127
0.027907845 -0.011945184 0.06983108 -0.03283977 0.042027775 0.10958896 0.06114732 -0.040812578
-0.05765546 -0.1085884 0.07275802 0.046941984 -0.033265512 -0.03178778 0.055013217 -0.06918203
-0.10776589 0.015301817 0.004852468 0.12744865 0.09044301 -0.054008268 -0.038711805 -0.09906061
-0.118137226 -0.04148405 0.037360236 -0.09751832 0.06487014 -0.006324253 0.0055459263 0.0033725114
0.06316015 0.015920231 -0.15362915 0.020435467 0.016494716 0.030751647 -0.025751134 9.5173986e-05
0.00057153276 -0.032005217 -0.019618493 -0.035292473 0.056406237 -0.0077375704 0.002104231 0.065925166
0.01596309 0.047962956 0.072602995 0.049959727 0.055212885 -0.08120913 -0.12069537 -0.040696733
-0.081731685 0.0036591287 0.047677256 0.04632407 -0.037959523 0.010089243 0.057219923 0.07879185
-0.017633932 -0.042411935 0.027915038 0.004469622 -0.08019047 0.03156459 0.03877803 0.06357199
0.018772403 0.095515095 -0.029848386 0.057036784 0.045143135 0.03740125 0.055764854 0.055039357
-0.08533182 0.103416756 -0.03333567 0.0031952655 0.008381552 0.051880624 0.07734586 0.05315988
-0.10475016 -0.006254075 -0.014876488 -0.040990483 -0.022932736 -0.012841514 -0.06895716 -0.10885629
0.012384062 0.0058976184 -0.018753707 0.07336732 -0.025436236 -0.04833218 0.0851206 0.073405445
0.0061656325 -0.010619153 0.036099315 0.061014045 -0.0066137537 0.054229666 0.05626804 -0.08806539
0.058204398 0.048754983 0.06929127 0.01913957 -0.035822395 -0.06695767 -0.077737816 -0.03775856
0.021964684 0.054527152 -0.06371024 -0.028828798 -0.008587012 -0.041840225 0.024544619 0.03531897
0.038716212 -0.06276436 -0.026290499 0.017123787 -0.090260625 0.061476626 -0.0011228018 0.045722563

lstm.weight_hh_l1 f4 [512, 128]
00000000: a998 703d 8db6 353d 4b0c 39bc a462 333d
00000010: e21b 49bc 37d4 c73d 1430 493d 17fa f43c
00000020: 43a1 0dbd 67df 9c3d db9c 033d 7826 a83b
00000030: 96ef a0bd 57ec d3bc 2f9d e2bb 6aaf 4c3d
00000040: 7ee3 2dbd 34c3 0e3d 8004 fe3c 9a7a fabd
00000050: 4da0 9e3b 5318 36bd 4d93 bb3d 860e 46bd
00000060: 4ff1 19bd 8ee2 96bd d60b 2fbd 394e d8bb
00000070: 6140 35bd f476 55bc f777 dbbc 5418 52bd
00000080: c104 9bbd 40ae 0fbe 9004 2b3d 26bc 77bd
00000090: 97b5 1ebb f3f6 7b3d bde4 3bbd dfe8 6fbd
000000a0: 975f 213d e5c9 623d 8b06 43bb 4a6f 6dbd
000000b0: 2987 973d 03aa b6bc 4d37 4b3d d30b 92bd
000000c0: 1513 8bbd c051 523d 2acd 6d3d 79e6 c43d
000000d0: 416d c23d 2ad4 963d e02c 91bc 9ba0 79bd
000000e0: d71a 4f3c 5f43 673c 17b2 babb 6db7 103d
000000f0: e6ab 40bd e033 b9bd 2424 48bd 3bde 9d3d
00000100: 288a 853c b1c0 023d 1dbd 7fbd 53b3 dbbc
00000110: 7228 87bd a987 513d fb7c e4bb cb21 39bc
00000120: 2035 26bd f037 003d 1476 d83c 1582 e0bd
00000130: 8f07 c9bc 9346 1e3d 1106 fbbc 379f 973c
00000140: e95a 5dbd 212a 3ebd 94ba b6bd 2fc6 503d
00000150: 3085 943d 0da2 833d 619d b2bd dde1 23bd
00000160: f80e a03d 1cf3 f53b 8a10 ae3d 9ae1 16bd
00000170: 3a57 fbbb 6ba6 29bd 69a7 e43d d70d 9abd
00000180: 1428 b93c 2619 acbd cd63 58bd e219 80bd
00000190: fd2a 6e3d ae74 9e3d c513 19bc debe a2bc
000001a0: f457 27bd 1cab 11bc d591 013d 5a94 93bd
000001b0: 518f 1b3d 31b2 493d 748c ad3d 7626 ae3c
000001c0: 0974 80bc 24eb 1dbd 7e6d be3b c79d 13bd
000001d0: a285 b7bd eb87 103d 0b81 f23b 7f9f 3bbd
000001e0: b46b d73b 0142 9b3d 8fb3 67bd a486 e93c
000001f0: 2f63 98bb 05ba 1cbd db59 60bd a1d1 e53d
00000200: f82e 3dbd b0d0 8f3c 6d4c e8bd 240a f83c
00000210: 356f 303d 8347 203c 46a7 a5bc 6b29 40bb
00000220: 0479 a43c 10e9 64bd fc77 e63c 66ab a3b8
00000230: 2233 32bd 600a c23d 30cb 5c3d 73e8 16bd
00000240: c47d 34bd 87e3 5c3d 14c6 06bd 3f9e a93c
00000250: aec0 563d 5f82 a13d 2fd9 54bd 13f6 83bd
00000260: 97b7 583d 439e 82bd 845f 21bc a9e9 6c3d
00000270: 3bf2 de3d 83f5 08bd 1dde 79bd 39a4 ff3c
00000280: b959 a13c 35e4 08bc 61a8 6cbe f059 7bbd
00000290: a126 ab3c 105e dbba 42f9 45bd af47 f43d
000002a0: 9843 e33d 64b0 89bd 860e 3b3d 9a1c 8dbd
000002b0: c517 a13d 66cd 05be aff9 ba3c 0665 c6bc
000002c0: dcee 90bb 9626 56bc b649 c7bd 67b6 a03d
000002d0: bb08 a33d 0fee 793d 61eb 3ebd 9be8 afbc
000002e0: b47a 81bc 41c6 b8bc f971 863d 5a78 96bc
000002f0: 5158 ba3d 6080 993d 0f4e 6abd f7e1 c5bd
00000300: 985f 593d c79c 3fbc 376c 6dbd da0a 95bd
00000310: 26ce 733d 1c66 97bc 9dad 263d 6a2a f3bd
00000320: 8ece 93bc d0ac 8ebd 7c9d e1bc e4eb 16bd
00000330: f3b7 84bb cc87 b33d ff83 7d3d 62f8 f63c
00000340: 7213 d6bc 8ce9 95bd a7d0 c8bd 9a68 9f3d
00000350: 7725 d2bb 50b5 68bd 3285 86bd 7b58 99bd
00000360: 026c 643d c4fd 26bd e753 d43d 4ac4 16bd
00000370: 9277 e0bd c4b5 883d 39f9 debb 5df5 3dbd
00000380: 51b4 bd3d a19a 42bd 06fe b83d e18e 1c3e
00000390: 3c7e ac3c 1ee2 8d3d 085c c2bc d22e 6fbd
000003a0: c400 05bd 8557 933d 24af d2bc 578e 38bd
000003b0: 96d1 0fbd 8daa ce3b e1b9 813d 3b5a 6e3c
000003c0: fc05 3cbb c723 eb3b 6d60 97bc 07de 923d
000003d0: 8bad e8bc 39c7 453c ddd4 a3bd 4a85 e6bd
000003e0: bfd9 c0bd d250 7f3d a99c 24bc 3af6 9cbd
000003f0: aa4d 5e3c b2e5 5c3c 38c0 043d 2a58 143d
0.058739338 0.044363547 -0.011294435 0.043795243 -0.012274714 0.09757274 0.049118116 0.029904408
-0.03457762 0.07659798 0.03213201 0.005131539 -0.078581974 -0.025869532 -0.0069157104 0.049971975
-0.04245328 0.03485413 0.031008005 -0.12230416 0.0048408867 -0.04445679 0.09158955 -0.048353694
-0.037583645 -0.073674306 -0.042735897 -0.0066011217 -0.04425085 -0.013028849 -0.026790602 -0.051292732
-0.07569266 -0.14031315 0.041752398 -0.060482167 -0.0024217123 0.061514806 -0.04587244 -0.058571693
0.039397802 0.055368323 -0.0029758539 -0.05796746 0.07398827 -0.022297865 0.049613286 -0.071311615
-0.06790749 0.051347494 0.058056988 0.09614272 0.09493495 0.07364686 -0.017721593 -0.06094418
0.012640676 0.014115184 -0.0056974995 0.03533118 -0.047038935 -0.090430975 -0.04886259 0.07708403
0.01630123 0.031922046 -0.06243621 -0.026818907 -0.06599511 0.051154766 -0.0069729066 -0.011299561
-0.040578008 0.031303346 0.026423492 -0.10962311 -0.024539737 0.038641524 -0.030642541 0.018508537
-0.054041777 -0.046426896 -0.08922306 0.050970253 0.07251966 0.06427393 -0.08721424 -0.040010322
0.07815355 0.0075057875 0.08499248 -0.036836244 -0.0076703103 -0.041418474 0.111647435 -0.07522171
0.022602119 -0.08403234 -0.052829552 -0.06254937 0.058146466 0.07737099 -0.009343092 -0.019866403
-0.040855363 -0.008890893 0.031633217 -0.0720603 0.037978474 0.049242202 0.08474055 0.021258574
-0.01568033 -0.038554326 0.0058113923 -0.03603914 -0.08961035 0.03528587 0.007400637 -0.045806404
0.0065741185 0.075809486 -0.056567725 0.028506584 -0.0046504955 -0.03826334 -0.054773193 0.11221624
-0.04618737 0.017555565 -0.11342702 0.030278273 0.043074805 0.009782675 -0.020221364 -0.0029321562
0.020077236 -0.05588633 0.028133385 -7.804371e-05 -0.043505795 0.09474635 0.053904712 -0.036842775
-0.044065252 0.053927924 -0.032903746 0.02070534 0.052429847 0.078861944 -0.051964935 -0.06443419
0.05290946 -0.06377842 -0.009849433 0.057840023 0.108860455 -0.033437263 -0.06100284 0.031206237
0.019696103 -0.00835519 -0.23111106 -0.061365068 0.020892443 -0.0016736407 -0.048333414 0.11927735
0.11096877 -0.06723097 0.045668148 -0.06890221 0.07865862 -0.13066635 0.022824137 -0.024218094
-0.0044230055 -0.013070723 -0.09730856 0.078472905 0.079606496 0.061018046 -0.046611194 -0.02147322
-0.01580558 -0.022555472 0.06564707 -0.018367935 0.09098876 0.07495189 -0.05720335 -0.0966224
0.05306968 -0.0116950935 -0.05796453 -0.072774604 0.05952277 -0.018481307 0.040692914 -0.11873324
-0.018042829 -0.06966555 -0.027540915 -0.036846057 -0.004050249 0.087661356 0.06189346 0.030147735
-0.02613232 -0.07319936 -0.09805422 0.07783623 -0.0064131576 -0.056813538 -0.06568374 -0.074875794
0.055767067 -0.040769354 0.103675656 -0.03680829 -0.10960306 0.06675294 -0.006804612 -0.046376575
0.09262908 -0.047510747 0.09032826 0.15288879 0.021056287 0.06927894 -0.023725525 -0.05839426
-0.032471433 0.071944274 -0.02571828 -0.04505762 -0.035111986 0.0063069523 0.06334282 0.01454788
-0.002869009 0.007175896 -0.018478597 0.071712546 -0.028403064 0.012071424 -0.07999585 -0.112558916
-0.09416532 0.062332936 -0.010047116 -0.076641515 0.013568321 0.013482498 0.032409877 0.036216892

lstm.bias_ih_l1 f4 [512]
00000000: 523e 473d 7f59 3cbd 4306 b5bc 25d4 0abc
00000010: 15ec 73bd 950d 583c 68b7 4e3d 8a7e 0d3d
00000020: 3bb5 183d dfeb 873d 486d 65b9 33ac 963d
00000030: f63e 47bd 06c1 3b3d 450e 81bd 9e92 4d3c
00000040: ae2c f3bc ec30 b9bd 60c5 ef3c 7138 333d
00000050: 55a0 94bd 3723 a3bd e463 e33c 1cb0 6c3b
00000060: 08bb 79bd f8b9 11bb d90b cabc 0751 c03d
00000070: 71cc 97bd dc99 af3d 5609 22bd 4244 92bd
00000080: b209 843d 08ac a7bd 8028 203d 1cb2 a3bb
00000090: f505 8cbd 5b90 9dbc b2b3 1a3d 987b 463d
000000a0: 7caa 003d 2a10 d7bc 0f3b 13bd 258e cfbd
000000b0: 58ca 813d 2011 fb3b b120 aebc 09dd b8bc
000000c0: bbfb b63d d539 133d 09d1 46bd 5896 f8bb
000000d0: 1646 283c ef54 c3bc 2b0a 80bd b44d d93b
000000e0: cd3e 5ebb a9e6 b5bc 4477 2c3d d50b 993d
000000f0: bbb1 83bc 57ad b33c abe3 303d 49f8 c43d
00000100: d433 9bbc 4e71 deb9 d843 bdbd 410b 18bd
00000110: 22e9 d7bd a17d 74bd 9c31 e7ba b196 bbbc
00000120: fae3 943c 77ab 7d3d 2ed4 cb3b fb94 213d
00000130: 4ba4 bdbd c422 21bd f719 9e3d 55b4 acbd
00000140: 388a 45bd 9a0d 303d c1c1 55bd 73ca 66bd
00000150: 5160 7a3d c9a9 a73d 3765 8fbd 3a12 b93c
00000160: a89c 29bc 88a5 093d d8cc bdbd dfd4 aa3d
00000170: 9583 8b3d d7eb ed3c 915a 8f3d 2728 aebd
00000180: ef28 063c 5608 a03c 4732 abba 5d98 403c
00000190: b0e3 0fbd c9a1 563d 28a3 90bd 7112 3ebd
000001a0: 1c74 adbc 8831 19bd c2f1 483c e718 813c
000001b0: 8d2f 99bd cfb2 bf3c 4daa e5bc 4107 b13c
000001c0: 2b72 2abc fb7d 2dbd d0c8 813c 7d74 453d
000001d0: d2f3 03bb 802a 093d d205 ee3c 5f56 363d
000001e0: c164 7bbc 98e7 eabb 186b acbc 1369 1cbd
000001f0: d6e4 9b3d 12d8 663d c3da 983d ea32 babd
00000200: 3f75 153d c9bd 6dbc 9dce a0bc 70ea aa3d
00000210: 23ca 6a3d a820 493d 0ce4 983c 3939 a43d
00000220: d5fa 973d 1f48 4a3c 8cf0 adbc d9b9 2d3d
00000230: 5449 8ebd 4816 37bd 44aa a53c 490a 4b3d
00000240: 4352 20bd 1ad6 29bc 68c1 d7bc 5150 9abd
00000250: 40f6 893d ec0c 02bd f954 3f3d 0876 0c3d
00000260: 21ac 4d3d 0955 573c 6f80 0abd 9b57 e03c
00000270: 5719 683d 25c0 843d ace2 8abd 8657 0fbd
00000280: 097a 64bd f559 2b3d b5c2 53bd 34de 85bd
00000290: 917a 98bc 086a 203d 8ff9 973d 0cd8 d03d
000002a0: 34fc d9bc 826f aebd 5cdc 893c 0389 bcbd
000002b0: 3d86 b83d ab87 1f3d 407e 85bd 4f43 bcbb
000002c0: a0f4 713d 1f9d 913d 1e8c abbc 5057 af3d
000002d0: 19e3 603d 7182 163d 255d 303c 11ad a73b
000002e0: bc3c 4ebd e713 76bc 046b 6d3d d378 bf3d
000002f0: a0a3 acbd 55f0 5cbc 754e 18bd e7ce 373d
00000300: 18a7 613b 909c 96bd f0f3 c1bb f004 9cbd
00000310: 68c1 173d 4f00 30bd 4c11 d03a 9ae6 0ebd
00000320: 63b1 543d 0681 4ebc dfb7 693d 125e b53c
00000330: fbe5 b3bd 2546 e5bc 3aad 733c bbec 973d
00000340: e06b 483c 4e37 5d3d 161b b6bd 2c11 803d
00000350: 7560 26bc 305e 82bd a05c 62bd 4c1e 4d3d
00000360: dcc6 2a3c 959c aebd 765c 4d3d 295c b43b
00000370: 2c4c 37bd d6c7 fbbd e018 853d fb88 3f3d
00000380: 4c03 9ebd 1ca8 4b3d 9390 dcbc 0972 2abc
00000390: f93d 08bc dd14 5c3d 773b 583b e6fa 5a3d
000003a0: 0391 23bc 6326 69bd 6c91 903b a49f 833d
000003b0: 2a3f 3c3d 7900 d7bd c79c d33d 0aca c63c
000003c0: b187 9fbd 7c78 3b3c 9b6c c33d 9320 f5bc
000003d0: a16e 3e3d 7c26 5a3c 1608 6b3d c24a 44bd
000003e0: 2cd8 243c cd4b 20bd c562 e1bc 11d4 433c
000003f0: d551 b0ba 48cf 793c f850 bc3d f5ed 15bd
0.048643418 -0.045983788 -0.022097712 -0.008473431 -0.059551317 0.013186832 0.05046788 0.034544505
0.03728221 0.06636786 -0.00021879852 0.07357063 -0.04864403 0.04583838 -0.0630155 0.012547163
-0.02968439 -0.09042534 0.02926892 0.043755 -0.072571434 -0.07965701 0.027757592 0.0036115712
-0.060969383 -0.002223609 -0.024663853 0.09390455 -0.07412041 0.08574268 -0.039559685 -0.071419254
0.06447162 -0.08187109 0.039101124 -0.0049955975 -0.06837074 -0.019233873 0.037769027 0.048457712
0.031412587 -0.026252825 -0.035944995 -0.10134534 0.06337422 0.0076619536 -0.021255823 -0.022566335
0.089347325 0.035943825 -0.048539195 -0.0075862817 0.010270616 -0.02384421 -0.062519394 0.0066315774
-0.0033911944 -0.022204714 0.042105928 0.0747296 -0.01607596 0.02193324 0.04318587 0.09617669
-0.018945612 -0.00042427558 -0.09241456 -0.037120108 -0.105425134 -0.05969012 -0.0017638686 -0.022899004
0.018175114 0.0619311 0.006220362 0.03944872 -0.09259852 -0.039339796 0.07719796 -0.08432833
-0.04822752 0.04298172 -0.05218673 -0.056345414 0.06112701 0.08186681 -0.07001727 0.022591699
-0.010352291 0.03360513 -0.092675865 0.08341383 0.06812207 0.029043121 0.06999696 -0.08503752
0.00818847 0.019535225 -0.0013061248 0.011755076 -0.03512925 0.052400384 -0.070623696 -0.046404306
-0.02117353 -0.037400752 0.012264671 0.015758945 -0.07479773 0.023400692 -0.028035307 0.021609904
-0.010403196 -0.042356472 0.015842825 0.048206795 -0.0020134342 0.033487797 0.02905551 0.044515964
-0.015343846 -0.0071687214 -0.02104716 -0.038186144 0.07612006 0.056358404 0.074636005 -0.09091742
0.036488768 -0.01451058 -0.01962977 0.08345497 0.05732168 0.04910341 0.018663429 0.08018727
0.07420889 0.012346297 -0.021232866 0.042413566 -0.0694758 -0.044698983 0.02022279 0.049570356
-0.03914095 -0.010365987 -0.02633734 -0.075348504 0.067364216 -0.031750605 0.046711896 0.03429225
0.050212983 0.013142833 -0.03381389 0.027385524 0.05666479 0.06481961 -0.067815155 -0.03499558
-0.055780444 0.041833837 -0.05169936 -0.065365225 -0.018613132 0.03916362 0.074206464 0.10197458
-0.026609518 -0.08517362 0.016828708 -0.092058204 0.09009979 0.038947742 -0.06518221 -0.0057453285
0.059071183 0.071100466 -0.020940837 0.085615754 0.054904077 0.036745492 0.010764395 0.0051170667
-0.05035089 -0.0150193935 0.057963386 0.09349217 -0.084296465 -0.013485034 -0.037184197 0.04487505
0.003443187 -0.07354081 -0.005918972 -0.07618129 0.03704968 -0.042969044 0.0015874295 -0.034887888
0.05192698 -0.012604004 0.05706012 0.022139583 -0.087841 -0.02798755 0.014872843 0.074182
0.012232751 0.05400782 -0.08891885 0.06253275 -0.010154833 -0.06365621 -0.055264115 0.05007772
0.010423388 -0.085259594 0.050137006 0.0055041504 -0.044750378 -0.12293975 0.06498885 0.046761494
-0.077154726 0.04972087 -0.026924407 -0.010403165 -0.008315557 0.053730834 0.0032994428 0.05346193
-0.009983304 -0.056921374 0.004411867 0.064269334 0.045958675 -0.10498137 0.10332637 0.024266262
-0.07789553 0.0114423 0.09542199 -0.02992276 0.046492223 0.013314839 0.05738076 -0.047922857
0.010061305 -0.03913479 -0.027512917 0.011952416 -0.0013452122 0.015247174 0.09195131 -0.036603887
