models/lstm_200.pt (torch, 813544 bytes, 9 tensors)

lstm.weight_ih_l0 f4 [512, 8]
00000000: 510c 783e bb95 4e3d 0c73 21bd 2e10 cebd
00000010: c8f1 b6bb 3227 66bd cc92 84bd abd4 4a3c
00000020: a121 623b d052 12bd 61d1 98bd 8e0b 4e3d
00000030: e957 823d f831 413d 2d70 2cbe 684b a23d
00000040: d391 1e3e 82c6 b9bd a3a1 993b 8aca 6abd
00000050: e53d 87bc be14 bcbc 86f4 853d 7809 00bb
00000060: 1de8 d5bc f731 173c 5154 c0ba fd41 973d
00000070: d00e bf3d 9854 9dbd 755a 26bd 6883 bfbd
00000080: 2205 48bd dd1e c13c f664 02bd 7fed 43bc
00000090: 289f b83d 8e1a 533e 3649 db3c 46d6 c7bd
000000a0: f4ba 133e a001 38bd 17c6 8c3c a9c6 8dbd
000000b0: 318b 15bd 758c 273d c94d dabc 6a43 3fbd
000000c0: b156 28bd d4f2 51bd e949 33bd e52e 973d
000000d0: 1995 b83d c2d4 93bd ca78 12be 3aa8 26be
000000e0: d519 1c3e 9e98 e7bb 5b2a 543d a1d7 633d
000000f0: 4e99 d3bc 979a 08bd f916 343d 4913 19bb
00000100: 8610 563e fe33 573d 45b7 903d d74c 4abd
00000110: 818c 383e ec37 41bd 3d57 8d3d e14a 46bc
00000120: b37f a03d a2f4 7b3d 335b d73c e769 af3d
00000130: ff89 ab3d 8ef5 273d d170 833d f130 213c
00000140: d684 f9ba 3414 1a3e 1b2e 913d 02d6 c53d
00000150: 916e 85bd 010c 933e 47bb 63bb 00d8 aabd
00000160: 5e4f 6f3d a2d1 0cbe 654f 483d 1e93 8e3d
00000170: 2a9a 073e 234f 0a3e fe1b 343d fffd 2c3e
00000180: 6dc9 123e a93e c3bc 3185 96bd 488c 84bd
00000190: b2b6 6bbd 4bbb 15be 8dee 33bc 4fb8 80bd
000001a0: bf9c 4b3d ae1a ae3d a73a bcbd f6a4 f43c
000001b0: f727 9e3e 186e 3c3e 399e 263e d00d ae3d
000001c0: ca9e 8c3d 1f51 d93d 0196 30bd 816c c6bd
000001d0: d7de ca3c d224 b13d 335a c6bd 9747 eb3d
000001e0: 4f60 4d3e b3a8 a33d 8510 8dbd aac6 48bd
000001f0: 884b 07be 7472 9d3d 615e 36be c1bf 263c
00000200: ddbf 70be 6104 1e3e 1d00 3e3e 1d49 203e
00000210: 096f a5bd 0b5c 10be cef2 813e 2d5e c83d
00000220: a4f6 f0bb 50fb db3c 5053 d0bd a9b1 65bd
00000230: 5612 aebc 7595 123e e212 f73c 64e5 b2bd
00000240: c869 eabd 3b64 87bb c865 69be 6076 43be
00000250: 62af 07bd 932e 69bc f38d b1bd 4eaa adbd
00000260: 0535 bc3c e382 813e b66a 763d 4aa4 0e3c
00000270: 807f d33d 7c12 0fbd 8fe7 12bf 18a3 fc3d
00000280: 2b6a b73e 26b5 0bbd f84c 643b 0f85 00bd
00000290: c7e1 55bd 074d 683c 4777 cebc 4e50 473e
000002a0: 53f5 263e fef7 3f3d ba81 cfbd a6f8 70bc
000002b0: bab3 9ebd 131d 57bd c0b2 06bb 3502 9ebc
000002c0: c672 95bd 4d84 efbb 985e f43b b8eb ab3d
000002d0: 8ba5 3f3d 94fa febc 7559 d43d 200e a93d
000002e0: 82c6 5b3e 149f 2c3d ae5d cabb 3a62 223d
000002f0: 3f2e 7fbd 236d 07bd 7d21 733d 52a4 643d
00000300: b4d6 183e b616 bbbd 66b7 8f3d c4f3 363d
00000310: c279 21be 1713 4bbe 7877 733d d688 103e
00000320: 8dc4 92bc 7eab 5bbd 882e 6cbd 65d7 1d3d
00000330: df11 80bd 3f23 8c3d 7c57 3d3d da12 d53c
00000340: 9754 563d dbc2 34bb 7cd9 393d de7f 48bc
00000350: 6aad 9bbd 5fda 103e 4493 433e e13b 273d
00000360: 7d65 833d 5429 8fbc 5f5e 4ebd b134 06bd
00000370: a0cc 113e 0afa 97bb e201 e7be 414a a1be
00000380: f9b4 12bd 8d53 5d3d d88d 94ba b45b c8bc
00000390: 7995 973d f02a bf3d 44ce 283e 6d41 f73c
000003a0: fd45 ae3c 7eb9 fc3d 97df 66bd 87e2 bd3c
000003b0: 8223 58be 7fed 5abe a8d8 18bd 00b2 6e3c
000003c0: f911 3d3d 5733 67bd b840 133d 3cad 863d
000003d0: a1d4 97bd c92c f73c 9c43 dabd 8f2d e8bd
000003e0: f4e2 babd ae4c 9fbc f9dd 47bc 012b 14bc
000003f0: 1b7a 043d 8009 2ebd 52dc 3b3e e6dc 43be
0.24223448 0.050435763 -0.039416358 -0.1006168 -0.005583022 -0.056189723 -0.06473312 0.012379806
0.0034504908 -0.035723507 -0.07461811 0.05030399 0.06364424 0.047166795 -0.16839667 0.07924539
0.15485315 -0.090710655 0.004688458 -0.057322063 -0.016509006 -0.02295911 0.0654078 -0.0019536894
-0.026111657 0.009228221 -0.0014673566 0.07385633 0.09328997 -0.076821506 -0.04061361 -0.09351236
-0.04883302 0.023574287 -0.031834565 -0.011958479 0.09014732 0.20615599 0.026768308 -0.09757666
0.14426786 -0.044923425 0.0171843 -0.06922657 -0.036509696 0.040905435 -0.026648419 -0.04669515
-0.0410983 -0.05125697 -0.043771658 0.07381991 0.09012813 -0.07218315 -0.1430389 -0.16275111
0.15244229 -0.007067754 0.051798206 0.05562556 -0.025829937 -0.033350553 0.04396722 -0.0023357442
0.2090474 0.052539818 0.07066206 -0.049389686 0.18022348 -0.047172472 0.06901405 -0.012102813
0.07836857 0.061512597 0.026288604 0.08565121 0.0837593 0.041005664 0.064180024 0.009838329
-0.001903678 0.1504677 0.07088872 0.096599594 -0.065152295 0.28720096 -0.0034749077 -0.0834198
0.0584253 -0.13751844 0.04890384 0.06961654 0.13242403 0.13506751 0.043972008 0.16893767
0.1433465 -0.02383359 -0.07349623 -0.06472069 -0.05754728 -0.14622228 -0.010982168 -0.06285154
0.04971003 0.085011825 -0.091908745 0.029863816 0.30889866 0.18401372 0.16271295 0.08498728
0.06866224 0.10611176 -0.043111805 -0.09688664 0.024764461 0.08649601 -0.09685173 0.11488264
0.2005627 0.07991161 -0.068879165 -0.049017586 -0.13212407 0.07687846 -0.1780944 0.010177554
-0.2351069 0.15431358 0.1855473 0.1565289 -0.08077819 -0.14097612 0.25380558 0.097835876
-0.0073536206 0.026853234 -0.101721406 -0.056077633 -0.021248978 0.14314826 0.030160371 -0.08735159
-0.114459574 -0.0041318214 -0.22792733 -0.19088125 -0.033126242 -0.014232296 -0.08669653 -0.08479749
0.0229745 0.2529517 0.06016036 0.008706162 0.10327053 -0.034929737 -0.5738458 0.12335795
0.35823187 -0.034108303 0.0034835916 -0.031376895 -0.05221727 0.014178521 -0.02520336 0.19464228
0.16304521 0.046867363 -0.10132165 -0.01470772 -0.07749124 -0.05251796 -0.002055332 -0.019288162
-0.07297282 -0.0073094727 0.0074575655 0.08394569 0.046788733 -0.031125344 0.10368625 0.08254647
0.21462443 0.042143896 -0.0061757183 0.039644457 -0.062299963 -0.033063065 0.05935811 0.05582077
0.14925653 -0.09135191 0.07017402 0.044666067 -0.15769103 -0.19831501 0.059440106 0.14114699
-0.017915988 -0.053630345 -0.057661563 0.038535494 -0.06253409 0.0684266 0.04622601 0.026009966
0.052326765 -0.0027581963 0.045373425 -0.012237517 -0.076014355 0.14145802 0.19099146 0.04082859
0.06415842 -0.017475761 -0.050382968 -0.032765094 0.14238214 -0.0046379613 -0.45118624 -0.31501964
-0.03581712 0.05403476 -0.0011333777 -0.02445779 0.074015565 0.093343616 0.16484934 0.030182565
0.021273607 0.12340067 -0.056365576 0.023179306 -0.21107295 -0.2137966 -0.037315995 0.014568806
0.04615972 -0.056445446 0.035950392 0.065760106 -0.074136026 0.030172722 -0.10657427 -0.113368146
-0.09125319 -0.019445743 -0.0121989185 -0.009043456 0.03234301 -0.04248953 0.18345764 -0.19127235

lstm.weight_hh_l0 f4 [512, 128]
00000000: e3f0 73bb af7c 7c3d a46c be3d 601c 033d
00000010: 4ac7 083e 116a bcbd d53f 9a3d 3bdb 36bd
00000020: cf36 14be 0f0a a63d ef33 963d 7cc1 17be
00000030: 9077 6f3d ca1d 21be 6d1c 893c f3a0 a33d
00000040: df78 ef3d 1c59 9fbd fe77 f63d 25ba eb3d
00000050: f047 03bd 2ac5 a23c 5100 2cbc ada9 1c3d
00000060: 2a66 1fbe 699a 43bc 3ac4 4dbd c1cf ed3c
00000070: 2f7c 363d c26d 053e 9ff1 89bd 21fd 0abe
00000080: c31e 2bbd 233e b03d 66e3 293d 12d5 373d
00000090: dc35 71bd 731e ccbd 144c 91bd ab57 b8bd
000000a0: c40a 133d 1029 e63b a472 653d 08c1 5bbe
000000b0: c97f 383e 169d 133e cdc0 55be a68d 1d3e
000000c0: e4f9 343d bea6 ea3d c1f6 51bd 71b0 403d
000000d0: efb7 ab3c 324c 63bd 865c 1dbe 9b75 0e3d
000000e0: 3a88 793e 36c6 bc3d 83ad 88bc 993a 85bd
000000f0: ee3d 983d fef6 87bc 8bc0 653c e8ed c3bd
00000100: 0b98 1cbe 484a 113e d514 083e 8a99 f43d
00000110: 617a f83d cf57 34bc 026f 0abd 65a7 383d
00000120: 25b6 7a3d 3a62 62bd 980e 14be d60f 443d
00000130: 23d7 12be 3252 c23c 041c 883e 4f20 1ebe
00000140: 0b5a cbbd f09c d43d 1b30 64bd ad68 05be
00000150: 1044 a73d 0611 29be 5fc4 febb b52c dc3c
00000160: 1357 21bd 659e 113d d91d 16be ebd3 97bd
00000170: 278f 043d 87d6 ee3d 723f bdbc bed5 9d3b
00000180: b75d 46be 4e24 333d 75af 4a3e bb22 3cbd
00000190: 8558 2a3d 6a58 913c fd77 b8bd 70f1 2abc
000001a0: 0df8 15be 0ec4 ccbc b2d4 a3bd 90a9 27be
000001b0: ab8d a93c 80f8 b4bd 5846 3ebd ca15 cbbd
000001c0: 35da 5dbe 4869 e6bc 3eeb bebd 20ee 93bc
000001d0: 34d7 d03c 99a0 253e d2f7 933c de57 0dbe
000001e0: a58e b83d cf3e 82bd 31cf 223d f689 8fbb
000001f0: 1384 383c 47a2 96bd 0e97 4e3c e3cf 363d
00000200: 695a acbb e685 56bd debd fb3c 6cc4 333d
00000210: ae08 b0bd 7d83 c4bc c086 fdbc d064 a0bc
00000220: 459c 13bd d7f6 82bd bd46 d73d bdd3 793b
00000230: a932 a0bd b743 eabc be6e 5bbd 9642 00be
00000240: 19fd fdbd 2edb c0bd 1f6e 24be 73a9 94bc
00000250: c0e5 b53d db4e 943d ca79 3c3d 99df 1dbd
00000260: 460f 223d 4b6b a9bd 439a 143c 0616 5cbd
00000270: 399d 8cbd c1c7 8c3d cc75 b83c 166e 30bd
00000280: 18e7 a63b 615c 123e b72b b53c 98d8 7b3d
00000290: ea52 b73d cd7d 653d 0bcd 2e3c 2a3b e6bc
000002a0: bae1 4e3c ea86 eb3d 0340 bcbd ea17 573d
000002b0: b794 86bb 49c9 4abd 5069 053e 4962 d83d
000002c0: 1f75 8dbd 47f3 74bc 6056 d03c 06db 73bc
000002d0: 72e7 40bd 09a9 883c 03d8 86bd 9d84 b63d
000002e0: 5fcc a73d 71e0 0b3c f48a c43d aab1 09bd
000002f0: 7746 68bd c5ad fcbb d5b3 9abd 7f24 1dbe
00000300: 6159 8cbc fac7 0abd 42c4 f23b 2cc2 653d
00000310: 954b 75bd 54b2 3f3e f070 93bd 6fd5 c4bd
00000320: e3d0 8a3d b19e 94bc e325 d63d 631c e0bd
00000330: 063e d13d ef92 8dba ef86 febd 6efc ab3d
00000340: ec67 cbbd 9f59 493d debd d83d 41c1 aebd
00000350: e5f2 48bc 427f ea3d 8216 6639 5869 613c
00000360: 705b b53c c53d 8abd df37 feba 5053 e0bd
00000370: 9301 f23d 5b66 8b3d 4fe0 9e3c f965 193d
00000380: f365 b93c db77 963d 0580 0c3d 7ffa dc3d
00000390: 48f8 86bd 12c5 83bd a9d1 8e3d d364 923c
000003a0: fd9c 45bd 0c23 58bd 50fc e13d bac7 eabc
000003b0: 9548 09be 094d 8abd 2940 d5bd f611 833d
000003c0: 30c0 7c3d 3c04 88bd 31d9 383d f265 5a3d
000003d0: d69c 83bd 936d e1bc 0fc3 8c3d 5822 4a3c
000003e0: d078 09be dfa9 15bd 4562 b43d 5ccf b13c
000003f0: 9df7 9fbd e528 113e ac2b abbd a666 24bd
-0.0037222437 0.061642345 0.09298065 0.032009482 0.13357273 -0.09199918 0.07531706 -0.04464267
-0.14474033 0.08107387 0.07334124 -0.14819902 0.058463633 -0.1573402 0.016737187 0.07989683
0.11692976 -0.07780668 0.120346054 0.115101136 -0.032051027 0.019869406 -0.010498122 0.038247753
-0.15566316 -0.01193867 -0.050235964 0.029029729 0.044552024 0.1303015 -0.06735539 -0.13573124
-0.041777384 0.08605602 0.04147663 0.044880934 -0.058889255 -0.09966745 -0.07094589 -0.09001096
0.03589894 0.007023938 0.056017533 -0.21460354 0.18017496 0.14415392 -0.20874329 0.15386066
0.044183627 0.11457585 -0.051260713 0.047043268 0.02096173 -0.055492587 -0.15367326 0.034780126
0.24368373 0.09217493 -0.0166843 -0.06505317 0.07433687 -0.016597267 0.014022957 -0.095668614
-0.15292375 0.14188492 0.13289197 0.11943348 0.12132717 -0.011007263 -0.03379727 0.045081515
0.061208863 -0.055269457 -0.14458692 0.047866665 -0.1433988 0.023720834 0.26583874 -0.15442012
-0.09929284 0.10381496 -0.05570994 -0.13028212 0.08167279 -0.165104 -0.007774874 0.026876787
-0.03938968 0.035551447 -0.14659823 -0.07413467 0.032363083 0.116620116 -0.023101542 0.00481674
-0.19371687 0.043735795 0.19793494 -0.04593156 0.041588325 0.017742354 -0.09007261 -0.01043354
-0.14645405 -0.02499583 -0.07999553 -0.16373277 0.020697435 -0.0883646 -0.046453804 -0.09916265
-0.2166527 -0.028126374 -0.09322213 -0.018057883 0.025493242 0.16174544 0.018062506 -0.1380305
0.09011582 -0.06359636 0.039748374 -0.00438046 0.011261958 -0.07355171 0.012609256 0.04463185
-0.005259801 -0.05237379 0.030730184 0.043888494 -0.085954055 -0.02398848 -0.030948043 -0.019579321
-0.036037702 -0.06394737 0.10511539 0.003812059 -0.07822163 -0.028596742 -0.05357241 -0.125254
-0.1240179 -0.09416805 -0.16057633 -0.018147206 0.08881712 0.07241603 0.046014585 -0.038543317
0.039565347 -0.08272418 0.009069982 -0.05373194 -0.06865925 0.068740375 0.022517107 -0.043073736
0.0050934665 0.14293052 0.022115571 0.061485857 0.089513615 0.056028176 0.010669003 -0.028104383
0.01262706 0.11500342 -0.09191897 0.05251304 -0.0041070837 -0.049508367 0.13028455 0.105656214
-0.06907105 -0.01495058 0.025431812 -0.014883762 -0.047095723 0.016682165 -0.0658417 0.08912013
0.081932776 0.008537398 0.09596816 -0.0336167 -0.056707826 -0.0077111446 -0.075538315 -0.15345953
-0.017132463 -0.03388212 0.0074086497 0.05609338 -0.059886534 0.1872037 -0.071992755 -0.09611022
0.06778123 -0.018142076 0.10456445 -0.10942914 0.10216908 -0.0010801236 -0.1242808 0.083977565
-0.09931931 0.049157735 0.10583089 -0.08532954 -0.012264942 0.11450054 0.00021942894 0.013758026
0.022138327 -0.06750063 -0.0019395313 -0.109533906 0.118167065 0.06806632 0.019394068 0.037450764
0.022631621 0.07347079 0.034301776 0.10789966 -0.06590325 -0.064340726 0.06973583 0.017870342
-0.04824542 -0.0527678 0.11034453 -0.02865969 -0.13406594 -0.067529745 -0.10412628 0.0639991
0.06170672 -0.06641433 0.045129005 0.05331988 -0.064263985 -0.02751807 0.06873142 0.01233729
-0.13424993 -0.036538955 0.08807806 0.021705322 -0.078109 0.14175756 -0.08357939 -0.040136956

lstm.bias_ih_l0 f4 [512]
00000000: 6105 5b3d ac23 b5bc beea 0c3c 02ce 87bd
00000010: 2cf6 9bbb 56cf 96bd b70b 48bd 683f f6bd
00000020: 8fcf ae3d 3571 08bc 5a43 dabc 52b0 02bd
00000030: 6d40 c9bd 9a66 0cbd b45b f0bc 9f01 03be
00000040: cb11 8f3c 3a1d 333d 0d4c 85bd e1e3 e6bd
00000050: 8152 3f3b 0b74 163d ab8c 8fbb 8302 783d
00000060: 57d8 b8bd 1289 9dbd e1d8 8ebd cb2d 4abe
00000070: ea0d 043c 4cbc ccbd de3b 6abd 0aff ff3c
00000080: 4ea4 2abd d7c7 06bd a0b4 adbb 70a0 503e
00000090: 4df8 bbbd f1bd dfbd 4034 2a3d 6ac5 49bd
000000a0: 6178 a93c 57d1 b23d fa87 d5bd 1308 1dbd
000000b0: 57ab 923b 6729 9cbd b4f4 12bd 038a 063d
000000c0: 4bcb e5bd ed70 903d 75ca a8bd d609 12be
000000d0: 1d89 84bd 3aaa 76bc d868 97bd 49be cbbd
000000e0: 51c8 a53d 6010 13bd 2ff8 9bbd 948a 3d3d
000000f0: 475f 51bc a8dd dbbd 5bf9 793d 0331 2a3c
00000100: 9b81 8fbd 82d6 183d 42df b83c 5320 c2bd
00000110: 4d55 863d 3df1 13bd d2d5 2dbe eac8 fb3c
00000120: 6148 e2bd 7fc3 c73c 7061 1e3d d8b4 673e
00000130: 331b 2ebe b667 aabc 1c5e 44bd a8fa d0bd
00000140: 4a83 273d 6a43 cebd 2b3e 913d af1b a63b
00000150: 5b4b 5dbd f82d cc3d 2fc4 7bbd 3338 543c
00000160: 697b b7bd 3c62 efbc b294 debd 1cd4 b7bd
00000170: f88f 9c3c 3e78 7fbd a320 1ebd 951f 4abc
00000180: fc65 10be 1fe1 a0bc 2cfc b43d d42c 70bd
00000190: 5215 b7bd cb45 b8bc c856 b1bd 4053 a33d
000001a0: 1dae e03d 7c6b 48bd c59a 4cbe 84e6 60bd
000001b0: a363 c53d 7ed1 c9bd a03f eebd c6fa 05bd
000001c0: 77b7 833d c4ed 6a3d add0 953d a760 c7bd
000001d0: 6e35 8cbd 8ee9 40bd c36e adbd 8e3e f4bd
000001e0: 3260 1cbd 8d18 263d 01c9 8ebc de8d dcbc
000001f0: a9fb c5bd ff83 b0bd 7a13 9b3c 0a0f 23be
00000200: 4593 393e 6e8c 4e3d 30d0 6abd e08a 773d
00000210: f558 2e3d 4d6b 443d d46c c03c 76bb 65bd
00000220: def9 073e 82f0 463d fe94 323d 1248 0b3e
00000230: bf58 d9bc de05 3a3e fe31 ee3c 9a2a e03c
00000240: 4842 15bc 16aa 413d 2d02 d13d 6e40 9e3d
00000250: 5226 243e be87 943d e4ae 833d fcf5 b53c
00000260: a291 f43d 6aa4 62bd 236f 883b e00e ae3d
00000270: b38a 61b9 ad54 0c3c 0ccd 233d a587 7fbd
00000280: 4a20 903c 50df fc3d 7a23 d23d 01b3 863d
00000290: 5bd0 3ebd 39a2 ad3d 244d ab3d 2b81 2abd
000002a0: 40d7 4c3c 401c da3d d0fc 063b 8700 923d
000002b0: 09b8 7bbd 694c 58bc 7078 fb3d 7497 bb3d
000002c0: 88f7 123d 8858 0f3d b69d b03c 3d7d 6d3d
000002d0: d4c1 943d da4c 56bd 6e88 f63d d416 36bd
000002e0: 10a6 f83c b6f5 1d3e af07 423d 1d9a 96bd
000002f0: 0c21 78bd f3d7 ab3d 1539 bc3d 2ddb c63c
00000300: 6110 033e 757d 413d 51da 8e3d d912 8d3c
00000310: 187c 1b3e 1ef5 f33c d92e 9f3d 4ab4 35bd
00000320: 7921 eabc 5262 2fbd 18c4 cf3c df79 053e
00000330: 890b 1abe 58d9 8e3d 3942 6fbd f2a8 9f3d
00000340: 9b05 d83d e675 d93c 3df6 5dbc fd8b 71bd
00000350: f461 4b3d e9ff 1a3e 81f2 34bd 3324 92bc
00000360: afb7 233d 02d9 7b3d 1b85 a9bc 7ec3 d83d
00000370: 93bc ce3d d666 973d 10df 5bbd f0be 6bbd
00000380: 79b0 733c c50b ba3d dc87 b63d 1751 70bc
00000390: 9251 fc39 835f bebd 9c1f e4bc acb6 fd3c
000003a0: 7eb8 283e 02b8 5f3d 3d77 44bd fe35 a4bd
000003b0: 04cc a2bd c0b5 b83a 0ea9 27bd 6d23 b93c
000003c0: 68a7 403e e30b c23d e996 36bd 7fc9 f63b
000003d0: 9e17 e2bc a9ac 903d 2ba7 b2bc 0f26 803d
000003e0: 445b f23d 5dc8 803b 4c6a 113d a677 60bb
000003f0: 06c0 d6bd 38fe c3bd 1265 a73d 67fb 243d
0.053471927 -0.022111736 0.008600889 -0.0663109 -0.0047595706 -0.07363765 -0.048839297 -0.120238125
0.085356824 -0.008327772 -0.026643444 -0.031906433 -0.09826741 -0.034277536 -0.029340602 -0.12793587
0.017464539 0.043729044 -0.06508646 -0.11273933 0.0029193463 0.03673176 -0.0043807826 0.06054927
-0.090256386 -0.0769216 -0.0697496 -0.19744031 0.008059958 -0.09996852 -0.057186 0.031249542
-0.0416606 -0.032905426 -0.005301073 0.20373702 -0.09178219 -0.109249 0.041553736 -0.049260534
0.020687284 0.08731335 -0.10426326 -0.03833778 0.0044759917 -0.07625084 -0.0358779 0.032846462
-0.11220416 0.07052789 -0.082417406 -0.14261565 -0.06471465 -0.015055234 -0.07393044 -0.099484034
0.08094848 -0.03590429 -0.07615697 0.046274737 -0.012779064 -0.10735637 0.06102882 0.010387662
-0.07007142 0.037313946 0.022567395 -0.094788216 0.065592386 -0.036118735 -0.16976097 0.030735452
-0.110489614 0.024385212 0.038667142 0.2262758 -0.17002563 -0.020801406 -0.047941312 -0.10204059
0.04089669 -0.10071452 0.07091936 0.005069218 -0.054026943 0.09969705 -0.061466392 0.012952852
-0.089590855 -0.029221646 -0.10868205 -0.089760035 0.019111618 -0.06237053 -0.038605344 -0.012336631
-0.14101404 -0.019638596 0.088371605 -0.0586365 -0.089396134 -0.022494217 -0.0865913 0.07974863
0.109707095 -0.04893063 -0.19980915 -0.054907337 0.09638145 -0.098544106 -0.11633229 -0.03270986
0.064314775 0.057355657 0.07315192 -0.09735232 -0.068461284 -0.047097735 -0.08468392 -0.11925994
-0.038177676 0.040550757 -0.01742983 -0.026923116 -0.09667141 -0.08618926 0.018930186 -0.15923706
0.18122585 0.050426893 -0.05732745 0.060435176 0.042565305 0.047953892 0.023489393 -0.05608698
0.1327891 0.04856921 0.04359912 0.13601711 -0.026531575 0.181663 0.029076573 0.027364064
-0.009110041 0.047281347 0.10205493 0.07727133 0.16030243 0.07252453 0.06429842 0.022212021
0.1194184 -0.05533258 0.004163639 0.08498931 -0.00021509342 0.00856511 0.03999047 -0.06238522
0.017593522 0.12347281 0.10260673 0.06577111 -0.046585422 0.08478207 0.08364323 -0.04162709
0.0125024915 0.106499195 0.0020597465 0.07129007 -0.061454806 -0.013201811 0.12278831 0.09159747
0.035880595 0.03499654 0.021559577 0.057980765 0.07263532 -0.052319385 0.12037741 -0.044455364
0.030352622 0.15425763 0.04737061 -0.073536135 -0.06057839 0.083907984 0.09190575 0.024274433
0.12799217 0.047238786 0.06975234 0.017220901 0.15184057 0.029779967 0.07772607 -0.04436139
-0.028580414 -0.042818375 0.02536206 0.13034771 -0.15043463 0.06975049 -0.058412764 0.07795896
0.10547944 0.026545476 -0.013547477 -0.058971394 0.049653962 0.15136684 -0.044176582 -0.017839527
0.039970096 0.06148625 -0.020693352 0.10584162 0.100945614 0.07392661 -0.053679526 -0.05755514
0.014873617 0.09084276 0.08912632 -0.014667771 0.0004812596 -0.09295561 -0.027847104 0.030970894
0.16476628 0.054618843 -0.047965277 -0.08018111 -0.07949069 0.0014092252 -0.040932707 0.0225999
0.1881386 0.094749235 -0.044577513 0.0075313444 -0.027599152 0.07064182 -0.021808228 0.06257259
0.11833814 0.003930135 0.035501763 -0.0034251004 -0.10485844 -0.09569973 0.081735745 0.04027882

lstm.bias_hh_l0 f4 [512]
00000000: 60e3 05bc 2289 73bb 095f dfbc 081f 9cbd
00000010: ec8b 8dbd 5645 b9bd 100e 1c3c 68ba 8cbd
00000020: 4cd4 8cbd f814 87bd b6fe 57bd 7d7f afbd
00000030: 11bf a73b bc72 76bd f149 e8bc 3e5a 24bd
00000040: 614f f93c 4a46 c5bd 0f8c 00bd af90 213d
00000050: c16b 1abd 49cc debd 3117 b0bc d804 8ebc
00000060: 7c19 1dbe 4d96 31bd 05f3 0bbd 03a7 72bd
00000070: 199e bf3d deae f0bd db9f 76bd 8263 bdbd
00000080: 4821 12bd 3d4d 883d 4a7d 84b9 c600 293d
00000090: 6f1c 00bd a7ca 6bbd bfd4 c63c 77ab 5c3d
000000a0: 19d6 f3bd a7e0 523d e04e fcbc 86f1 aa3c
000000b0: 6487 333c 3643 2c3d 8c37 a03c a35a 50bd
000000c0: 7a21 9bbd 5519 63bd 56fe e83b 6d5e edbd
000000d0: 1ce5 653d 9404 b6bc 0fe3 8ebd 3356 f5bd
000000e0: e4ea b53c 83a9 3a3c f9e7 0b3d 98e2 8cbd
000000f0: f90f 8cbc d47d 5a3d 669e 713d 748d 0abe
00000100: 39a0 05bd 2771 9ebc ae7d bcbd 67ff dabd
00000110: 867d 6f3e c681 39bd d448 0fbe 2a25 063d
00000120: e491 f73c 91ca a43d 53bf 263c 8360 213e
00000130: a886 89bd 1797 f93c 3ea0 aa3b f4f7 09bc
00000140: 5949 0abd 306c 65bb 4b18 923d bff5 6d3d
00000150: accc a3bd fbbd 193d cebe c2bd 6d3b 2c3d
00000160: dde9 cbbd 5820 4bbd 1db9 8cbd c38d 50bd
00000170: f2eb 89bd 3976 65bd 4218 9bbd 49ae 803c
00000180: 4160 bcbd 0e0b 4e3d 9c14 d5bb 4902 3dbd
00000190: 6db8 7a3c 58f8 9c3c 33a8 ce3c 0b21 b83d
000001a0: d24a da3d 30b3 76bc 29c8 a1bd 6a2a 583d
000001b0: 6b14 5d3c 0f3b 283d 62f7 8bbc 6b9c 05bd
000001c0: 9ec0 de3d a617 10bd 401b b6bc cac1 19bd
000001d0: 46b4 193d f045 7f3d cc74 10bc c915 37bd
000001e0: 6d6c cb3c 70fb 793d 1cdb 263d 774d dcbc
000001f0: d598 86bd 2b6d f0bd 3765 fdbb fb92 72bd
00000200: 3ecd 2b3e 36f3 5b3d a5f9 3f3d 2aa9 a0bd
00000210: be5b 9abd 143c 5fbd 6fd1 073d f894 fd3c
00000220: 3b21 1c3e 896f 483d 6a68 033e 6947 363c
00000230: 15f1 b6bd 386b 2f3e ba29 9f3c f4ec e13c
00000240: 0d17 a73d cd69 52bd f0e9 e33d c575 1b3e
00000250: 1a5b 323e 09ab fb3c 2ec8 6abc d141 b73c
00000260: 396a 063c 6316 ef3c 65ab e63d 51a8 e93d
00000270: 0a38 1dbc 5f58 ac3d 8edc b8bd f83b cd3c
00000280: 43ee 193e adf2 393d 26e5 f33c 456f 9739
00000290: 501d d23c 2d4e 1f3e 804a 813d fb54 0abd
000002a0: 2b26 7cbd 4f97 473e f705 dabc fdfc 49bc
000002b0: 308e 153d 81ad f6bc e802 043e 8173 fa3c
000002c0: 76b8 77bd cb37 ce3d b723 d13d b4ad de3c
000002d0: db9a 813d 3d3c a6bc eb62 873d e87b 9abd
000002e0: 2d82 bc3d 5e75 eb3d 6b4a 523d 48e8 cc3c
000002f0: 5924 02bd c0ba c23d a9ff bd3d 9f0e 8c3d
00000300: 3fef 043e 0548 f13d 80a9 b23d fd6d 583d
00000310: 23a1 69ba a420 b73d c896 de3d 5890 9fbd
00000320: b94e 84bb 8589 be38 e521 693d 62e0 e4bc
00000330: b45f f7bd 23cb 9e3c 4439 a8bc 2189 8c3b
00000340: 7c90 c93d 0257 d3bd c5d9 cbbc fbbc 913d
00000350: 4d62 20bd 2c54 633d 4b3f 20bd 5792 963d
00000360: 072d e53d e914 763d c32f 8e3c a770 013d
00000370: 78ad edbb 7642 a9bd dfbe 053d 2c1c 393d
00000380: 9083 3abd 20bd 513d 124b ea3c b034 8b3d
00000390: a063 f23b dcbf 8ebd 2944 a53c b539 043e
000003a0: 1d4c 473d 5d92 7d3d 8ec4 d63c 28b0 23bc
000003b0: f9d6 84bd e474 73bd 3a2b 63bd bb2c 633d
000003c0: 1de6 4f3e ee13 113d 792c b9bc 5b24 49bd
000003d0: bc24 643a aca0 9f3d d298 9b3d 6ec9 363d
000003e0: 297f f13d aecd d6bb e91f 3a3d 98c1 1e3e
000003f0: e969 813c 0d56 0bbc 8c82 033d 7298 8a3d
-0.008171886 -0.0037160595 -0.027266996 -0.07623106 -0.069114536 -0.09046428 0.009524837 -0.06871492
-0.0687643 -0.06595796 -0.052733146 -0.08569238 0.0051192124 -0.060168013 -0.02835557 -0.040125124
0.030433359 -0.09632547 -0.03138357 0.03944462 -0.03770042 -0.10878808 -0.021495434 -0.017336294
-0.15341753 -0.04335623 -0.03416731 -0.059241306 0.093563266 -0.11752103 -0.060211044 -0.09247495
-0.03567627 0.06655357 -0.0002527035 0.041260503 -0.031277116 -0.05756631 0.024271367 0.05387446
-0.1190607 0.051483776 -0.03079933 0.02086712 0.010957573 0.042056285 0.019557737 -0.050867688
-0.075747445 -0.05544408 0.0071103973 -0.11590276 0.0561267 -0.02221898 -0.06976902 -0.11979332
0.022206731 0.011392954 0.034156773 -0.06879157 -0.01709746 0.053342655 0.05898895 -0.13530523
-0.032623503 -0.019341065 -0.09203659 -0.106932454 0.23387727 -0.045289777 -0.13992625 0.032750286
0.030220933 0.08046449 0.010177451 0.15759473 -0.06715137 0.030467553 0.0052070906 -0.008420933
-0.033761356 -0.0035007112 0.0713354 0.05809569 -0.079980224 0.037534695 -0.09509049 0.04204886
-0.09956715 -0.049591392 -0.06871245 -0.050916445 -0.06734456 -0.05602095 -0.07572986 0.015708106
-0.091980465 0.05030351 -0.006502701 -0.046144757 0.01530276 0.019161388 0.025226688 0.089906774
0.10658802 -0.01505737 -0.07899506 0.052774824 0.013493638 0.041071948 -0.017085735 -0.032619875
0.108765826 -0.035178803 -0.02222979 -0.037538327 0.037525438 0.062322557 -0.008816909 -0.04469851
0.024831975 0.061030805 0.040736303 -0.026892407 -0.06572119 -0.11739572 -0.007733013 -0.059222203
0.16777512 0.05369874 0.04686894 -0.078447655 -0.0753703 -0.054500654 0.033158716 0.030954823
0.15247051 0.048934493 0.128328 0.011125424 -0.089327015 0.17130744 0.019429076 0.027578808
0.081586935 -0.05137043 0.111286044 0.15181644 0.17417565 0.030721204 -0.014329953 0.02237025
0.008204036 0.02918548 0.1126316 0.11409057 -0.00959588 0.08415293 -0.090264425 0.02505301
0.15032296 0.04539745 0.029772352 0.00028883867 0.025648743 0.15557165 0.06313038 -0.03377245
-0.061559837 0.19491313 -0.026614172 -0.0123283835 0.036512554 -0.03011203 0.12891734 0.030572655
-0.06047865 0.100692354 0.1021189 0.027182437 0.063283645 -0.020292396 0.06610664 -0.075431645
0.092045166 0.114969954 0.0513405 0.025013104 -0.031772945 0.09508276 0.09277279 0.06838726
0.1298189 0.11781315 0.08723736 0.052839268 -0.0008912256 0.089417726 0.10868603 -0.07791203
-0.004037705 9.085521e-05 0.05691709 -0.027939025 -0.12078801 0.019383973 -0.020535119 0.004288808
0.09842011 -0.1031933 -0.024884114 0.07116123 -0.039156247 0.055500194 -0.03912286 0.07352131
0.11190229 0.060078535 0.017356759 0.031601574 -0.007253345 -0.082646295 0.032652732 0.045192882
-0.045535624 0.051205754 0.02860025 0.06797159 0.00739713 -0.06970188 0.020174103 0.12912638
0.04865657 0.06190716 0.026216771 -0.009990729 -0.06486315 -0.059437647 -0.055461146 0.05546258
0.20302625 0.035419397 -0.022604214 -0.049106937 0.00087029836 0.077943176 0.075975075 0.044625692
0.11791832 -0.0065552806 0.04544059 0.15503538 0.015797572 -0.008504403 0.03210692 0.06767358

lstm.weight_ih_l1 f4 [512, 128]
00000000: cf67 373e a39a 433c bbb0 15bd daec c5bd
00000010: a917 13bd 65c1 b1bd e72d 0cbd 4537 2cbe
00000020: 3731 1cbd d4f0 42bc 843f afbc 4b4a f7bd
00000030: 88ff 8e3d d97b c0bd 3b3a f73c 29d2 72bd
00000040: b8b9 47be efad a3bc 1bb1 a1bd 1d6b 8abd
00000050: c592 243e 6206 443c 7b77 1fbd 64ea 3fbb
00000060: b52f c3bc ab13 17bd a7ad 50ba 4f9f 90bd
00000070: 3b72 0b3c eeb0 de3d 0404 49bb f4d4 52bd
00000080: 92b0 c9bb 2dcd 283d d4ed fb3d 764b f53a
00000090: 0ed6 bcbd 9ba9 4cbd 36e8 59bc 1640 243d
000000a0: e4fa febc d27b 353c bf18 8d3d 3a0d b5bd
000000b0: e0e1 9e3d 2e7c 03bd c98e e43c ae12 8d3d
000000c0: 8e1d 4d3d d906 e73d 367f 91bc d70c a4bd
000000d0: 3444 273d d9a7 febc 5717 d4bd 2131 e2bd
000000e0: 8f43 093d 25df 3cbb 6654 0b3d 614e 6fbd
000000f0: ddec fb3c df55 d33d e427 a8bd 3090 0a3d
00000100: e220 203d 0995 f2bc d0b4 90bc 6944 c03d
00000110: d5d8 b63d 0bef d23c 8611 f9bd 796d dfbd
00000120: e0ac e0bc 93c8 90bd bd92 123d d4dd 173c
00000130: e14c 48bc d2ee b83d 7a5f 8b3b ed14 dcbb
00000140: cdc8 3ebc bfdb ee3d 7ad2 a3bd 5d7c 54bd
00000150: dfe4 b7bc 86dd 2e3c a63b 9dbb c9da f53c
00000160: 06d8 823d 08d7 7f3d 2897 083e 8e92 4d3d
00000170: b2ff 96bd 9e32 323d a309 87bd f8b9 003c
00000180: 594d 83bd 6061 1abe 0e28 513d 9b8e 083d
00000190: 61e7 4a3d 4435 d8ba bb13 843d 519b 33bd
000001a0: 29b8 0cbc 2081 a0bd 98d2 a3bd e13a d6bd
000001b0: c7cf bcbd 139b 943d 51f7 e2bd dc8e a83d
000001c0: 4a8b a93d 8ba1 2ebd f92b 3c39 3577 72bd
000001d0: b7ed 433d bba6 d7bc cb3e 773d 6d86 bf3c
000001e0: 17d1 d93c 84d0 8ebb 1988 8c3d 5163 00bd
000001f0: 9542 513d 2856 183e 1d95 b73d bb63 aabd
00000200: bba7 54bd 8241 cdbd 1c7b 823d 7fea 5d3d
00000210: 2af9 61bd 173b b6bc 2307 7c3c c58f 8cbd
00000220: b34c 9ebd eda9 a33b b49d d93a 7615 e13d
00000230: 9ccd c33d c304 50bd 6469 6dbd 6f0f d8bd
00000240: b1e3 26be 9a3e 08bd 3f89 8d3c 92f7 d6bd
00000250: fd70 b63d cf8c 263b 5382 9d3c 6862 453c
00000260: f5ca ec3c bdcd 92bb 7ccf 1dbe b276 7abc
00000270: 6254 cd3c 77fb 1c3d fc15 5bbd 24c9 e9bc
00000280: fcfb 2dba b15c f9bc f4e8 27bc 4524 f9bc
00000290: d9b5 3b3d 6095 32bd 55d8 bd3a 3ace 833d
000002a0: 2386 ea3c 0e1a b43d 8298 813d f33b 583d
000002b0: 2efd 1b3d f3bd d7bd 1b74 00be 1d91 9bbd
000002c0: 2bc2 b5bd ac11 723c 52b7 403d de76 883c
000002d0: 827c adbd 5c7e 073d 13aa 553d a930 ab3d
000002e0: a3c0 e2bc e03d 6bbd f3a2 883d f37c 2d3d
000002f0: 9665 cdbd cae6 9f3c d497 003d b828 4d3d
00000300: d362 163d b593 b93d 9c6f 06bd 9275 313d
00000310: 0f99 353d a2e7 893d 7fa1 5e3d 3f22 443d
00000320: a6af bfbd c232 ec3d d3f7 adbc b4d6 063b
00000330: 95f1 ffbc 5310 7b3d 4e6c 9b3d 2afc 973d
00000340: d756 e2bd 4dfc d3bb 703d 51bc c8e3 69bd
00000350: f2f1 503c a715 6ebb 608a 8cbd 3710 e4bd
00000360: d282 043d 2349 043d 9c62 1fbd 0e23 e33d
00000370: a6d5 3abd c969 b3bd cd83 ea3d a926 953d
00000380: 2ae6 d13b b32c f6bc 9f4c 1b3d 30e7 673d
00000390: f533 72bb 3805 853d 70e0 8f3d 12eb ebbd
000003a0: 0a0d 773d 59ee 103d 2355 85bd 13fb ee3c
000003b0: 7dc9 97bd 0444 41bd 8f69 b1bd 7dde dcbc
000003c0: ab6b 003d 5fd3 2c3b 4535 66bd a751 c9bc
000003d0: e1e7 873b 5466 49bd 3ead d03c 4b6a 3c3d
000003e0: cb7d 173d 0556 54bd 12bd babc 7d48 c93c
000003f0: 1497 c0bd c9d9 df3d f298 0d3b 153c 2e3d
0.17910694 0.011938724 -0.036545496 -0.096643165 -0.035911236 -0.08679465 -0.034223463 -0.16817959
-0.038132872 -0.011898238 -0.021392591 -0.12074717 0.069823325 -0.09398622 0.030179134 -0.059282456
-0.1950444 -0.019980399 -0.07895108 -0.067587115 0.16071613 0.011964412 -0.038932305 -0.0029283995
-0.02382646 -0.03688399 -0.00079604465 -0.07061636 0.008511121 0.108735904 -0.003067256 -0.05147262
-0.006155082 0.041211296 0.123012215 0.0018714506 -0.09220515 -0.049966436 -0.013299992 0.04010018
-0.031125493 0.011076884 0.068894856 -0.088404134 0.07757926 -0.03210085 0.027900117 0.068883285
0.050077014 0.11280603 -0.017760854 -0.080102615 0.040836528 -0.031085895 -0.10356014 -0.11044527
0.033511695 -0.0028819528 0.034016035 -0.058424357 0.030752594 0.10319113 -0.082107335 0.033828914
0.03909386 -0.029612081 -0.017664343 0.09388048 0.08928076 0.02574875 -0.121615455 -0.10909552
-0.027426183 -0.070695065 0.03578447 0.009269197 -0.012225361 0.09029926 0.004253325 -0.0067163617
-0.011644554 0.11663007 -0.079991296 -0.051876415 -0.022448001 0.0106729325 -0.0047983704 0.030011551
0.063888595 0.06246093 0.13338912 0.050188594 -0.07372989 0.043505304 -0.06593635 0.007856838
-0.06411237 -0.15076208 0.05106359 0.033339124 0.049537066 -0.0016495367 0.06449076 -0.043849293
-0.008588829 -0.07837129 -0.07999152 -0.10460449 -0.09219318 0.072561406 -0.11082328 0.08230373
0.082785204 -0.042634528 0.00017945458 -0.059195716 0.047834124 -0.02632462 0.06036262 0.023379529
0.02658896 -0.004358353 0.06861896 -0.031344716 0.05108889 0.14876616 0.08963988 -0.08319803
-0.051917773 -0.1002226 0.063711375 0.05417871 -0.055169262 -0.022244973 0.015382561 -0.06863359
-0.07729473 0.004994622 0.0016602785 0.109904215 0.09560701 -0.05078579 -0.057961836 -0.10549819
-0.16297795 -0.033262827 0.017277358 -0.10496439 0.089082696 0.0025413518 0.019227182 0.012047388
0.028905371 -0.0044800923 -0.1541118 -0.015287088 0.02506465 0.038325753 -0.053487763 -0.028538294
-0.0006636975 -0.030439707 -0.010248411 -0.030412802 0.04582772 -0.043599486 0.0014484028 0.06435819
0.028628414 0.08794032 0.06327917 0.052791547 0.038083248 -0.10534277 -0.1254429 -0.075960375
-0.08874925 0.014774721 0.047049828 0.016658243 -0.084710136 0.03307949 0.05216415 0.083588906
-0.027679747 -0.057432055 0.06671705 0.04235549 -0.100291416 0.019519228 0.031394795 0.05008766
0.03671534 0.09061376 -0.032821283 0.043325014 0.04433542 0.067336336 0.054353233 0.047884222
-0.09359674 0.11533119 -0.021236336 0.002057475 -0.031243125 0.061294865 0.07589017 0.07421143
-0.1105172 -0.0064692856 -0.0127709955 -0.057101995 0.012752997 -0.0036328824 -0.068623304 -0.11135905
0.032351322 0.03229631 -0.0389124 0.110906705 -0.045613907 -0.08760411 0.1145092 0.072827645
0.0064056115 -0.030050611 0.03791487 0.056616962 -0.0036957238 0.06495136 0.0702523 -0.115194455
0.06031517 0.035383556 -0.06510379 0.029172456 -0.07411478 -0.047184005 -0.08662712 -0.02696156
0.03135268 0.0026371104 -0.056203146 -0.024575068 0.004147515 -0.049169853 0.025473233 0.045999806
0.0369852 -0.051839847 -0.022795234 0.024570698 -0.09403816 0.10930211 0.0021606055 0.042537767

lstm.weight_hh_l1 f4 [512, 128]
00000000: 05c0 463d 652d 3b3d 3c1c 3bbd 32de 2e3d
00000010: 45b5 a2bc 978c 1b3e d1c2 b23d e516 d43c
00000020: 8266 6bbd 6bab b03d eade 223d 5ad8 d03c
00000030: d5d1 aabd 4fdd edbc 9dc7 01ba 2f91 473d
00000040: e8d0 52bd 92bb 4a3d 7c49 e13c c3e0 30be
00000050: 1649 14bd c227 40bd 10a0 c33d bbba 44bd
00000060: 26b9 42bd 534b 98bd c740 30bd 21b5 3cbc
00000070: 8cf6 81bd 093c f6bb 051a 18bd efe9 c8bc
00000080: b7d4 9ebd 23f4 41be 1789 003d 2c3d 57bd
00000090: ebf1 42bd 809a 683d 471b 5fbd 5655 88bd
000000a0: 2135 6a3d f746 7e3d 1ef9 913c 6bfb 5abd
000000b0: 2c98 983d f150 cdbc c3bf 863d 4950 99bd
000000c0: 15cb 9ebd f38c 983d 629b 853d 2b73 053e
000000d0: e6b5 153e 1c09 833d 67ab e5bc 35ce bebd
000000e0: 29d9 bb3b 31fc 18bd 4ae1 4dbd acab 463d
000000f0: 0d21 0fbc 182a 02be f195 5cbd 8e88 aa3d
00000100: 2c21 21bc e75e db3c 64c2 f3bd a25f 89bc
00000110: 9ddb acbd 8538 fe3c 44c1 bd3c 0264 36bd
00000120: 8ddc 88bd 0579 0f3d b7ae ef3c 431a ffbd
00000130: 2fbd c2bc 0682 0b3d 7bcd eebc 2e49 bc3c
00000140: 5037 8ebd 74d6 c6bc 6ca4 cdbd 5e77 793d
00000150: f0e8 8a3d 9c27 6b3d 6858 d6bd 188b 6abd
00000160: 9f08 9a3d f41c 383d 54da d33d 1887 4dbd
00000170: 8f23 93b9 1e62 11bd 5b6a 0c3e 0a04 abbd
00000180: 4f32 173d 4816 12be 8e4a 7bbd 24db bcbd
00000190: a26f 5b3d 88b5 e23d e3c1 28bb 8e03 7dbc
000001a0: 3738 45bd 88ac f5bb 1675 fd3c 1ee9 8fbd
000001b0: 46d7 233d 5295 5c3d 6cf8 dd3d 6a66 9f3b
000001c0: a95e ecbc be5d dcbc 8fdd 63ba d1f5 c1bc
000001d0: cd55 d4bd 0cb5 173d bfba 873c 5173 84bd
000001e0: b24b 503c eb45 bf3d 0cfa 75bd b82e 693c
000001f0: 9fec 6ebc 0662 a2bc 6a9c 2dbd d768 163e
00000200: 300f f7bc 3ea9 03bc 951d 27be 7aa2 543d
00000210: 0f34 813d ffbc 483d 0786 4f3c d416 933c
00000220: 4e95 8fbc ef5c debc 4d4c 593d c608 fa3c
00000230: 1a4f c6bc ecfb f03d 7d51 283d 6abf 7ebd
00000240: e27d 68bd 933e b03d 1bef 78bc e986 18bd
00000250: d6d4 c53c b32a bb3d 3208 9abd 9d60 b1bd
00000260: be14 933d 52d9 45bd 1498 0bbd 72e8 933d
00000270: a247 fd3d f73a 61bd eb36 b9bd 24f6 893d
00000280: 991b 69bb 619c 82bd 0828 80be ae63 25bd
00000290: 79d3 fcbc 18af 9ebc 7d78 f5bc 3b62 113e
000002a0: 3e6d 0f3e 76e2 a8bd 6dca a63d 23b1 aebd
000002b0: 4752 d03d 7680 20be ce64 723d 031d 4abd
000002c0: 3ba8 aa3b b895 bc3c c976 f4bd 39f3 f93d
000002d0: 7dbd 103e 6b3c 053d f433 86bd bab9 5dbd
000002e0: 2f95 28bd c4eb 17bc a86a 083d c94f 0dbd
000002f0: cc83 ed3d 27ce 2e3d 5b2d aabd 2997 f2bd
00000300: a62b a33c 97a1 df3b 6e2e fdbd d16d 88bd
00000310: 43c7 6e3d dfbd 28bc c346 a93d 023a 23be
00000320: b4a2 1dbd be6c b9bd 4dfe 45bc e63c e2bc
00000330: 8b83 52bc b729 dd3d 9c4b ab3d 23b7 213d
00000340: 7056 38bd 7621 83bd bf54 00be 1004 d83d
00000350: 4d45 9fbc 5eef 34bd fe55 d7bd 605f ecbd
00000360: 102d 9f3d eefa 8fbb 940d fb3d 1c5d 8fbd
00000370: 03b5 01be 86a0 b53d a77d bcbc d095 10bd
00000380: 7908 f53d 8501 84bd 2f1a da3d 3f8e 333e
00000390: 0bf1 d63a a7fe e53d 9978 5fbc 9447 a2bd
000003a0: 8bf0 71bc 6f5a 533d b5f3 31bc c6c0 41bd
000003b0: d976 32bd 6bfa fa3c c4ca db3d 69d7 e53c
000003c0: 937b 04bd e24b 7e3b e9cc 3bbd 40ad ce3d
000003d0: 32b4 7fbd 7611 123d d3ba a0bd e11d 10be
000003e0: 3106 edbd 662c c73d 2d9f d0bc 0eff b8bd
000003f0: 5623 7bbc b366 393d fb4c 7e3d 4c3e 913d
0.048522968 0.04569759 -0.045681223 0.04269237 -0.019861827 0.1519035 0.087285645 0.025889823
-0.057470806 0.086264454 0.03976337 0.02549379 -0.083408035 -0.029036192 -0.0004950704 0.048722442
-0.05146876 0.049495287 0.02750086 -0.1727324 -0.036202513 -0.046912916 0.09552014 -0.048029643
-0.047539853 -0.07436242 -0.043030526 -0.011517794 -0.06345853 -0.007514481 -0.03713419 -0.02452561
-0.07755416 -0.18940787 0.03138074 -0.052548572 -0.047593992 0.056787968 -0.054469373 -0.066569015
0.057179574 0.062079396 0.017818984 -0.053462427 0.074508995 -0.02506301 0.065795444 -0.07486016
-0.077535786 0.07448759 0.065237775 0.13032214 0.1462017 0.06398222 -0.028035833 -0.093166746
0.0057326746 -0.037349883 -0.05026368 0.048503563 -0.008735907 -0.1271137 -0.053853933 0.08326827
-0.009834569 0.026778651 -0.119023114 -0.016769234 -0.084403254 0.03103281 0.023163445 -0.04452897
-0.06682692 0.035027523 0.029258115 -0.12456181 -0.02377185 0.034059547 -0.029150715 0.022984114
-0.06944144 -0.024272181 -0.100411266 0.060904853 0.067827106 0.05741082 -0.10466081 -0.057261556
0.075211756 0.044949487 0.10344377 -0.050177664 -0.00028064518 -0.035493962 0.13712446 -0.0835038
0.036913212 -0.14266312 -0.061350398 -0.09221485 0.05357326 0.110697806 -0.002575033 -0.015442742
-0.048149314 -0.007497374 0.03093962 -0.070268854 0.040000223 0.05385334 0.10838398 0.0048645036
-0.028853731 -0.026900169 -0.00086923776 -0.023676785 -0.10367928 0.037037894 0.01656854 -0.06467307
0.01271336 0.09339508 -0.060052916 0.01423233 -0.014582782 -0.019822132 -0.042385496 0.1468843
-0.03015861 -0.008035956 -0.16319878 0.051912762 0.063087575 0.049008366 0.012666232 0.017955221
-0.017527249 -0.027143924 0.05305128 0.030521762 -0.02420764 0.117668 0.04109334 -0.062194265
-0.056760676 0.08605685 -0.015193726 -0.037238035 0.02414934 0.091390036 -0.075210944 -0.08661006
0.07181691 -0.048302956 -0.03408058 0.0722207 0.123671785 -0.054987874 -0.09043678 0.06736401
-0.0035569428 -0.06377483 -0.2503054 -0.040378265 -0.030862557 -0.0193706 -0.02996468 0.14197628
0.14006516 -0.08246319 0.081440784 -0.0852988 0.10171943 -0.15674004 0.059178166 -0.049344074
0.005208043 0.02302061 -0.11936719 0.12204594 0.14134784 0.032528322 -0.06552878 -0.0541322
-0.041157898 -0.0092725195 0.03330484 -0.034499917 0.11597404 0.04267707 -0.08309432 -0.11845238
0.019918274 0.006824683 -0.123623714 -0.06661571 0.0582955 -0.010299175 0.0826545 -0.15940097
-0.038485244 -0.09053944 -0.012084556 -0.02761693 -0.012848745 0.10798972 0.08364031 0.039481293
-0.04500431 -0.064028665 -0.12532328 0.1054765 -0.019442225 -0.04417359 -0.105144486 -0.11541629
0.07772267 -0.004393927 0.12258449 -0.07000181 -0.12666707 0.08868508 -0.023009134 -0.035299122
0.11964507 -0.06445602 0.106495254 0.17534731 0.0016398741 0.11230212 -0.013639593 -0.07923809
-0.014766823 0.051599916 -0.010861327 -0.047302984 -0.043570373 0.030636987 0.10732034 0.028056817
-0.032344412 0.0038802554 -0.045849714 0.100916386 -0.062427707 0.035661183 -0.07848134 -0.14073898
-0.115734465 0.09725265 -0.025466526 -0.09033023 -0.015328249 0.045263957 0.062085133 0.0709196

lstm.bias_ih_l1 f4 [512]
00000000: 2d4e 6d3d 6435 6dbd 3eca a4bc d9a6 52bc
00000010: 216c 4ebd 487f 85bb 1a35 e53c 8234 6e3d
00000020: a3d0 b63c 9540 8c3d 4fa6 aabc 3314 763d
00000030: 3220 44bd 194e 1e3d 6b79 afbd 5939 523c
00000040: f4b7 59bd b1be fcbd 9e9d 8a3c b3d5 c43c
00000050: fb1d c6bd ade1 cfbd 4874 023d d351 c13b
00000060: e5b9 59bd c9e8 65bb eec8 08bd df3f a23d
00000070: c301 aabd 892e d83d c729 4cbd 9a9d acbd
00000080: 6b79 793d 3599 7cbd a591 763c ce6d a3bc
00000090: 703b c9bd d651 25bd 10ad f23c b1bf 593d
000000a0: 2a95 823c d968 62bd 7b61 31bd b6d2 01be
000000b0: 0c8e 693d b4fe 19bb 3bb9 4ebd 5216 f4bc
000000c0: 0a08 903d 9f67 8b3c 2671 6dbd dafd f3ba
000000d0: e5e3 f53b 38f7 e4bc aa65 97bd dcdc a83a
000000e0: e087 e93b 5324 6dbd a221 213d 9656 8d3d
000000f0: 5f01 19bd 6e46 5c3c c8ed 383d f159 cd3d
00000100: c504 a6bc 08b5 0dbb 37cc b0bd c510 7cbd
00000110: b6da f5bd 2ed4 87bd b62e 88bc 04e9 30bd
00000120: 9d8b b8bc 91d6 373d f9b2 69bc 7800 c13c
00000130: 838f 0abe 4999 fbbc aa67 ac3d 7ff2 e5bd
00000140: f6c9 88bd 69e4 723c 429b 8abd 2188 64bd
00000150: 9270 973b de47 7b3d 926b cdbd 541b c2bc
00000160: 1ca6 c6ba bf78 403d 09e8 f8bd efb7 d63d
00000170: 73cc 773d 9dc6 55bb a7df 943d 836c bcbd
00000180: d274 dfbb 25d2 b039 1776 053b 2c45 333c
00000190: c06a 5dbd 5535 2c3d 95ce b8bd 0558 0dbd
000001a0: cf10 1fbd 9540 42bd e55e 503b e4c6 36bc
000001b0: 407d debd 58f3 10bc 21c2 c6bd 8007 d33c
000001c0: d261 b1bc ac6b 84bd 5b22 053a c137 493d
000001d0: 1d71 35bc 5432 4a3d 2573 9cbb ef4c 023d
000001e0: 9c25 98bc ae30 31bc ab54 60bd 9d31 94bd
000001f0: 308e 923d cc37 213d 41c7 923d 403e e8bd
00000200: 4e76 583d 2430 9bbc 7c77 8ebc c86f a83d
00000210: a475 963d f65d 483d 1be3 5c3c 72d0 cc3d
00000220: 07ba 873d f73b 0a3c 155a f2bc e378 103d
00000230: 3f70 87bd 49b8 44bd eb8e 353c 651d 583d
00000240: dec7 47bd 9c1e 3cbc 3479 f6bc d750 93bd
00000250: ac04 713d f673 24bd 962b 683d deaa 0e3d
00000260: 9933 893d 76d2 d93c 9f98 10bd 0c33 a13c
00000270: 0317 813d 361c ad3d 4c4e 97bd 26f5 22bd
00000280: b85c 5dbd 3a97 723d 98d6 aabd 7b2b 9abd
00000290: 310d 76bc 6854 f83c e2cc 9c3d becd e93d
000002a0: 97a6 02bd 2b30 bfbd 7d0f 293c 5e95 c8bd
000002b0: 90fe b03d e5d6 113d 3dd1 90bd 4cfb 05bc
000002c0: b3b7 473d cb8a 823d c985 cabc b886 b33d
000002d0: 18d2 823d 1692 093d a99a 283b 09ee e73b
000002e0: 1acc 2bbd ec4d 0bbd 4a65 523d 962a ce3d
000002f0: e172 a0bd 181e 6bbc 6745 0fbd 4282 503d
00000300: e8fd 3d3b f88a 8bbd 7de5 72bc 92df a9bd
00000310: 343b 3f3d 4c79 21bd dbcb 44bb 857f 58bd
00000320: b6d4 163d c73f a3bc e160 483d 4520 a13c
00000330: 4b2d d4bd b143 acbc b130 ac3c ceb2 863d
00000340: 1f05 9c3a faef 2e3d 2e55 c9bd f46d 833d
00000350: 2c11 08bd 052d 90bd 2045 7abd c2e3 303d
00000360: 9083 9c3c b48d b9bd 2d32 1b3d 6e01 8a3c
00000370: 08f4 25bd b624 14be befd 9b3d 05d6 183d
00000380: 5ea0 a7bd 917d 803d e69b 8bbc 3f43 42bc
00000390: eca5 8cbc f437 383d cfd5 c3bb 2112 8c3d
000003a0: 5c47 72bc 2fe8 72bd 907e 983b 017d 6c3d
000003b0: c2ca fb3c b0ac f6bd 5c4e 123e 8b50 213d
000003c0: b6cf afbd 6976 8d3b 4c03 b23d 2bb4 0bbd
000003d0: 0259 293d a31f cd3c f051 4e3d 9f58 7bbd
000003e0: 9f63 2a3c 723c 32bd 0123 dfbc 41dd 7e3a
000003f0: 454c 363a b333 343c 3e67 b13d 9ae0 27bd
0.057935882 -0.057912245 -0.020115968 -0.012857162 -0.05039609 -0.004074011 0.027979422 0.058155544
0.022316283 0.068482555 -0.020831255 0.060077857 -0.047882266 0.0386487 -0.085680805 0.012831056
-0.053153947 -0.12341059 0.01692086 0.024027681 -0.09673687 -0.10150466 0.031849176 0.005899647
-0.0531558 -0.0035081378 -0.033394746 0.07922339 -0.08301117 0.10555751 -0.04984453 -0.084284976
0.06090681 -0.061669547 0.015049373 -0.01994982 -0.0982579 -0.040361248 0.029623538 0.053161327
0.015940268 -0.05527577 -0.043305855 -0.12678036 0.057020232 -0.0023497762 -0.05046962 -0.0297958
0.07032783 0.017017184 -0.057969235 -0.0018615082 0.007503974 -0.027949914 -0.07392438 0.0012883204
0.0071267933 -0.05789597 0.039338715 0.069012806 -0.037354823 0.013444526 0.04514864 0.100269206
-0.020265946 -0.0021622796 -0.08632701 -0.06153943 -0.120046064 -0.06632267 -0.016623836 -0.04319097
-0.02252751 0.04488236 -0.014263862 0.023559794 -0.13531308 -0.03071274 0.0841821 -0.11227893
-0.06679146 0.014824965 -0.06767894 -0.055793885 0.0046215737 0.061347835 -0.10030283 -0.023694672
-0.0015155706 0.046990152 -0.12153632 0.10484301 0.060497712 -0.0032619603 0.07269221 -0.092003845
-0.006819346 0.00033725906 0.0020364576 0.010941785 -0.054056883 0.04204305 -0.090237774 -0.03450777
-0.03883439 -0.04742487 0.0031794843 -0.011155818 -0.10863733 -0.00884708 -0.09704996 0.025760412
-0.02165309 -0.06465849 0.0005078667 0.049125437 -0.011074332 0.049364403 -0.0047744685 0.03181165
-0.018572621 -0.010814829 -0.054768246 -0.072360255 0.07156026 0.039359853 0.07166911 -0.11339998
0.0528472 -0.018943854 -0.017390959 0.082244456 0.07346657 0.048917733 0.013481881 0.10000695
0.06627279 0.008437148 -0.02958397 0.035271537 -0.06613206 -0.04802731 0.011081438 0.052762408
-0.048774593 -0.011481907 -0.030087091 -0.07193153 0.058842346 -0.04014965 0.05668219 0.03483092
0.066992946 0.026589613 -0.0353018 0.019677661 0.06303217 0.084526464 -0.07387981 -0.039784573
-0.0540435 0.059226252 -0.08341712 -0.075278245 -0.0150177935 0.030313686 0.07656266 0.11416195
-0.031897154 -0.09335359 0.010318634 -0.097941145 0.08642304 0.03560533 -0.07071159 -0.00817759
0.048759174 0.06374129 -0.024721997 0.0876593 0.063877285 0.033586584 0.002572695 0.0070779365
-0.041942693 -0.03400986 0.051366128 0.100667164 -0.078344114 -0.014350437 -0.034978297 0.050905474
0.0028990451 -0.068136156 -0.014825222 -0.08294596 0.04668732 -0.03942232 -0.0030028734 -0.052855987
0.03682395 -0.019927872 0.048920516 0.019668708 -0.103602014 -0.021028372 0.021019312 0.06577073
0.0011903382 0.04270933 -0.098307 0.06417456 -0.0332195 -0.07039837 -0.06110108 0.043185957
0.019105703 -0.09060231 0.03788965 0.016846385 -0.04051593 -0.14467129 0.07616757 0.03731348
-0.081848845 0.0627395 -0.017042112 -0.011856853 -0.017168961 0.044975236 -0.0059764157 0.06839395
-0.014787521 -0.05930346 0.0046537593 0.0577364 0.03073633 -0.12044656 0.14287704 0.039383452
-0.085845396 0.004317094 0.08692035 -0.03410737 0.04134465 0.0250395 0.05037111 -0.061363813
0.010399728 -0.043514676 -0.02723837 0.00097223005 0.0006954114 0.010998654 0.0866227 -0.04098568
