models/lstm_150.pt (torch, 813544 bytes, 9 tensors)

lstm.weight_ih_l0 f4 [512, 8]
0.21236938 0.03491925 -0.03476914 -0.09568814 -0.011954821 -0.056295685 -0.040686797 0.013041981
-0.0069869184 -0.026462153 -0.0782664 0.045929655 0.061330672 0.06277569 -0.14624526 0.08327606
0.13608804 -0.09419516 0.00694362 -0.055635624 -0.046921525 -0.009014196 0.061245445 -0.003671168
-0.017001586 0.011383104 0.010393745 0.084385864 0.09420166 -0.037535887 -0.023932356 -0.07797914
-0.0559368 0.04185419 -0.022064049 -0.0014197078 0.06266673 0.16284117 0.046873134 -0.07634988
0.114187256 -0.04259021 0.009793159 -0.07649707 -0.025066674 0.02867722 -0.011533511 -0.051344458
-0.034424853 -0.02946855 -0.04440765 0.07332944 0.06087085 -0.08940461 -0.12546402 -0.14301398
0.14482477 -0.008880475 0.047664452 0.05084813 -0.03586189 -0.023796737 0.030965917 0.013202716
0.16761091 0.03052959 0.054971468 -0.065748334 0.15488034 -0.013210073 0.07405254 -0.01714896
0.08332755 0.08615865 0.026784748 0.08601203 0.08617625 0.03007259 0.056962717 0.021377264
-0.014921619 0.120761216 0.07547545 0.1031223 -0.0842796 0.20351961 -0.009242315 -0.044823375
0.049443312 -0.1304949 0.062163655 0.08315968 0.12948947 0.11034546 0.042568166 0.15274121
0.12151548 -0.026928023 -0.0546643 -0.046412013 -0.058509007 -0.13590449 -0.027187414 -0.06409443
0.03777431 0.072270595 -0.08398257 0.038690686 0.28339186 0.15293463 0.126601 0.102221966
0.06533642 0.10028277 -0.06528143 -0.11929767 0.020309769 0.07955964 -0.09928683 0.10527257
0.18869357 0.06457208 -0.08077865 -0.06206718 -0.106131464 0.10272601 -0.15511808 -0.012022963
-0.23725823 0.13301034 0.16820417 0.1388403 -0.067949 -0.124190085 0.2357602 0.09682223
-0.008369813 0.05987819 -0.090968154 -0.04491832 -0.0048415214 0.11758332 0.022680202 -0.0633609
-0.14160617 -0.016958624 -0.18447553 -0.14724317 -0.025781004 -0.015204169 -0.086668305 -0.074457034
0.067486964 0.21591085 0.05174077 -0.001213236 0.11518765 0.0052552028 -0.47771204 0.12347893
0.30300814 -0.056137145 0.021147631 -0.014579237 -0.058134753 0.042612307 -0.0032311825 0.16875826
0.14974298 0.035852898 -0.1141999 -0.027655825 -0.08513918 -0.05853538 -0.018606918 -5.6309655e-05
-0.047951605 0.0015757587 -0.0024974083 0.07366829 0.0618406 -0.053717118 0.08567973 0.06905233
0.18964215 0.040918853 -0.012087784 0.03412646 -0.0632514 -0.054911908 0.0840363 0.064511925
0.127298 -0.06505014 0.075035796 0.048641242 -0.1134934 -0.16519807 0.036803663 0.15418729
-0.021856483 -0.06536263 -0.058039222 0.037645526 -0.05094612 0.07852643 0.03296369 0.03995895
0.047256604 0.01259756 0.038534854 -0.01821239 -0.05795807 0.094699934 0.11085035 0.041381482
0.008735383 -0.017627345 -0.063501 -0.04602543 0.12970106 -0.023096323 -0.44423148 -0.25751987
-0.025452245 0.03342953 -0.010725382 -0.033426914 0.077369876 0.056260854 0.16656621 -0.013464338
0.033879656 0.1297639 -0.065482676 0.013409116 -0.12412738 -0.19207409 -0.0029501023 -0.0038143587
0.031417534 -0.048489753 0.034384456 0.06369115 -0.06295933 0.038712494 -0.06941565 -0.11074461
-0.068675555 -0.013333147 -0.009234715 -0.006051422 0.05026404 -0.054518238 0.15997007 -0.14037459
00000000: 5c77 593e 7d07 0f3d 166a 0ebd 25f8 c3bd
00000010: 27de 43bc 4e96 66bd 33a7 26bd 08ae 553c
00000020: 85f2 e4bb 28c7 d8bc 224a a0bd bc20 3c3d
00000030: df35 7b3d 8a90 803d 51c1 15be a48c aa3d
00000040: aa5a 0b3e 64e9 c0bd 4e87 e33b 2ee2 63bd
00000050: c930 40bd 47b0 13bc 81dc 7a3d fa97 70bb
00000060: e946 8bbc 3380 3a3c 874a 2a3c 7fd2 ac3d
00000070: cdec c03d 3bbf 19bd ca0d c4bc 87b3 9fbd
00000080: fc1d 65bd 4d6f 2b3d aabf b4bc 7d15 baba
00000090: 6a57 803d d6bf 263e 0bfe 3f3d 535d 9cbd
000000a0: 02db e93d 1273 2ebd 7c73 203c 7faa 9cbd
000000b0: a058 cdbc 7dec ea3c 0df7 3cbc 914e 52bd
000000c0: 1301 0dbd 0768 f1bc cce4 35bd bf2d 963d
000000d0: b653 793d c419 b7bd a479 00be 4272 12be
000000e0: f24c 143e 697f 11bc cd3b 433d 2146 503d
000000f0: ebe3 12bd 60f1 c2bc 3cac fd3c 3450 583c
00000100: 32a2 2b3e 3119 fa3c c329 613d 10a7 86bd
00000110: f498 1e3e 106f 58bc dca8 973d fa7b 8cbc
00000120: a2a7 aa3d f273 b03d b06b db3c 1327 b03d
00000130: 2c7d b03d cb5a f63c bd51 693d 5f1f af3c
00000140: ce79 74bc a851 f73d df92 9a3d c931 d33d
00000150: c89a acbd 7267 503e 146d 17bc b798 37bd
00000160: 1285 4a3d 74a0 05be 519f 7e3d 9f4f aa3d
00000170: e398 043e cdfc e13d f55b 2e3d 3168 1c3e
00000180: 1cdd f83d 2898 dcbc ace7 5fbd 861a 3ebd
00000190: 24a7 6fbd 8c2a 0bbe 24b8 debc f143 83bd
000001a0: 3cb9 1a3d 9b02 943d 0eff abbd 207a 1e3d
000001b0: bd18 913e e59a 1c3e b1a3 013e c059 d13d
000001c0: 1acf 853d 0e61 cd3d 45b2 85bd 5652 f4bd
000001d0: ac60 a63c 2af0 a23d e556 cbbd 2599 d73d
000001e0: e338 413e 5e3e 843d 476f a5bd 283a 7ebd
000001f0: 745b d9bd 0462 d23d 46d7 1ebe f6fb 44bc
00000200: d2f3 72be dd33 083e b73d 2c3e 272c 0e3e
00000210: d828 8bbd 5f57 febd 1f6b 713e bc4a c63d
00000220: 8a21 09bc d542 753d 834d babd 46fc 37bd
00000230: a0a5 9ebb 86cf f03d d5cb b93c 5cc3 81bd
00000240: 3501 11be d0ec 8abc 27e7 3cbe eac6 16be
00000250: af32 d3bc e81a 79bc 277f b1bd ee7c 98bd
00000260: 9b36 8a3d bc17 5d3e 21ee 533d 7205 9fba
00000270: 81e7 eb3d d633 ac3b ac96 f4be 85e2 fc3d
00000280: e223 9b3e 10f0 65bd cc3d ad3c c1dd 6ebc
00000290: b51e 6ebd 3e8a 2e3d 3fc2 53bb f7ce 2c3e
000002a0: 3956 193e 7dda 123d a3e1 e9bd 788e e2bc
000002b0: 735d aebd cbc2 6fbd 896d 98bc 082e 6cb8
000002c0: e768 44bd b089 ce3a 8fab 23bb 67df 963d
000002d0: 924c 7d3d 7b06 5cbd db78 af3d 4f6b 8d3d
000002e0: 8d31 423e 879a 273d d70b 46bc 30c8 0b3d
000002f0: f389 81bd 4feb 60bd 391b ac3d d41e 843d
00000300: 685a 023e 0239 85bd 5eac 993d 0a3c 473d
00000310: 3a6f e8bd af29 29be 70bf 163d 46e3 1d3e
00000320: 5e0c b3bc d8dc 85bd 89ba 6dbd 3232 1a3d
00000330: e1ac 50bd 77d2 a03d ef04 073d ffab 233d
00000340: 2490 413d ff65 4e3c b9d6 1d3d 2632 95bc
00000350: 7165 6dbd 0af2 c13d 8205 e33d a17f 293d
00000360: da1e 0f3c 3967 90bc d00c 82bd 2985 3cbd
00000370: 5bd0 043e 8034 bdbc 4f72 e3be a5d9 83be
00000380: 3a81 d0bc 67ed 083d 83b9 2fbc a9ea 08bd
00000390: 1974 9e3d c871 663d 5590 2a3e 8799 5cbc
000003a0: 65c5 0a3d d4e0 043e c81b 86bd e9b1 5b3c
000003b0: 7f36 febd 12af 44be 8156 41bb 52fa 79bb
000003c0: acaf 003d 319d 46bd b7d6 0c3d 8170 823d
000003d0: d2f0 80bd fe90 1e3d cb29 8ebd 12ce e2bd
000003e0: c5a5 8cbd 4673 5abc 344d 17bc 024b c6bb
000003f0: aae1 4d3d 844e 5fbd 32cf 233e 5bbe 0fbe

lstm.weight_hh_l0 f4 [512, 128]
-0.0061049364 0.06297273 0.089761406 0.046906073 0.11978269 -0.09546371 0.084267944 -0.025498377
-0.14213054 0.08979393 0.058733437 -0.15555795 0.044895235 -0.1721951 0.020549012 0.08701936
0.11181772 -0.07518953 0.11767278 0.1203241 -0.03014293 0.025534913 -0.007394206 0.036305655
-0.1338358 -0.00402883 -0.034703914 0.03168052 0.035454366 0.16237949 -0.062271703 -0.13004044
-0.02266088 0.07915869 0.07634365 0.04364405 -0.05962214 -0.11889772 -0.059553213 -0.092366174
0.026679333 -0.0017064794 0.055572376 -0.20724623 0.17760701 0.14401291 -0.13535462 0.12093627
0.042002913 0.10264755 -0.0465995 0.052299898 0.0031605398 -0.02735343 -0.10044752 0.03288065
0.21731307 0.09148624 -0.021848692 -0.060341362 0.06181517 -0.008087306 0.013039857 -0.04727792
-0.17311577 0.14605953 0.13450399 0.1271536 0.10924569 -0.039357238 -0.033031363 0.06533208
0.05527164 -0.05477647 -0.13576162 0.051628605 -0.11276581 0.018069936 0.25294703 -0.1583532
-0.09095363 0.1112011 -0.045356885 -0.10963685 0.077169724 -0.16890906 -5.954031e-05 0.023126388
-0.030279694 0.008046056 -0.1611401 -0.07743328 0.036946833 0.11285237 -0.036330886 -0.015541475
-0.1973245 0.03980527 0.19429226 -0.07305752 0.02834449 0.008552803 -0.10521272 -0.017882759
-0.13159284 -0.028501984 -0.010796384 -0.13852683 -0.002469515 -0.09341162 -0.04051843 -0.09832231
-0.18656635 -0.027931431 -0.084878735 -0.019673219 0.030773928 0.13796565 0.0024646637 -0.14818841
0.08939033 -0.0600449 0.043579385 -0.018741542 0.01972164 -0.06322928 0.013665364 0.057568643
-0.002146747 -0.055849005 0.03877736 0.05293202 -0.07780275 -0.026536135 -0.027304888 -0.012421166
-0.017941624 -0.055534087 0.0852906 -0.00326446 -0.071166255 -0.041765004 -0.04939967 -0.11454748
-0.118145384 -0.082483664 -0.13646156 0.0016874926 0.08139937 0.06630163 0.05083958 -0.041460283
0.017948296 -0.05146477 -0.020877916 -0.03807669 -0.034487437 0.06383192 0.018718403 -0.014503956
0.0021622363 0.12993336 0.036558133 0.04856695 0.08215401 0.020587867 0.022924729 -0.02894295
-0.010259393 0.09999729 -0.077734165 0.031971034 0.005166555 -0.041802626 0.101558544 0.12685178
-0.052427456 -0.0014720571 0.024432624 -0.0028356176 -0.04962692 0.010871907 -0.01680551 0.07166665
0.06430336 -0.014032593 0.07263324 -0.01858559 -0.056926325 -0.0048068366 -0.07138266 -0.11110647
-0.059649214 -0.020149827 0.018025791 0.06282517 -0.05036886 0.1567821 -0.054841537 -0.07403146
0.061337255 -0.027323993 0.09880411 -0.10469129 0.08461802 0.013926505 -0.077792436 0.0479552
-0.116823 0.032917786 0.09137344 -0.077236526 -0.016728427 0.10114108 0.020982845 0.033502195
0.0385858 -0.045720953 -0.022668919 -0.08838181 0.09412528 0.067655824 0.03759923 0.018833479
0.0069349157 0.08060455 0.053738847 0.061023474 -0.065286964 -0.07359043 0.072331734 0.025933266
-0.050134253 -0.03922583 0.09392414 -0.04740903 -0.095161 -0.06341907 -0.1116677 0.040021986
0.052755337 -0.070536256 0.05096981 0.0401659 -0.08111511 -0.01618561 0.048272964 -0.0032808469
-0.13768947 -0.047035273 0.08442941 0.005227505 -0.06747826 0.12036257 -0.07327321 -0.033181842
00000000: eb0b c8bb d9f7 803d d4d4 b73d 9520 403d
00000010: a150 f53d 7a82 c3bd ac94 ac3d f9e1 d0bc
00000020: ab8a 11be e1e5 b73d 7992 703d 954a 1fbe
00000030: 11e4 373d ea53 30be 6756 a83c 3537 b23d
00000040: b000 e53d f8fc 99bd 6dfe f03d 7b6c f63d
00000050: 4eee f6bc 982e d13c 184b f2bb 3db5 143d
00000060: 410c 09be 4704 84bb b125 0ebd 6fc3 013d
00000070: 9938 113d cf46 263e 9d10 7fbd 5229 05be
00000080: 4fa3 b9bc f41d a23d 0f5a 9c3d 1ac4 323d
00000090: 5836 74bd a680 f3bd 12ee 73bd 7a2a bdbd
000000a0: 9e8e da3c f2ab dfba dc9f 633d 5b38 54be
000000b0: 9dde 353e 1f78 133e 679a 0abe 6fad f73d
000000c0: 3f0b 2c3d e138 d23d 1edf 3ebd 6b38 563d
000000d0: 0f21 4f3b 4d14 e0bc 6eb7 cdbd dcad 063d
000000e0: 5187 5e3e 235d bb3d 07fc b2bc 8128 77bd
000000f0: e731 7d3d 9f80 04bc 20a5 553c 7ea6 41bd
00000100: 4345 31be a190 153e 6abb 093e 8e34 023e
00000110: 34bc df3d 0e35 21bd e54b 07bd d3cc 853d
00000120: 8464 623d 4b5d 60bd 1805 0bbe 8478 533d
00000130: c3f1 e6bd 6707 943c 4682 813e 5727 22be
00000140: e645 babd 67bd e33d 24c8 39bd 4989 e0bd
00000150: 290b 9e3d 7ff6 2cbe ecba 79b8 8d73 bd3c
00000160: 1f0d f8bc 9bd3 033c e901 25be 5795 9ebd
00000170: 9055 173d 251f e73d b2cf 14bd aca1 7ebc
00000180: 6f0f 4abe da0a 233d 8df4 463e 2e9f 95bd
00000190: b432 e83c 0e21 0c3c c479 d7bd dd7e 92bc
000001a0: 46c0 06be fe7c e9bc 51e3 30bc fad9 0dbe
000001b0: 96d7 21bb 974e bfbd a7f6 25bd 355d c9bd
000001c0: 400b 3fbe 75d0 e4bc e7d4 adbd bb29 a1bc
000001d0: 9b19 fc3c de46 0d3e 3286 213b b4be 17be
000001e0: 4712 b73d a4f1 75bd 4c80 323d dd87 99bc
000001f0: 478f a13c 5a7e 81bd b1e4 5f3c 19cd 6b3d
00000200: 70b0 0cbb edc1 64bd 02d5 1e3d 3fcf 583d
00000210: 0c57 9fbd 4f62 d9bc 80ae dfbc 2582 4bbc
00000220: 50fa 92bc b677 63bd d7ac ae3d 8df0 55bb
00000230: 9dbf 91bd c811 2bbd 4f57 4abd df97 eabd
00000240: 35f6 f1bd 32ed a8bd 94bc 0bbe db2e dd3a
00000250: b7b4 a63d 26c9 873d 2a3d 503d 42d2 29bd
00000260: 4e08 933c b9cc 52bd 2a08 abbc 4ef6 1bbd
00000270: b342 0dbd 4fba 823d 5657 993c 00a2 6dbc
00000280: 4eb4 0d3b 400d 053e fbbd 153d 23ee 463d
00000290: 5d40 a83d e3a7 a83c a4cc bb3c c419 edbc
000002a0: 0317 28bc 61cb cc3d 1733 9fbd 0ff4 023d
000002b0: 344c a93b 3b39 2bbd edfd cf3d 6fe5 013e
000002c0: 2cbe 56bd 0af2 c0ba ed26 c83c c5d5 39bb
000002d0: 9945 4bbd 1520 323c b5ab 89bc f7c5 923d
000002e0: 7bb1 833d f6e8 65bc bcc0 943d cf40 98bc
000002f0: 942b 69bd ab82 9dbb 1231 92bd ca8b e3bd
00000300: bc52 74bd 4011 a5bc d3aa 933c 7caa 803d
00000310: 944f 4ebd 7d8b 203e 85a1 60bd ce9d 97bd
00000320: c63c 7b3d 91d6 dfbc cf59 ca3d 6368 d6bd
00000330: 364c ad3d ff2b 643c a451 9fbd ac6c 443d
00000340: e640 efbd cdd4 063d 0022 bb3d 2f2e 9ebd
00000350: 0e0a 89bc 0e23 cf3d 37e4 ab3c 9939 093d
00000360: 250c 1e3d e545 3bbd 2bb4 b9bc 8601 b5bd
00000370: c1c4 c03d 238f 8a3d a601 1a3d ab48 9a3c
00000380: 4a3e e33b 0014 a53d 441d 5c3d c0f3 793d
00000390: 2cb5 85bd 94b6 96bd a922 943d 0072 d43c
000003a0: 9359 4dbd 44ab 20bd 4d5b c03d f92f 42bd
000003b0: c5e3 c2bd dbe1 81bd 09b2 e4bd 18ee 233d
000003c0: fb15 583d 5075 90bd b8c5 503d 0085 243d
000003d0: ae1f a6bd af97 84bc dfb9 453d 7a03 57bb
000003e0: 78fe 0cbe 0fa8 40bd 54e9 ac3d 7e4b ab3b
000003f0: 0b32 8abd a780 f63d 4410 96bd afe9 07bd

lstm.bias_ih_l0 f4 [512]
0.041512948 0.005132747 0.019782024 -0.039298035 0.008732224 -0.06433133 -0.02934747 -0.09064897
0.09245393 0.015153207 -0.013457709 -0.014430355 -0.07934391 -0.023378706 -0.011968569 -0.11162788
0.02775477 0.05202993 -0.05761014 -0.07712864 0.023727868 0.051697854 0.018572817 0.06449694
-0.07391508 -0.060973395 -0.057242345 -0.1660344 0.023514634 -0.08717161 -0.041939057 0.046262935
-0.035798304 -0.016158191 0.017684381 0.19411759 -0.07639773 -0.09993234 0.03570529 -0.029573355
0.036720388 0.09497765 -0.08772815 -0.013075021 0.01878738 -0.06255518 -0.037695162 0.04272154
-0.09038015 0.08291301 -0.065558836 -0.1196904 -0.07436054 0.020777669 -0.046732094 -0.085507706
0.09088307 -0.006991139 -0.07062727 0.055954278 0.0039743073 -0.08548225 0.05243191 0.040226594
-0.04663371 0.044878416 0.040475376 -0.064682186 0.02391654 -0.02640127 -0.13339373 0.042651955
-0.08797731 0.027190767 0.037734628 0.21004333 -0.13468803 -0.0021780953 -0.041323744 -0.077845834
0.055469725 -0.07799156 0.06854874 0.021575987 -0.027734447 0.08839324 -0.04866305 0.024758317
-0.0896646 -0.0194331 -0.08472061 -0.07860376 0.052463733 -0.04802795 -0.008672139 0.014334542
-0.13070548 -0.0048984457 0.08693362 -0.045777943 -0.06726228 0.0026922154 -0.08076937 0.07549228
0.10913567 -0.043798156 -0.15207957 -0.041802786 0.09422651 -0.08198553 -0.09281824 -0.020466354
0.06503063 0.07922989 0.07793125 -0.07416152 -0.057320055 -0.022114752 -0.07261153 -0.09835813
-0.016274938 0.05239811 -0.002544303 -0.01927409 -0.086322226 -0.06980965 0.031925015 -0.12474513
0.17021592 0.059428133 -0.056246914 0.06744341 0.048010517 0.04733158 0.033701047 -0.052407403
0.12304427 0.06394753 0.046565954 0.12674324 -0.02452022 0.16697857 0.02818273 0.023628445
-0.018141882 0.047757085 0.09747841 0.06342867 0.1451048 0.06496823 0.06704957 0.01752039
0.11006767 -0.043111447 -0.009315548 0.06559937 -0.012473208 0.007804706 0.054698154 -0.06780736
-0.007385938 0.11704399 0.09599122 0.060899936 -0.036289416 0.07497159 0.072646424 -0.031318154
0.014290925 0.09256632 0.009768307 0.08445225 -0.051466666 -0.014191991 0.12184587 0.08984327
0.052937366 0.029800504 0.015662527 0.059732877 0.06954874 -0.061939046 0.09978929 -0.043784592
0.035249215 0.13423124 0.046074286 -0.06883295 -0.0656947 0.086200625 0.083262384 0.035812963
0.10658589 0.046198048 0.06214864 0.030236257 0.14331044 0.02465493 0.0813179 -0.036061265
-0.017139869 -0.04713765 0.0048797703 0.12725279 -0.12933533 0.07724529 -0.067871526 0.06584966
0.0956558 0.021315603 -0.0069324104 -0.054782018 0.06434259 0.14600132 -0.04114212 -0.0066035134
0.029759519 0.058149323 -0.020645926 0.106547624 0.09575632 0.08767851 -0.040528465 -0.04817102
-0.0004439572 0.08848022 0.08005619 -0.017263908 0.010621364 -0.080933206 -0.043676242 0.025247568
0.15042308 0.04962852 -0.05819712 -0.080655746 -0.075801544 0.0010039839 -0.022554744 0.014425103
0.16703585 0.10299519 -0.040752262 0.009978492 -0.027427364 0.07236512 -0.026917305 0.07782486
0.106268845 0.006533497 0.038743 -0.011994075 -0.09841796 -0.08863609 0.07513171 0.037906483
00000000: 7b09 2a3d 9a30 a83b e90d a23c faf6 20bd
00000010: 9a11 0f3c 25c0 83bd 1b6a f0bc 2ba6 b9bd
00000020: 7c58 bd3d 2845 783c b97d 5cbc 4c6d 6cbc
00000030: 0f7f a2bd b384 bfbc d117 44bc 289d e4bd
00000040: f95d e33c 561d 553d 9cf8 6bbd 9ff5 9dbd
00000050: f260 c23c 21c1 533d 0526 983c f916 843d
00000060: ca60 97bd 3dbf 79bd f376 6abd ec04 2abe
00000070: c3a1 c03c 0787 b2bd 4ac8 2bbd 347e 3d3d
00000080: 3ea1 12bd 2f5e 84bc d6de 903c c3c6 463e
00000090: 6a76 9cbd 54a9 ccbd b63f 123d d243 f2bc
000000a0: 1e68 163d a483 c23d d1aa b3bd 9d38 56bc
000000b0: fee7 993c ee1c 80bd 3e66 1abd c8fc 2e3d
000000c0: 3a19 b9bd 4cce a93d b643 86bd 3e20 f5bd
000000d0: 574a 98bd ee35 aa3c 276a 3fbd aa1e afbd
000000e0: e720 ba3d ed15 e5bb 08a5 90bd 5030 653d
000000f0: e83a 823b 5111 afbd d8c2 563d a4c4 243d
00000100: fd02 3fbd 6ed2 373d 82c9 253d 1878 84bd
00000110: 9fec c33c 7a47 d8bc 5e98 08be d1b3 2e3d
00000120: 732d b4bd 2cbf de3c a08f 1a3d 9915 573e
00000130: a9eb 09be 60be 0ebb 1643 29bd a36d 9fbd
00000140: 3934 633d 0aba 9fbd 4863 8c3d 20c0 b03c
00000150: 5a33 e3bc 8407 b53d e852 47bd f4d1 ca3c
00000160: 13a2 b7bd 2a32 9fbc 0082 adbd 02fb a0bd
00000170: 36e4 563d f5b8 44bd 9615 0ebc 6ddb 6a3c
00000180: a8d7 05be 2483 a0bb 410a b23d a781 3bbd
00000190: cec0 89bd e16f 303b 696a a5bd b29b 9a3d
000001a0: 8682 df3d b265 33bd bfba 1bbe 6639 2bbd
000001b0: d4f9 c03d 08e8 a7bd 7d17 bebd 0ea9 a7bc
000001c0: c72e 853d 4843 a23d 6b9a 9f3d ffe1 97bd
000001d0: 6fc8 6abd ff29 b5bc 5bb5 94bd fd6f c9bd
000001e0: 0553 85bc 679f 563d 52be 26bb b2e4 9dbc
000001f0: b5c9 b0bd 5df8 8ebd cec3 023d 607a ffbd
00000200: 154d 2e3e ea6a 733d 2a63 66bd c51f 8a3d
00000210: ada6 443d c2de 413d 1c0a 0a3d 25a9 56bd
00000220: a2fe fb3d ecf6 823d f1bb 3e3d fbc8 013e
00000230: a1de c8bc 6efc 2a3e 78df e63c 7190 c13c
00000240: 499e 94bc ef9c 433d c3a2 c73d e4e6 813d
00000250: 5a96 143e 100e 853d 4951 893d ec86 8f3c
00000260: 296b e13d a195 30bd 3ea0 18bc f658 863d
00000270: 6d5c 4cbc 9fbe ff3b 2c0b 603d 96de 8abd
00000280: bd05 f2bb c2b4 ef3d 0b97 c43d 3672 793d
00000290: 36a4 14bd b48a 993d a6c7 943d 7747 00bd
000002a0: 7c24 6a3c 6993 bd3d 400b 203c 4df5 ac3d
000002b0: b6ce 52bd 8685 68bc 548a f93d c0ff b73d
000002c0: dad4 583d 3020 f43c b34e 803c 76aa 743d
000002d0: 926f 8e3d ccb3 7dbd 545e cc3d 7957 33bd
000002e0: 7b61 103d ea73 093e 64b8 3c3d 4af8 8cbd
000002f0: f18a 86bd f489 b03d 7885 aa3d 9db0 123d
00000300: b449 da3d 2a3a 3d3d 938f 7e3d 07b2 f73c
00000310: f9bf 123e 23f9 c93c 008a a63d fab4 13bd
00000320: e968 8cbc 6913 41bd 7be6 9f3b 8e4e 023e
00000330: 7b70 04be c732 9e3d 3a00 8bbd 30dc 863d
00000340: 30e7 c33d 0f9e ae3c 4629 e3bb 1c63 60bd
00000350: 0cc6 833d 5f81 153e a484 28bd 4962 d8bb
00000360: 3cca f33c fc2d 6e3d a521 a9bc a435 da3d
00000370: e41b c43d ca90 b33d 2d01 26bd fa4e 45bd
00000380: edc2 e8b9 1e35 b53d 80f4 a33d 0a6d 8dbc
00000390: 3b05 2e3c 4fc0 a5bd dce5 32bd fdd3 ce3c
000003a0: 8208 1a3e 4647 4b3d 1a60 6ebd d72e a5bd
000003b0: d73d 9bbd 1c98 833a bac4 b8bc 4457 6c3c
000003c0: 720b 2b3e 24ef d23d d8eb 26bd d47c 233c
000003d0: 5aaf e0bc 2a34 943d ae81 dcbc a462 9f3d
000003e0: 7ba3 d93d f216 d63b fbb0 1e3d cc82 44bc
000003f0: 5b8f c9bd d786 b5bd a7de 993d d443 1b3d

lstm.bias_hh_l0 f4 [512]
-0.020130744 0.023528444 -0.016085835 -0.049218155 -0.05562268 -0.08115796 0.029016696 -0.039125714
-0.061667133 -0.04247699 -0.039547507 -0.06821618 0.024042614 -0.049269244 -0.010983531 -0.023817152
0.04072365 -0.088024706 -0.02390731 0.07505546 -0.01689189 -0.09382199 0.00145818 -0.0133885555
-0.13707608 -0.02740806 -0.02166021 -0.02783563 0.10901788 -0.10472412 -0.0449641 -0.07746159
-0.02981401 0.08330077 0.022732748 0.031641055 -0.01589269 -0.04824981 0.018423015 0.07356175
-0.10302765 0.059147947 -0.014264371 0.04612979 0.025268974 0.055751882 0.017740423 -0.04099264
-0.053923283 -0.043058895 0.02396902 -0.09297737 0.046480943 0.013613925 -0.04257075 -0.10581699
0.03214155 0.04030615 0.03968646 -0.059112005 -0.0003440999 0.07521685 0.050392043 -0.10546638
-0.009185646 -0.011776483 -0.07412845 -0.07682642 0.19220148 -0.035572346 -0.103558764 0.044666793
0.052733406 0.08326999 0.0092448685 0.14136225 -0.031813964 0.04909083 0.011824644 0.015773814
-0.019188408 0.01922217 0.06896478 0.07460264 -0.05368762 0.026230764 -0.08228739 0.053854376
-0.0996409 -0.03980288 -0.044751126 -0.039760012 -0.033992328 -0.041678403 -0.045796916 0.042379323
-0.08167191 0.065043695 -0.007940752 -0.03328622 0.037436683 0.04434788 0.031048797 0.08565042
0.1060166 -0.009924965 -0.03126506 0.06587944 0.011338765 0.057630423 0.006428335 -0.020376364
0.10948168 -0.013304571 -0.017450416 -0.014347663 0.048666693 0.08730547 0.0032556455 -0.023796367
0.04673468 0.07287807 0.05562174 -0.01924338 -0.05537207 -0.10101611 0.005261811 -0.024730483
0.1567652 0.0627 0.047949474 -0.07143947 -0.06992509 -0.055122968 0.043370396 0.03463442
0.1427257 0.06431283 0.13129467 0.0018517867 -0.08731574 0.156623 0.018535234 0.02384319
0.072555214 -0.050894693 0.106709525 0.13797393 0.15897802 0.023164926 -0.011578689 0.01767862
-0.001146784 0.041406617 0.09915268 0.09470063 -0.021853998 0.08339248 -0.07555651 0.019630903
0.12534343 0.038968787 0.023156838 -0.0045821657 0.03594468 0.14576058 0.052133698 -0.0234635
-0.059771497 0.18098053 -0.018905561 0.00083392306 0.046500687 -0.03110219 0.12797485 0.028818442
-0.04342188 0.09549626 0.096221946 0.028934414 0.060197018 -0.029912012 0.045518506 -0.07476087
0.096941665 0.09494346 0.05004418 0.02971649 -0.036889337 0.0973754 0.08412942 0.07992584
0.108412676 0.11677216 0.07963364 0.06585461 -0.009421367 0.08429256 0.11227786 -0.06961189
0.0074028466 -0.0042284024 0.036434736 -0.03103381 -0.099688455 0.02687886 -0.029993813 -0.007820624
0.08859647 -0.10842341 -0.018269075 0.075350694 -0.024467582 0.05013464 -0.0360884 0.084757365
0.10169162 0.056741606 0.017404182 0.03230762 -0.0124425 -0.0688944 0.045803793 0.054577
-0.0608531 0.048843358 0.019530034 0.06537523 0.017537225 -0.05767967 0.004344931 0.123403296
0.034312777 0.056916866 0.015984934 -0.010465421 -0.061173994 -0.059843075 -0.037083153 0.047287636
0.1819235 0.043665525 -0.01877894 -0.046659794 0.0010420842 0.07966647 0.07086598 0.059877913
0.10584903 -0.0039519165 0.048681825 0.14646648 0.02223804 -0.0014407872 0.025502764 0.0653013
00000000: 3be9 a4bc b9be c03c 71c6 83bc fa98 49bd
00000010: 9bd4 63bd 2536 a6bd 6cb4 ed3c 4942 20bd
00000020: ad96 7cbd 5afc 2dbd 91fc 21bd edb4 8bbd
00000030: 04f5 c43c 8cce 49bd 45f4 33bc 301c c3bc
00000040: d8cd 263d 4c46 b4bd 43d9 c3bc adb6 993d
00000050: dc60 8abc be25 c0bd 6720 bf3a ac5b 5bbc
00000060: ac5d 0cbe de86 e0bc c170 b1bc 8c07 e4bc
00000070: c444 df3d 9979 d6bd 472c 38bd 2fa4 9ebd
00000080: 833c f4bc 9899 aa3d 073a ba3c 0d9a 013d
00000090: 6331 82bc 98a1 45bd ddeb 963c 8ba7 963d
000000a0: 2900 d3bd 1e45 723d 1cb5 69bc 97f2 3c3d
000000b0: e100 cf3c 165c 643d 5d54 913c e6e7 27bd
000000c0: a9de 5cbd 865e 30bd ae5a c43c eb6a bebd
000000d0: cd62 3e3d f10c 5f3c ab5e 2ebd 94b6 d8bd
000000e0: dca6 033d 1018 253d 458e 223d 6e1f 72bd
000000f0: 4f68 b4b9 4b0b 9a3d e367 4e3d c2fe d7bd
00000100: 647f 16bc 26f2 40bc a8d0 97bd 2c57 9dbd
00000110: 77d0 443e 4fb4 11bd 9e16 d4bd 87f4 363d
00000120: fcfe 573d 7589 aa3d ca77 173c 44c1 103e
00000130: 5c4f 02bd 7713 493d 27bc 413c 1638 813c
00000140: 0231 9dbc d077 9d3c 683d 8d3d 45c9 983d
00000150: 8de7 5bbd e6e1 d63c 4b86 a8bd 6896 5c3d
00000160: 8710 ccbd 5808 23bd f54c 37bd 65db 22bd
00000170: 8a3b 0bbd f9b6 2abd 8c95 3bbd f195 2d3d
00000180: 9a43 a7bd a135 853d ee19 02bc 2257 08bd
00000190: 3557 193d 1fa6 353d 0c5a fe3c 7d69 af3d
000001a0: 3b1f d93d 529c 22bc cb0f 00bd cdeb 863d
000001b0: 3ac6 393c e10d 6c3d c8a4 d23b 55ec a6bc
000001c0: ee37 e03d 6afb 59bc 2df4 8ebc 7612 6bbc
000001d0: ba56 473d 36cd b23d ab5c 553b 99f0 c2bc
000001e0: dd6c 3f3d 1941 953d 9fd3 633d 4ba4 9dbc
000001f0: d3cd 62bd 89e1 cebd 456b ac3b 9597 cabc
00000200: 0e87 203e dc68 803d ab66 443d db4e 92bd
00000210: e334 8fbd 9fc8 61bd 28a5 313d d2dc 0d3d
00000220: b026 123e 72b6 833d 1c72 063e a7b7 f23a
00000230: 98d2 b2bd c861 203e 34d7 973c cb52 c33c
00000240: d497 943d f476 50bd 868a da3d 0a49 0d3e
00000250: 22cb 223e 5fc4 bd3c 8bb4 3dbc c1d2 903c
00000260: b04f 96ba fc99 293d 8f10 cb3d 67f2 c13d
00000270: 2807 b3bc adc9 aa3d 5fbd 9abd fdd0 a03c
00000280: 075a 003e bc9d 1f3d 69b3 bd3c fe25 96bb
00000290: bb3a 133d 4342 153e 258a 553d 8736 c0bc
000002a0: f5d2 74bd f652 393e d6df 9abc a19b 5a3a
000002b0: 8177 3e3d 05ca febc d70b 033e a714 ec3c
000002c0: 24db 31bd 8b93 c33d 0310 c53d dd07 ed3c
000002d0: 2691 763d 090a f5bc 9d71 3a3d 3a1c 99bd
000002e0: 5a89 c63d b771 c23d 20fb 4c3d ff6f f33c
000002f0: 4619 17bd c16c c73d 0c4c ac3d 29b0 a33d
00000300: 7707 de3d 3e26 ef3d f616 a33d c8de 863d
00000310: 145c 1abc 94a1 ac3d eff1 e53d ae90 8ebd
00000320: 9493 f23b 698e 8abb 973c 153d 9e3a febc
00000330: 7629 ccbd 0e31 dc3c 96b5 f5bc 1322 00bc
00000340: 1172 b53d 180d debd 07a9 95bc 7751 9a3d
00000350: 3d70 c8bc fb59 4d3d 6ed1 13bd 4595 ad3d
00000360: b243 d03d e369 683d 3793 8e3c ff54 043d
00000370: a1db 4bbc 8218 8dbd c29c 3b3d 228c 5f3d
00000380: 1a41 79bd f90f 483d 73fd 9f3c 73e3 853d
00000390: 3aaa 8f3c 8541 6cbd ec5f 8e3b deba fc3d
000003a0: 8e8b 0c3d a921 693d d6f2 823c 2877 2bbc
000003b0: 9591 7abd 031e 75bd 81e4 17bd aeb0 413d
000003c0: 274a 3a3e 9fda 323d 4bd6 99bc 571e 3fbd
000003d0: 8b96 883a 2d28 a33d 2f22 913d 8b42 753d
000003e0: 60c7 d83d 147f 81bb 9866 473d 4ffb 153e
000003f0: 8d2c b63c ccd8 bcba 2ceb d03c b0bc 853d

lstm.weight_ih_l1 f4 [512, 128]
0.15231828 -0.0026682634 -0.039423022 -0.08719978 -0.034000956 -0.08366569 -0.02315752 -0.14491937
-0.050929807 -0.018253164 -0.018586846 -0.112694435 0.055693313 -0.09959513 0.025981516 -0.0539551
-0.16451377 -0.010029108 -0.07928811 -0.055045098 0.12913503 0.02102516 -0.04733578 -0.017653827
-0.033035133 -0.03122269 0.012251231 -0.061104108 0.0060550454 0.104953885 0.014816456 -0.03812788
-0.0087220585 0.03316893 0.10773219 -0.010647456 -0.087534934 -0.035350665 0.0040975995 0.052038647
-0.025686665 -0.0032042654 0.06121154 -0.091320135 0.07254319 -0.024563937 0.031334095 0.07038482
0.0529683 0.108378686 0.0009355967 -0.08350546 0.03423594 -0.017069016 -0.096146494 -0.104701445
0.025228942 -0.0021434117 0.020267861 -0.045542095 0.02940852 0.09663072 -0.07634308 0.05220239
0.05424138 -0.024188878 -0.026574658 0.08237247 0.09259008 0.034100812 -0.09880444 -0.09068852
-0.01757273 -0.07880815 0.04130251 0.021347553 -0.010314096 0.08489897 0.015693234 0.0025371956
-0.01730044 0.10371723 -0.0773805 -0.03582503 -0.015368689 0.011947909 0.0047992496 0.0341641
0.05770663 0.060903665 0.11910086 0.04813818 -0.062430575 0.053242892 -0.07231938 0.02303737
-0.06407599 -0.12683767 0.046223536 0.03319044 0.053400904 0.0023929123 0.07158427 -0.028701086
-0.015501382 -0.06986043 -0.043678727 -0.10074788 -0.08331646 0.06468931 -0.098617755 0.07618634
0.07657757 -0.018169306 -0.008963159 -0.044284992 0.039532296 -0.03198958 0.058705494 0.023029119
0.02353825 -0.011189667 0.07006623 -0.030779868 0.043520223 0.13388725 0.07318465 -0.06298744
-0.05835466 -0.1044819 0.06651117 0.04900529 -0.0478021 -0.023707516 0.03406376 -0.0611502
-0.0859112 0.008293103 0.002525448 0.12105507 0.09417986 -0.048683148 -0.05845876 -0.09694078
-0.14447725 -0.040331103 0.024808288 -0.0999745 0.07587548 0.0041849213 0.012965655 0.006396527
0.03944312 -0.0020458715 -0.15325841 -0.013416232 0.024230313 0.051853243 -0.043018036 -0.011546272
0.0003377468 -0.03454404 -0.016939364 -0.037206158 0.05115278 -0.030110285 0.002382385 0.06190837
0.023815332 0.06880142 0.067847 0.054920364 0.047325857 -0.09166468 -0.12261505 -0.0673469
-0.086055666 0.013703591 0.05007603 0.030426428 -0.055381108 0.019746171 0.055076692 0.083060436
-0.023763921 -0.047828842 0.04564541 0.023871671 -0.095798425 0.022632666 0.033982333 0.07054169
0.028455853 0.095392235 -0.03264223 0.05050954 0.04546309 0.048440404 0.055033408 0.051930122
-0.08674142 0.10755686 -0.017415725 0.00045344353 -0.0178496 0.059425958 0.077883385 0.066324405
-0.104281366 -0.011315743 -0.015649365 -0.048490062 -0.0053359973 -0.006860163 -0.07074471 -0.108652525
0.020551503 0.018048594 -0.025862832 0.09510894 -0.02691557 -0.07007748 0.09911674 0.075205736
0.0075674634 -0.018355915 0.03618751 0.05400194 -0.0038928934 0.06257422 0.06304032 -0.101133555
0.05008513 0.042947665 0.0068791863 0.022462785 -0.05733803 -0.049967214 -0.08777821 -0.033361048
0.029544549 0.024087854 -0.062686294 -0.026789302 -0.0020406535 -0.04804956 0.02773117 0.039837338
0.033834662 -0.05455875 -0.023276633 0.027226085 -0.093690544 0.08957569 -0.0008668721 0.038775533
00000000: 53f9 1b3e 08de 2ebb 097a 21bd cc95 b2bd
00000010: 9644 0bbd eb58 abbd d7b4 bdbc be65 14be
00000020: c69b 50bd a987 95bc 7143 98bc 57cc e6bd
00000030: ac1e 643d 88f8 cbbd 30d7 d43c 0600 5dbd
00000040: 4c76 28be 2151 24bc ce61 a2bd f876 61bd
00000050: f93b 043e f53c ac3c 2ae3 41bd c29e 90bc
00000060: d94f 07bd bac6 ffbc 63b9 483c 4d48 7abd
00000070: 6769 c63b 10f2 d63d b8c0 723c fb2b 1cbd
00000080: f7e6 0ebc 25dc 073d b2a2 dc3d ab72 2ebc
00000090: 8445 b3bd dccb 10bd 2845 863b 7a26 553d
000000a0: d76c d2bc a7fe 51bb f4b8 7a3d 0d06 bbbd
000000b0: 8691 943d 4f3a c9bc 2e58 003d eb25 903d
000000c0: 4af5 583d a5f5 dd3d d542 753a e904 abbd
000000d0: fc3a 0c3d 52d4 8bbc 74e8 c4bd b66d d6bd
000000e0: edac ce3c 7b78 0cbb c908 a63c 598a 3abd
000000f0: 23ea f03c 54e6 c53d c359 9cbd 2cd2 553d
00000100: 362c 5e3d c127 c6bc 19b3 d9bc e6b2 a83d
00000110: de9f bd3d 4bad 0b3d fb59 cabd e7ba b9bd
00000120: b0f4 8fbc 2b66 a1bd d22c 293d 10e1 ae3c
00000130: 74fc 28bc 83df ad3d 198f 803c 1447 263b
00000140: a7b9 8dbc b369 d43d ab79 9ebd 44bd 12bd
00000150: f4cc 7bbc 2ac1 433c 0643 9d3b a8ef 0b3d
00000160: ca5d 6c3d 1f76 793d 27eb f33d 8a2c 453d
00000170: 34b7 7fbd 3815 5a3d 2f1c 94bd deb8 bc3c
00000180: 463a 83bd bce1 01be e454 3d3d b3f2 073d
00000190: e8ba 5a3d 68d2 1c3b c69a 923d 8a1e ebbc
000001a0: 82f9 7dbc fc12 8fbd 77e8 32bd e854 cebd
000001b0: d2a1 aabd d47b 843d 1bf8 c9bd 9507 9c3d
000001c0: b3d4 9c3d ccd7 94bc 37da 12bc 2e64 35bd
000001d0: 9eec 213d 8107 03bd 2c75 703d 90a7 bc3c
000001e0: 4ad3 c03c dd54 37bc e27e 8f3d 1026 fcbc
000001f0: 4342 323d bd19 093e d5e1 953d 8fff 80bd
00000200: 4c05 6fbd 9bfa d5bd 0237 883d c5b9 483d
00000210: 23cc 43bd 4436 c2bc 7186 0b3d a278 7abd
00000220: 36f2 afbd ccdf 073c fd81 253b b8eb f73d
00000230: 5fe1 c03d fb67 47bd 7472 6fbd e388 c6bd
00000240: d8f1 13be 3a32 25bd c03a cb3c 6ebf ccbd
00000250: 9b64 9b3d aa21 893b e66d 543c f599 d13b
00000260: 1c8f 213d 0714 06bb c6ef 1cbe c1cf 5bbc
00000270: a67e c63c 1164 543d ae33 30bd 932c 3dbc
00000280: 9c13 b139 0d7e 0dbd 6cc4 8abc 7c65 18bd
00000290: 9485 513d d8a9 f6bc ca21 1c3b a293 7d3d
000002a0: 5f18 c33c c2e7 8c3d 5ef3 8a3d 2df4 603d
000002b0: c2d8 413d b1ba bbbd 991d fbbd 2ced 89bd
000002c0: f43d b0bd 0785 603c 861c 4d3d d840 f93c
000002d0: 4dd7 62bd b9c2 a13c 1998 613d 971b aa3d
000002e0: 8eac c2bc 2de8 43bd aef6 3a3d 868e c33c
000002f0: f731 c4bd 2468 b93c 0f31 0b3d 2978 903d
00000300: 401c e93c 015d c33d dcb3 05bd 17e3 4e3d
00000310: 8137 3a3d 7269 463d b66a 613d aeb4 543d
00000320: 7ca5 b1bd c546 dc3d 6cab 8ebc 29bc ed39
00000330: 5339 92bc a268 733d 5381 9f3d 17d5 873d
00000340: 7891 d5bd ab65 39bc 1933 80bc 849d 46bd
00000350: 97d9 aebb 38cb e0bb 9ae2 90bd 3785 debd
00000360: a05b a83c a5da 933c 4ade d3bc 7ac8 c23d
00000370: 0b7e dcbc c884 8fbd b8fd ca3d 7705 9a3d
00000380: 7cf8 f73b 255f 96bc 5b39 143d 2331 5d3d
00000390: ea1f 7fbb ea26 803d 491b 813d 1c1f cfbd
000003a0: 1126 4d3d e4e9 2f3d cc6a e13b e003 b83c
000003b0: 48db 6abd 6caa 4cbd 10c5 b3bd 98a5 08bd
000003c0: 6907 f23c e453 c53c ac61 80bd 3d75 dbbc
000003d0: 7cbc 05bb 9ecf 44bd 7b2c e33c 7a2c 233d
000003e0: 3796 0a3d ff78 5fbd a3ae bebc 3d09 df3c
000003f0: d4e0 bfbd 7673 b73d cd3e 63ba 18d3 1e3d

lstm.weight_hh_l1 f4 [512, 128]
0.054541226 0.04484781 -0.028530922 0.043280646 -0.015492754 0.1244823 0.06792458 0.028200611
-0.04722506 0.08284506 0.035302866 0.016008228 -0.080911726 -0.027937494 -0.004121794 0.049318887
-0.04622776 0.041300558 0.029611304 -0.14723724 -0.015079274 -0.04622123 0.09289041 -0.048261426
-0.04213593 -0.0742754 -0.04254977 -0.009335843 -0.053172622 -0.010728116 -0.031876016 -0.03675936
-0.076973334 -0.16583396 0.038379576 -0.05680237 -0.023734838 0.059571814 -0.04989756 -0.06156443
0.048291206 0.056869745 0.0065600323 -0.054397844 0.073750086 -0.023820216 0.057873234 -0.073689684
-0.074064 0.06320346 0.0620417 0.11406512 0.121785946 0.06912373 -0.025892392 -0.07639267
0.008054747 -0.0059939357 -0.027644228 0.04154981 -0.034410402 -0.10695086 -0.051539995 0.079853155
0.0029786385 0.02990418 -0.088993505 -0.020559506 -0.075382605 0.04096888 0.008855014 -0.029859206
-0.0555834 0.03310511 0.027653346 -0.119041994 -0.021484435 0.037059877 -0.029616391 0.018289493
-0.060936622 -0.036493648 -0.094181485 0.055020787 0.07234222 0.060482193 -0.095380716 -0.04888602
0.077283464 0.025223523 0.096113175 -0.043951754 -0.004270581 -0.028948389 0.123419166 -0.079832
0.030076446 -0.111802705 -0.056921367 -0.07609141 0.054834753 0.09417243 -0.0053500966 -0.017768098
-0.04467805 -0.007791686 0.030411894 -0.07013656 0.037717827 0.052857857 0.08280133 0.013799743
-0.02248656 -0.032003935 0.0022629169 -0.02948359 -0.097630136 0.03594329 0.010625683 -0.053013306
0.009249856 0.08423247 -0.05927771 0.019043738 -0.010463812 -0.029124612 -0.048854057 0.12869969
-0.038086146 0.0036693786 -0.13824216 0.040609237 0.053876847 0.031492542 2.8780712e-05 0.007915742
-0.0008156264 -0.04261722 0.04006158 0.016015831 -0.033780757 0.10607209 0.047070876 -0.050350808
-0.04948303 0.07137323 -0.02392009 -0.009406386 0.03898052 0.085461125 -0.06433301 -0.075582944
0.063240595 -0.056542233 -0.021891175 0.06631454 0.11645468 -0.044867642 -0.07518157 0.049788803
0.0075257476 -0.036560986 -0.23212115 -0.05106559 -0.0017592313 -0.010383851 -0.03932891 0.13207982
0.12643087 -0.08271158 0.06288733 -0.07751816 0.08958966 -0.14446995 0.041676402 -0.03659118
-0.0010904062 0.0066605182 -0.10787598 0.0994361 0.11346891 0.046277545 -0.059290636 -0.04499649
-0.030092876 -0.009199428 0.052837 -0.02684506 0.09694958 0.069952495 -0.07002358 -0.10798809
0.038192935 -0.0024663492 -0.08662861 -0.06893787 0.05771947 -0.014390034 0.062014922 -0.13818964
-0.029408103 -0.082988806 -0.01989044 -0.03326386 -0.00764669 0.09831425 0.072561674 0.029401816
-0.038940173 -0.07468808 -0.11174431 0.09085304 -0.011651295 -0.049771093 -0.08811018 -0.09302507
0.06744124 -0.016099283 0.11013177 -0.054124046 -0.119952254 0.08895653 -0.016888743 -0.042574186
0.109494776 -0.056372073 0.09815407 0.17266439 0.008785977 0.091295265 -0.017723816 -0.069383286
-0.023274789 0.063354336 -0.021067597 -0.046247657 -0.04059395 0.020093087 0.07656108 0.021348905
-0.017716479 0.0047892937 -0.031881247 0.08681999 -0.04635191 0.023835292 -0.08709472 -0.1263966
-0.105840154 0.07908269 -0.02245519 -0.08512798 -0.0017241 0.031587794 0.046394166 0.0508329
00000000: 9f66 5f3d 56b2 373d aeb9 e9bc 0c47 313d
00000010: 52d5 7dbc 93f0 fe3d 0b1c 8b3d f804 e73c
00000020: 116f 41bd acaa a93d bd99 103d b023 833c
00000030: 0cb5 a5bd 2cdd e4bc 1d10 87bb 9a02 4a3d
00000040: 5259 3dbd c62a 293d 6893 f23c 5cc5 16be
00000050: 0f0f 77bc 7952 3dbd 543d be3d c6ad 45bd
00000060: ba96 2cbd b31d 98bd ab48 2ebd 5df5 18bc
00000070: 89cb 59bd fbc4 2fbc 6d90 02bd fc90 16bd
00000080: 32a4 9dbd 61d0 29be e733 1d3d 9aa9 68bd
00000090: 906f c2bc 9301 743d 6261 4cbd fc2a 7cbd
000000a0: 00cd 453d 40f0 683d 8af5 d63b 46d0 5ebd
000000b0: 490a 973d 9d22 c3bc 7c0c 6d3d 9eea 96bd
000000c0: deae 97bd d170 813d 701f 7e3d f99a e93d
000000d0: e96a f93d be90 8d3d 481c d4bc c373 9cbd
000000e0: 0ff8 033c c768 c4bb 2676 e2bc 2230 2a3d
000000f0: ecf1 0cbd 0d09 dbbd 9a1b 53bd 0d8a a33d
00000100: 4335 433b 9cf9 f43c 3a42 b6bd 696c a8bc
00000110: 3262 9abd fcce 273d 9f14 113c 4b9b f4bc
00000120: 6bab 63bd 3999 073d 4589 e23c 4acc f3bd
00000130: 2000 b0bc 19cc 173d 139e f2bc d9d3 953c
00000140: ae98 79bd 5d7a 15bd 39e2 c0bd 7a5d 613d
00000150: 2828 943d 2dbc 773d f756 c3bd b53c 48bd
00000160: cb46 9e3d 90a1 ce3c fcd6 c43d c106 34bd
00000170: 3bf0 8bbb 2c25 edbc 30c3 fc3d f67e a3bd
00000180: e162 f63c d1f8 e4bd 6126 69bd d0d5 9bbd
00000190: 689a 603d 7add c03d dd4f afbb 678e 91bc
000001a0: 5500 37bd 6651 ffbb 5d22 f93c c2a3 8fbd
000001b0: 027e 1a3d 7b81 583d be93 a93d 5118 623c
000001c0: bc35 b8bc 8f16 03bd 724d 143b 9287 f1bc
000001d0: 4ff2 c7bd 4539 133d 5817 2e3c 7b24 59bd
000001e0: b58c 173c 1382 ac3d 2fcd 72bd 9d01 9c3c
000001f0: 6970 2bbc bd96 eebc 311b 48bd dac9 033e
00000200: 3800 1cbd f579 703b 5a8f 0dbe df55 263d
00000210: f8ad 5c3d 53fe 003d 1c6e f137 07b1 013c
00000220: c3cf 55ba 658f 2ebd 9c17 243d a233 833c
00000230: b15d 0abd 533c d93d 64cd 403d a63c 4ebd
00000240: b8ae 4abd 212c 923d 11f4 c3bc 3e1d 1abc
00000250: 0aaa 1f3d 3e06 af3d 06c1 83bd 3bcb 9abd
00000260: 4984 813d d498 67bd 1f55 b3bc ebcf 873d
00000270: cb7f ee3d 22c7 37bd ccf8 99bd 58ef 4b3d
00000280: 8c9a f63b f9c0 15bd 2bb1 6dbe 272a 51bd
00000290: 0296 e6ba 0721 2abc 5a17 21bd ef3f 073e
000002a0: 1877 013e b064 a9bd 13cb 803d d7c1 9ebd
000002b0: c97a b73d eeef 13be e0b4 2a3d a2e0 15bd
000002c0: f6eb 8eba 7a40 da3b 15ee dcbd 27a5 cb3d
000002d0: 6362 e83d 868d 3d3d bdda 72bd 3d4e 38bd
000002e0: 5685 f6bc 33b9 16bc 9c6b 583d 2cea dbbc
000002f0: 808d c63d 4143 8f3d 8668 8fbd dc28 ddbd
00000300: 3270 1c3d 79a2 21bb 576a b1bd 4c2f 8dbd
00000310: 406b 6c3d 2dc4 6bbc 5c03 7e3d 9681 0dbe
00000320: 43e9 f0bc 09f6 a9bd 47f1 a2bc af3f 08bd
00000330: 1691 fabb fb58 c93d 379b 943d 14dc f03c
00000340: bb7f 1fbd 10f6 98bd 33da e4bd 2911 ba3d
00000350: 13e5 3ebc c6dc 4bbd 1c73 b4bd ee83 bebd
00000360: a21e 8a3d a5e2 83bc c48c e13d 2db1 5dbd
00000370: 87a9 f5bd d72e b63d 435a 8abc 4562 2ebd
00000380: cc3e e03d 67e6 66bd 0005 c93d efce 303e
00000390: 0ff3 0f3c 03f9 ba3d 8931 91bc d318 8ebd
000003a0: c5aa bebc ebbf 813d f495 acbc 2f6e 3dbd
000003b0: d745 26bd 429a a43c 0ecc 9c3d e6e3 ae3c
000003c0: 2622 91bc 82ef 9c3b e995 02bd aece b13d
000003d0: 80db 3dbd 3b42 c33c b75e b2bd 1c6e 01be
000003e0: b9c2 d8bd 1bf6 a13d f2f3 b7bc 9457 aebd
000003f0: 32fb e1ba 3462 013d cf07 3e3d 2936 503d

lstm.bias_ih_l1 f4 [512]
0.053502355 -0.05175908 -0.022457527 -0.010131319 -0.055260528 0.009210078 0.04349095 0.04576142
0.034424976 0.06790783 -0.009225277 0.06883324 -0.048039585 0.042820398 -0.07209284 0.013060803
-0.03726169 -0.09790032 0.024329066 0.03092724 -0.08346799 -0.08691746 0.029913548 0.005328851
-0.05677053 -0.0032901026 -0.028878747 0.09022136 -0.07804652 0.09488919 -0.044328365 -0.076404095
0.062760904 -0.07334553 0.03603043 -0.010902351 -0.08280276 -0.028010288 0.033879332 0.05030367
0.026349993 -0.03727916 -0.038180824 -0.11123558 0.06087854 0.004092026 -0.048778184 -0.025313916
0.08088241 0.028085988 -0.052298192 -0.005929658 0.012638879 -0.025669642 -0.064605094 0.006510271
0.0019998362 -0.043688774 0.04221099 0.07194168 -0.027729372 0.01568688 0.044562787 0.09833303
-0.01710523 -0.0009887606 -0.084967494 -0.04653337 -0.11129992 -0.061663255 -0.009731738 -0.037649672
0.0039493465 0.055654608 -0.0013914185 0.032608315 -0.10964311 -0.03509747 0.08083979 -0.08928972
-0.0558673 0.03391673 -0.058485255 -0.054910198 0.035322677 0.07336836 -0.08061433 0.0063134274
-0.0058209826 0.042165305 -0.09968565 0.09341502 0.065792195 0.0228173 0.07157444 -0.08737192
0.0020572762 0.0071574897 0.0005338067 0.016266353 -0.04328347 0.04860218 -0.07668473 -0.040043645
-0.02805227 -0.041038092 0.008483831 0.0073481854 -0.087450124 0.010891316 -0.07726309 0.023296105
-0.014882487 -0.049767856 0.008804985 0.049384225 -0.00524534 0.041457158 0.01700285 0.039758217
-0.01661901 -0.008624324 -0.033660844 -0.05278238 0.07441824 0.05297133 0.07425296 -0.10043422
0.04430885 -0.017686302 -0.020280764 0.08280781 0.06468287 0.05186934 0.016927589 0.090147644
0.07299499 0.0093647875 -0.02451 0.03948142 -0.06756646 -0.046010483 0.015732741 0.051539645
-0.041617516 -0.010500297 -0.027723122 -0.07553863 0.066833146 -0.03443868 0.051362727 0.034744535
0.058849525 0.021787375 -0.033781722 0.025569139 0.06105238 0.073767595 -0.070705615 -0.036243718
-0.054910954 0.049927734 -0.06446326 -0.06924272 -0.013916352 0.03514214 0.075527236 0.10746362
-0.028910235 -0.087162085 0.015342649 -0.09735709 0.08916205 0.0383533 -0.06570091 -0.0064465203
0.05447914 0.06811548 -0.021608412 0.08665537 0.061316706 0.035881076 0.009547298 0.011405228
-0.046737745 -0.026319465 0.051637176 0.097677164 -0.08768551 -0.016637381 -0.03568951 0.04841308
0.0033102902 -0.07077529 -0.014160579 -0.07866461 0.045008592 -0.039627526 0.0006355954 -0.050649066
0.047702953 -0.014967455 0.05411525 0.022352902 -0.09280531 -0.024700372 0.017772142 0.07311109
0.0066511873 0.04953178 -0.093267314 0.064183146 -0.01985985 -0.06658188 -0.056987226 0.051870756
0.014743622 -0.09153221 0.04811666 0.011062635 -0.041947477 -0.14096643 0.071127735 0.047116753
-0.078845486 0.054878652 -0.021798557 -0.0100853015 -0.012418943 0.049715728 0.00030018153 0.06078248
-0.011691387 -0.057410706 0.0052403114 0.060886584 0.038878247 -0.10941627 0.13573593 0.03166108
-0.08181884 0.011282202 0.09176746 -0.030888688 0.044269923 0.019575594 0.054011557 -0.05353997
0.010559031 -0.0410681 -0.030931808 0.00630791 -0.0007539871 0.015123064 0.08987009 -0.041307572
00000000: 4925 5b3d 5401 54bd d9f8 b7bc d5fd 25bc
00000010: dd58 62bd dee5 163c 9123 323d 5470 3b3d
00000020: 3401 0d3d 4313 8b3d 9e25 17bc 71f8 8c3d
00000030: 28c5 44bd 7164 2f3d 69a5 93bd fafc 553c
00000040: b79f 18bd f77f c8bd c04d c73c 205b fd3c
00000050: 44f1 aabd c801 b2bd 420d f53c a49d ae3b
00000060: 3788 68bd c39e 57bb 1f93 ecbc fac5 b83d
00000070: dbd6 9fbd 4355 c23d a991 35bd c079 9cbd
00000080: ca88 803d 2e36 96bd a594 133d c69f 32bc
00000090: 7e94 a9bd d575 e5bc 0ec5 0a3d 390b 4e3d
000000a0: f1db d73c 08b2 18bd 7f63 1cbd 7bcf e3bd
000000b0: c75b 793d 6716 863b a2cb 47bd 215f cfbc
000000c0: ada5 a53d 9614 e63c a136 56bd 944d c2bb
000000d0: 4d13 4f3c 2449 d2bc ad4f 84bd 1d54 d53b
000000e0: af0f 033b 00f3 32bd 6ee5 2c3d 2956 933d
000000f0: b528 e3bc c681 803c 7887 363d d462 c93d
00000100: 4420 8cbc 4d99 81ba 7003 aebd c699 3ebd
00000110: 36f1 e3bd 9c92 7cbd de71 1fbc 8b36 1abd
00000120: 8569 813b 16f6 633d 4260 b6ba 4c90 053d
00000130: 918c e0bd 5dc2 0fbd 558f a53d 87dd b6bd
00000140: 1cd5 64bd 45ec 0a3d 3c8e 6fbd 84e9 60bd
00000150: 83ae 103d 2742 963d 2019 a5bd dee0 ce3b
00000160: f1bd bebb 87b5 2c3d fd27 ccbd 6050 bf3d
00000170: 0fbe 863d 59eb ba3c 9f95 923d 0df0 b2bd
00000180: 5ed3 063b 6089 ea3b 29ef 0b3a 0441 853c
00000190: 024a 31bd 1413 473d e20c 9dbd ce04 24bd
000001a0: e0cd e5bc 8f17 28bd c4ff 0a3c 0cc9 f03b
000001b0: 0d19 b3bd 7e71 323c 1c3c 9ebd 79d7 be3c
000001c0: add5 73bc 61d9 4bbd c942 103c 1d47 4a3d
000001d0: 1ae1 abbb fbce 293d 9049 8b3c 83d9 223d
000001e0: 9724 88bc 094d 0dbc f4df 09bd 5632 58bd
000001f0: 9768 983d 77f8 583d f011 983d 75b0 cdbd
00000200: 327d 353d dde2 90bc d823 a6bc 2497 a93d
00000210: 7478 843d f274 543d baab 8a3c 549f b83d
00000220: 667e 953d c46e 193c 32c9 c8bc 45b7 213d
00000230: 4960 8abd 7d75 3cbd f3e1 803c 3c1b 533d
00000240: 2177 2abd 7009 2cbc 9a1b e3bc ffb3 9abd
00000250: d1df 883d 930f 0dbd b961 523d 4950 0e3d
00000260: 330c 713d 707b b23c b45e 0abd 5f76 d13c
00000270: 0f12 7a3d 7713 973d 1bce 90bd 4b74 14bd
00000280: 4fea 60bd 0681 4c3d 5005 84bd 21cf 8dbd
00000290: 6901 64bc 34f1 0f3d 06ae 9a3d e315 dc3d
000002a0: 28d5 ecbc 0982 b2bd bc5f 7b3c 2763 c7bd
000002b0: 989a b63d 5a18 1d3d 338e 86bd 553d d3bb
000002c0: 8525 5f3d 2180 8b3d 2004 b1bc 5f78 b13d
000002d0: 3a27 7b3d 09f8 123d 456c 1c3c fedc 3a3c
000002e0: 1470 3fbd eb9b d7bc 8181 533d f70a c83d
000002f0: 7694 b3bd 1e4b 88bc 2a2f 12bd cb4c 463d
00000300: 74f1 583b a3f2 90bd c601 68bc e91a a1bd
00000310: ee5a 383d 7950 22bd 169e 263a 6575 4fbd
00000320: 2c64 433d 0e3a 75bc f4a7 5d3d 6f1d b73c
00000330: b610 bebd 6f58 cabc e296 913c 44bb 953d
00000340: 34f2 d93b d6e1 4a3d ef02 bfbd 7472 833d
00000350: 20b1 a2bc 155c 88bd 706b 69bd 6e76 543d
00000360: 3c8f 713c 3d75 bbbd fa15 453d 0e40 353c
00000370: 1ed1 2bbd 8159 10be 6bab 913d 7ffd 403d
00000380: be79 a1bd 70c8 603d e392 b2bc d23c 25bc
00000390: d378 4bbc b8a2 4b3d af61 9d39 0df7 783d
000003a0: 3b8d 3fbc 7d27 6bbd ebb6 ab3b 3664 793d
000003b0: cc3e 1f3d a315 e0bd 5cfe 0a3e 0caf 013d
000003c0: a390 a7bd fcd8 383c 94f0 bb3d 460a fdbc
000003d0: 6154 353d ff5c a03c 393b 5d3d ba4c 5bbd
000003e0: c9ff 2c3c 0637 28bd b464 fdbc 96b2 ce3b
000003f0: 38a7 45ba bac6 773c cf0d b83d 2132 29bd
